trained_NNs/lstm_noisefactor1.pth (torch, 3802 bytes, 6 tensors)

lstm.weight_ih_l0 f8 [20, 3]
0	0x400a350aba9e15b0	3.27589937014519
1	0xc011c2388c95724b	-4.439668842908371
2	0x3fb6136d5d502de0	0.08623393562464043
3	0xbff7f2a6834bd8c9	-1.496740830303269
4	0xbfd279aa3f11cde0	-0.28867584380279077
5	0xbfe11a010fe9604a	-0.5344243345998703
6	0xbfd6f08ce8d23a7e	-0.3584320329327183
7	0x3fd11db31f7df31e	0.26743772578611125
8	0x3fe75b0d323b140d	0.7298646908826655
9	0x3fee7a55a50fa1cd	0.9524334167336349
10	0xbff14a0f96a6e068	-1.0805812725866648
11	0xc010bc0b6e9f1d46	-4.183637360059327
12	0xc000a2ffe19532ea	-2.0795896171242605
13	0x400a0509400d9abf	3.252459049620796
14	0xbfb8a21c87d2a1f2	-0.09622362438188484
15	0x3ffa2dbbebf0d900	1.6361655441701828
16	0xbfe3e1075777c0a1	-0.6212193210940492
17	0xbfc9706a0b756218	-0.1987431102704853
18	0x3ffd3f6032e6919c	1.8279726017291074
19	0x3fe7dc6f1210cced	0.7456584313244129
20	0xbfd473a13c92ce66	-0.31955748477341783
21	0x3fe5270a67d7ecbe	0.6610157039825919
22	0x3fd29431fc8df575	0.29029512084510795
23	0xbffb1c80acfec4d9	-1.6944586522698073
24	0xbfdd307d7ae2a043	-0.45608460426820246
25	0xbfcf67739ff5c6e6	-0.24534459410238368
26	0xbff20e7ad2cce645	-1.1285351023092443
27	0xbff24a0373b4a77c	-1.1430696983101987
28	0x3fef2c2de8195ad3	0.9741429837402741
29	0xbfaa42941598ef02	-0.0512892032970438
30	0xc021f0264f04bd02	-8.969042271927268
31	0x401368e27e668008	4.852426505094634
32	0xbfeb2c0d41d0611e	-0.8491274152211508
33	0xbfefdf3319cad6ff	-0.9959960464245511
34	0x40007a2df60b8929	2.059657976367039
35	0xbfcd6e0cfbf7a5c0	-0.22992098143667583
36	0xbff56dcb14a55f27	-1.3393050009235112
37	0x3fe4a6cf82efe5f9	0.6453626210561075
38	0x4002c6c4e6fdcaed	2.3470552488519076
39	0xbff54bc153a0e97b	-1.3309949175587394
40	0x3ffb17198fe69f4e	1.6931396123054188
41	0x400939c42d468aac	3.1532062089111914
42	0x400d649fbab98c14	3.674132784640742
43	0xc00f8eb5ee309144	-3.94468294225422
44	0x3fdb587433c492cd	0.4272737985177571
45	0x3ff2cd8ca8e70d12	1.1751829717403024
46	0xbfe066d6236a7f7a	-0.5125532809943103
47	0x3fc8b9d1dba2ed94	0.1931707689708274
48	0x40096c5817613d8b	3.1779023958731094
49	0x4007fdb0caeb50c4	2.9988723614752377
50	0x400066c197fbec0f	2.050173938155701
51	0xbfd9dede50cd86df	-0.4042278088655688
52	0x3fe42c177cca1674	0.6303822934430188
53	0x4002331c08b78950	2.274955814457975
54	0x3fd9f151bc002e01	0.405353959650455
55	0xbfd41a2e63796a6a	-0.31409797395978123
56	0xbfecc3aefe8f4b15	-0.8988871547574911
57	0xbfec6c634adc02be	-0.8882309400651918
58	0x3fd0bff3e2850fc5	0.2617158615214488
59	0xbfc1219a29da18fa	-0.13383795779754576

lstm.weight_hh_l0 f8 [20, 5]
0	0x3fff5514c344ae6c	1.9582717540423813
1	0x40085a6c4ab08de8	3.044151862633715
2	0x3fcd67b8473fd74f	0.22972777823422993
3	0x3fb0336a31ab26cc	0.06328452789889666
4	0xc01274f360fe463f	-4.6142096667477395
5	0x3ff65518d17e4df5	1.3957756217322388
6	0x3fcfa65025c3c031	0.24726297229745023
7	0x3fed2926cf50cb71	0.9112733887799164
8	0x4004c3abcc644bcf	2.595542523203654
9	0x3ff0ef4600ac3d66	1.058416369083568
10	0xbf6a19678255d139	-0.0031859418547190124
11	0xbfbf406588975ba8	-0.12207636437174918
12	0xbfd6e26dbf9f48e7	-0.35757011139970846
13	0x3ff4024a78c55a00	1.250559303056093
14	0x3ff2895cba0becd8	1.158535696739639
15	0xbff180053e28b3ad	-1.0937549999318705
16	0xbff4a9fb60e3da19	-1.2914994988219688
17	0x401423d1ca1c7007	5.034979970918363
18	0x3fe4247ed0bd1251	0.6294550015378012
19	0x3ff77419f3abcd4c	1.4658450621035
20	0xc00159495323f1cb	-2.1685968871445076
21	0x3ff48913506e19ad	1.2834656850624058
22	0x3fb683aab97fbab6	0.08794657734663755
23	0x3fc1e293e4b65951	0.13972710292427817
24	0x3ff1d2b79d2505c4	1.1139446390592278
25	0x401b03da68782066	6.753762848216956
26	0x4003b046de1c68fd	2.4610726692600324
27	0xbfde780a0ea91a53	-0.47607661658949957
28	0x3ff9a55b9228277f	1.6028705319644982
29	0xc010c955da76c7d2	-4.196616567134656
30	0x3ffe9759d63dba58	1.9119509094995433
31	0x40046ce6091a9735	2.553173133014662
32	0x3feb8764377ffded	0.8602772792800671
33	0x400866fb7756ad4f	3.0502843211485593
34	0xbf9110367ca34b24	-0.01666340957383307
35	0x4008af5d4464f66f	3.0856271117507315
36	0xbff0c7b76f78e7f2	-1.0487589220415399
37	0xc0096398b40dfd09	-3.1736311022538115
38	0x40012ce59f47ddb8	2.1469223445708074
39	0x400cb156db4542e7	3.586591446925343
40	0x3fe4dede854ab83d	0.6522057154995832
41	0xc00adb18b192d1f6	-3.356980693142982
42	0x401ac6f413983083	6.69429045311347
43	0x40105960e5ee2a58	4.0872836996664645
44	0x4011e3b080e00a0c	4.472352994608183
45	0xbfb3c433c659bd1b	-0.07721255867521785
46	0x3fc4af0866ae2b16	0.161591577660453
47	0xbff98f804c86096f	-1.5975344647600556
48	0x3ff269d175d97cd4	1.150834522580955
49	0x400e41eb3373acc6	3.782186891524904
50	0xc01710e08b15b537	-5.76648156471247
51	0xc0028b1c6834ea11	-2.3179252759121103
52	0xbfc3b67f9a6aa11f	-0.1540069107043189
53	0xbfe41558694b2540	-0.6276056343569181
54	0x3fff14adea63130f	1.942548671316391
55	0x3ffd63181218f396	1.8366928774769113
56	0xc0146a0e1163294f	-5.10356928985341
57	0xbff447c6bb79c5e4	-1.2675235102909648
58	0xc00602b2458f8c40	-2.751316588824494
59	0xbfd5117fd84ecc4c	-0.3291930782681376
60	0xbfd318fe970eccd9	-0.2984005427526433
61	0x3ff4d8d646b74358	1.3029387247408604
62	0xc01417a59e08359a	-5.023092717410146
63	0xc00a267cedee2829	-3.2687929714493476
64	0xbfd0a0ef7a017902	-0.259822720667117
65	0x40242faab1bca940	10.093099169044422
66	0x3fc3ba81447ad688	0.15412917941801063
67	0xbffa21ef31bfa162	-1.633284754114435
68	0xc0029224f9e0648b	-2.3213595887760383
69	0x40053793d78ed5d7	2.6521374550309065
70	0x3fef05302804008b	0.969383314281019
71	0x400bd82dfe114c0b	3.4805564736393584
72	0x3fd565573683beda	0.33431034396833825
73	0x3fddfa7b181e9b26	0.46841313701081544
74	0xc014e109aec319bb	-5.219763498933783
75	0x3fd49ac167e8ea9d	0.3219455256218369
76	0x3ffcd6486ccd5c59	1.8023151636205255
77	0x3fbd793be10a869c	0.11513113254707225
78	0x3fc03c5a9aa42a23	0.12684185553401148
79	0x3fd0408293c46489	0.2539373820341742
80	0x400ab12e0d42dca3	3.3365136180905934
81	0x3ff30d6f2d29011f	1.1907798542088768
82	0x3ff14a1fb29e62a8	1.0805966355602923
83	0x3fe0d44ec2682a30	0.5259164616593974
84	0xbfe01d2e128309e6	-0.5035620080528218
85	0xbfe7511c7bf3e2e9	-0.7286512776327899
86	0xbff78bec297cd879	-1.4716607685673166
87	0x3feeeb38be70aec5	0.9662135810408122
88	0xc00f85f950587a90	-3.940416934681089
89	0x3fc804b1ac34c6e8	0.18764325054649267
90	0x3fa193e377837980	0.034331425036486785
91	0x3fe779906e2d6a0f	0.7335893775846801
92	0x400bb0da25d197e3	3.4613535837734033
93	0x3fdc2cd2ef7894e9	0.44023583780138026
94	0xbfa0c24fb8494063	-0.032732478376261274
95	0xc002370fd767f660	-2.2768856838800247
96	0x3ff87ae9c07cb741	1.5300080794363142
97	0xbfb22bb546b3ee9f	-0.0709794328321842
98	0xbfd39205fe0fa464	-0.3057875615182353
99	0x3fed59d093bba6bd	0.9172137151155862

lstm.bias_ih_l0 f8 [20]
0	0xbff2c20f14dedc17	-1.172377664113588
1	0xbfffc0438b909c8e	-1.9844394160989256
2	0xbff931b60d8a01ed	-1.5746365097876336
3	0xbfe618a69748c928	-0.6905091242572654
4	0xbfee0be644398c49	-0.9389525730624736
5	0xbff8997e31597ee2	-1.5374738624304247
6	0xbffa9a429e2ac759	-1.662661187973262
7	0xbfeda4aecc04240d	-0.9263528809252662
8	0xc001347ef6b4d657	-2.1506327890336183
9	0xbff4430f10c18f2f	-1.2663717894110496
10	0xbfe7beb57eb10dca	-0.74202990288216
11	0xbfeeff60ffb2e0cc	-0.9686741823307101
12	0xbfc17267435f35a8	-0.13630381383556522
13	0xbfea1db07466c010	-0.8161241792167875
14	0xbfe062400710275b	-0.5119934213591749
15	0xbff7fa3cd19d6360	-1.4985931575849563
16	0xbfe4e95654787c44	-0.6534835481469448
17	0x3fab432d95ac92e1	0.0532469029624616
18	0xbffcf3f378281502	-1.8095583623519933
19	0xbff2f079c2c576b6	-1.1837098701720783

lstm.bias_hh_l0 f8 [20]
0	0xbff106b7b2b9fe7d	-1.0641400319581458
1	0xc00051dba3f0d0d6	-2.0399697120538844
2	0xbffa003ceb8b8f4c	-1.6250580979330662
3	0xbff3028a9c5e7891	-1.188120470825684
4	0xbfe768ad5132fe38	-0.7315279565736494
5	0xbff5b077d44d2485	-1.355583028127769
6	0xc00019c17f4ef009	-2.0125760980572562
7	0xbfeb86191bbd68d6	-0.8601193944735097
8	0xbfffe3fefe6c6411	-1.993163102952398
9	0xbff79002735d486f	-1.4726585871144626
10	0xbfebd39c200d16fd	-0.8695812822340653
11	0xbff2893be817bc47	-1.1585043970224136
12	0x3fd49871c8b8f628	0.3218044719868396
13	0xbfd22233cc4a4cc0	-0.2833375449201405
14	0xbfd97db641f16a4e	-0.3982978481268774
15	0xbff1ac3046bfd77b	-1.1045382274291728
16	0xbfebb3a3e64331e8	-0.865678739291579
17	0xbfd7439019949c57	-0.3634987115678476
18	0xbff663919ff25d6e	-1.3993088004989107
19	0xbff1df75f4a3fa3d	-1.117055850627039

linear.weight f8 [2, 5]
0	0xbfe46f7c3bf5b658	-0.6386090441789731
1	0xbff59558e292a9eb	-1.3489617205146895
2	0x3fff8ceea101fc94	1.971907261787952
3	0x40010bdf4880e329	2.1307969726880356
4	0x3fe66c1553851ae1	0.700693762898336
5	0xbff3d715b74b200c	-1.2400109443569844
6	0x3fe33e1d338fcca6	0.6013322836937689
7	0xbfe24b06f24a09b9	-0.5716585857592725
8	0xbfe446394ff96866	-0.633572250556665
9	0x3ff8f1bf2580d44e	1.559020182129888

linear.bias f8 [2]
0	0x3f58895d597141ed	0.0014975940337259533
1	0x3f8ad72b86e5306e	0.01310571675698943
