trained_NNs/lstm_wsize_4_2layer_net.pth (torch, 7492 bytes, 10 tensors)

lstm.weight_ih_l0 f8 [24, 3]
0	0xbff190550262231b	-1.0977373211955583
1	0x3fea47333ddd7001	0.8211914261150924
2	0x3fe23b62ea3f3a56	0.5697493147980122
3	0x3ff60af1482ea028	1.3776715106596473
4	0xbfcace0ed35d8855	-0.20941338844847004
5	0xbff35c43fc21f4e7	-1.2100257729464887
6	0xbff5baf6c4d5e32a	-1.3581454934012052
7	0x3fe4d62632a2a8e4	0.6511412610027745
8	0x3fb1563f85e8697c	0.06772229212984898
9	0x3ff58f1009c11eb7	1.3474274045019408
10	0xbffa06494af5d6e4	-1.626534741224014
11	0xbfd776f4323f5fb7	-0.36663536936748237
12	0x3fdcf63ae24f9627	0.4525286874835239
13	0xc0014ef22957a151	-2.163547823893318
14	0x3fbb59afc0cdaffb	0.1068372579299534
15	0xbfd83ebb6ea7c043	-0.37882886701754986
16	0x3fd50088f65f04ff	0.32815765437779015
17	0x3ff843977fcecc41	1.5165019028179503
18	0x3ffcef5fff7d4e42	1.8084411602075225
19	0xbfd9bff776da867d	-0.40234171492384246
20	0x3fb41a97ba021874	0.07853077212539167
21	0x3ff866a597955984	1.5250602647043658
22	0xbfce61e54da12d6d	-0.23736254015453132
23	0xbfeeeb7dee58d3fb	-0.96624657203813
24	0xbfeffc4425c8689c	-0.999544214052793
25	0xbfbe5c6f4d9932a5	-0.11859794277661224
26	0xbfd6f8ee415beda9	-0.35894352324222695
27	0x40067d0ad7c9e8a7	2.811055837487476
28	0xbfeae108f7fe1e87	-0.8399700969320784
29	0xbfef612109840eec	-0.9806065736633776
30	0xbfe46b74ff5dc80e	-0.6381173122047146
31	0x4010dd8aa2f885d2	4.216349169176697
32	0x3ff0ae9c40726276	1.0426294820264537
33	0xbff99d9fda69974f	-1.6009825259911457
34	0x3fdb9e09f2707366	0.4315209262438685
35	0xbffc4fb6c046a09b	-1.7694613943840867
36	0xbffc57a39e8cb328	-1.7713962739318934
37	0x4001e7d42a99e3a9	2.2381976440633093
38	0xbfcf93a17b6d1385	-0.24669283415473955
39	0x3fbc870d502abecb	0.11143573004914768
40	0xbfce489d10c82cdd	-0.23659098929815672
41	0xc0050494edf24878	-2.6272371854366234
42	0xc0038cd1a0932111	-2.4437592072391756
43	0x4003511599612b77	2.4145919783381333
44	0x3fd423990c60ca26	0.3146727200393421
45	0x4004b2f4c8327f34	2.5873809471521785
46	0xc00861d646d7ede6	-3.047771981682433
47	0xbfe40900c77006d0	-0.6260990042939856
48	0x4007ca61be6f60e2	2.9738192441692357
49	0xc0052daef2a38224	-2.6473063427113335
50	0xbfa6a96f7ec3edaf	-0.04426144049099478
51	0xbfd7f061036436bb	-0.3740465672607162
52	0x3fc58f92e5bddd4e	0.16844402520994567
53	0x40021422a4f9b68b	2.25983170401634
54	0xc01068eed4b2836a	-4.102473567386236
55	0x3fdd8f410daa2308	0.4618685372775393
56	0x3fd9c960c866392f	0.40291614122624514
57	0xbfd33e7974c00661	-0.3006881370675725
58	0xbfb0e8a6c14ca455	-0.06604997843955236
59	0xbffd530254378b34	-1.832765892956286
60	0x3feab7850e36371f	0.8349023130010415
61	0x3fe245c0a3d951fa	0.571014709489247
62	0xbfd5abd29bec244a	-0.3386122248344391
63	0x3ffde15c0fb3e699	1.8675194371593646
64	0xbfbe60637005d172	-0.11865827069215643
65	0xbfe3ba4acc466483	-0.6164907445664912
66	0x4012891a723b9df7	4.633889946831451
67	0xbfc9f5b5c33faedc	-0.2028109744418235
68	0x3fc30c912aaabe0e	0.14882101615283755
69	0x3ff73fa69ea0969e	1.4530397602442586
70	0x3fb64a343f0b89e9	0.08706976451097827
71	0x3ff71ca051af9a02	1.4444888296944787

lstm.weight_hh_l0 f8 [24, 6]
0	0x3fe9b371603110e1	0.8031546477073129
1	0x3feab5837889190f	0.8346574167451609
2	0xbfdea04ff0ad7a91	-0.47853468421627904
3	0x3fb68d574c34b2c3	0.08809419260496569
4	0xbfbf11d65319f1ed	-0.12136592415658472
5	0x3fa1a4aa6257e6f8	0.03445942354660575
6	0x3fbbe1ab8fcfee71	0.10891220341721365
7	0x3fe24e60600d0e92	0.5720674396511234
8	0x3fcfe1545d0c3297	0.24906401198713432
9	0xbfc97c511b6d8e4c	-0.1991063484120893
10	0x3ff03987a54f7413	1.0140453774868134
11	0x3fbfcd90a1f4e418	0.12423042253512084
12	0xbfdacbe53856850a	-0.4186947870421852
13	0x3fd5ed542e757f22	0.34261040246018315
14	0xbffacdbfb25f12c7	-1.675231644404606
15	0xbfd36ff32632ba6b	-0.3037078736332776
16	0xbfb611bc5528d6d7	-0.08620812491502804
17	0xbfd1f6d13cd9e7e9	-0.28068953459262375
18	0xbffad5cc07807d6b	-1.6771965306323533
19	0xbfedbaf25b99ebd1	-0.9290706433379176
20	0x3fc368eb412174be	0.15163937263688426
21	0xbff5e010879872d8	-1.367203263921672
22	0x3fbfcf7872009670	0.12425949843653838
23	0x3fedb8f72e03a215	0.9288288019861876
24	0x3ffa88fe01cfed11	1.6584453650273796
25	0xbfc847be3d81f8a4	-0.1896894264536445
26	0x3fe3decf41af3e5a	0.6209484370137475
27	0xbfd082196263042a	-0.25794062240680893
28	0x3fe1f5ab848bc9a3	0.5612390126028014
29	0x3fd12e36d775a336	0.2684456924530879
30	0x3fe2318224c59f59	0.5685435026361844
31	0x3fe47a4ae189370f	0.6399282841682367
32	0xbfbe230081f2b12a	-0.11772158787306766
33	0xbfdc576f3101116c	-0.442836568694722
34	0x3fc3485746aed39e	0.15064516974748882
35	0x3fd0107beed598e3	0.2510061104170644
36	0x3fcb7d93d5f6fcc0	0.21476982066631045
37	0x3fea9f22392b1f42	0.831925498635407
38	0xbfe15dc0b49dcf59	-0.5426944282212204
39	0x3fb3e681a66ae9bf	0.07773599923067474
40	0xbfd271aa5dd7de2c	-0.2881875912130194
41	0x3fe426386329050c	0.6296655594561869
42	0xbff621d453f7ae60	-1.383259132383408
43	0xbfe91575ea6bf57a	-0.783869703154479
44	0xbfd2ab05a12de694	-0.2916883539215658
45	0xbfd53d6e81774d93	-0.33187449114958517
46	0xbfc1a45739c765ef	-0.13782778092608747
47	0x3fc4d22681ee2039	0.16266328186270743
48	0x3fe716165322c074	0.7214461921448803
49	0x3fc975fba2e111e5	0.19891305401883055
50	0xbfd21fc9266a34d9	-0.283190047754784
51	0xbfe637830c3e6323	-0.6942763556608934
52	0xbfdda288ab4fd9ae	-0.4630452797859118
53	0x3fda7df1f05dae6f	0.41393707726704226
54	0xbfefeddd01c2382b	-0.9977860483502402
55	0x3fc50bdbad5f7e89	0.1644243809268924
56	0xbf9a498c66ed82c9	-0.0256711900541429
57	0xbff0837c0cd2c488	-1.0321007252607917
58	0xbfc7e01aea960692	-0.18652664617916465
59	0x3ffddae48b10a4e0	1.8659406120516948
60	0x401832d3ee2c7523	6.049636575187182
61	0x3fd21239cde528b0	0.28236241442631194
62	0x400e0c1718737a47	3.755903426193331
63	0xbfe016e3676c85af	-0.5027939815519654
64	0xbfc9300e8941041d	-0.1967790765939136
65	0xc0036d2c786aa8e5	-2.4283074767637225
66	0x3fec9d30d3b24386	0.8941883215612598
67	0x400359c10a471144	2.4188252261102736
68	0xbfed8c52f9846389	-0.9233794091588702
69	0x3fd4b0b45fdbb7ba	0.32328519211921114
70	0xbff7ba5f4fd74f26	-1.483001052741153
71	0xbff09eb5cb4310f5	-1.0387475910111423
72	0xbfe345d9481fa5f0	-0.6022764595665517
73	0xbff218115d749054	-1.130875935611603
74	0xbfea36ecf80604a7	-0.8192047924241209
75	0x3fdcb70f4f5b1a14	0.4486730837783466
76	0x3fef48ee23e15d5a	0.9776526165759762
77	0x3fbae69686c8b321	0.10508099356293289
78	0xbfd6800d14927479	-0.3515656186007799
79	0xbffccb04a98ee60f	-1.7995649932257753
80	0xbfe9d9c12f161467	-0.8078313750890062
81	0xbfd6df30850d58a1	-0.3573724078500025
82	0x3fe6a622ba326f6a	0.7077802311573411
83	0x3fedd0fd165e63a1	0.9317613064659903
84	0xbfe4a8f35517a4e8	-0.645623842426315
85	0x3fef6da936cd1480	0.9821363516172283
86	0xc004381ef896c970	-2.5274028225914478
87	0x40026475098bef05	2.2990513559178702
88	0x3fe030236aaea048	0.505876263011495
89	0xbfe349b588beea31	-0.6027476950469631
90	0xbfe52d0b4f39af2d	-0.6617485568399154
91	0xbff6ca9758498d57	-1.4244607399676477
92	0x3fe7a3d28a92f766	0.7387478548550745
93	0xc005e61429455db5	-2.7373431419652783
94	0xbfdf8a42f16252e9	-0.49281381199516133
95	0xbfc38716941f1a43	-0.1525600646256909
96	0xbfca2a51a4fa67b9	-0.20441647105763908
97	0xbfc2b4cb2fcc0a39	-0.1461423858055058
98	0x3fd8df58d1959b8f	0.3886320158693985
99	0xbff0043c4eae7f5f	-1.0010340760709011
100	0xbfdba64e32d6d0a8	-0.4320254799342913
101	0x3ff07779860e42b0	1.0291686283637027
102	0x3fe894b726e97461	0.7681537399290727
103	0xbff59d5c12f1f1dc	-1.3509178867380944
104	0x3fd7ae6afafe7d65	0.370020623313357
105	0x3fdc58e5f1b351c6	0.442925916705715
106	0xbfe77e7800b432e9	-0.7341880811451037
107	0xbfded006416e8235	-0.48144680394947
108	0x3fd60c852a7b41ba	0.34451417110997407
109	0x3ff63838b62a8fb3	1.3887259593839019
110	0xbff823042b50fb66	-1.508548897938192
111	0x3fcf024cdd060972	0.2422576979843814
112	0xbfe07fbebf426ecf	-0.5155938849961447
113	0xbfd0c5504ddad578	-0.2620430717755293
114	0xbf920c89dc5664aa	-0.017625955651600002
115	0xbfe3fd8774089b76	-0.6246983782083209
116	0xbfe4443cd93218ca	-0.633329796037992
117	0x3fd3e7be97ef7e9c	0.3110195621247642
118	0x3fe0d7a5469adef0	0.5263239268305977
119	0x3fc3378bade33e7b	0.1501326178608798
120	0x40014bfae6646c26	2.1620996474644185
121	0x3ff70abd1d4ef7b8	1.44012175987835
122	0x3ffa3532125bcdea	1.6379872052319748
123	0x3ff1894cd68bfbd1	1.096020544122201
124	0xbfcea2a662232a1a	-0.23933868209708536
125	0x3fdee26cea5e5d09	0.48256991279181755
126	0x3fc4dfd9c0b8c302	0.16308137808075435
127	0xbfc8506bc4849185	-0.18995425315473483
128	0x3fe0642ba8bcac0c	0.5122278495449577
129	0xbff0512f36197034	-1.019820414853723
130	0xbfc504c3c1c61d85	-0.1642079063569605
131	0x3fd92adf1d13fb76	0.3932416709866894
132	0x3fdbb1640ae0cf73	0.4327020746452412
133	0x3fa3b9d58c2463d4	0.03852717719764312
134	0xbfc64aaa20cf40d7	-0.17415358163862635
135	0xbff6e0c910f644f7	-1.4298792517259338
136	0x3fb8cb1665788d3f	0.09684886910740874
137	0x3fefcc90e9c697a6	0.9937214437420507
138	0x3fd7f49549fd6e9b	0.3743031714018145
139	0x3fe492bcff259c10	0.6429123862589012
140	0xbfdb132d3abebe79	-0.42304545151544165
141	0x3ffa00d02fb0e350	1.6251985419205148
142	0x3fd95292a1884fd3	0.39566484236388283
143	0xbfd0b6b845db06b1	-0.2611523325141248

lstm.bias_ih_l0 f8 [24]
0	0xbfeca4049fe738ab	-0.8950217364415683
1	0x3fd35af68c7dd851	0.3024269458759408
2	0xbfc4cefcf2521a6c	-0.1625667746740932
3	0xbfe3088ef7eff9b3	-0.5947947351958675
4	0xbff3e0327e450572	-1.2422356541067896
5	0xbfe2db3273d55fc2	-0.5892574560521029
6	0xc000f158e21bf567	-2.117845312574605
7	0xbfedcfbc59d2ab16	-0.9316083673814741
8	0x3fc46590d89e31f3	0.1593495423989136
9	0xbfc07272a3246ab7	-0.1284926697342905
10	0xbfec5f09e125d42f	-0.8866013905923235
11	0xbff13713b427e190	-1.0759465253196119
12	0x3f8362e9dcb5cc64	0.009466006324805494
13	0x3fb852c2fa48fbce	0.09501284227825055
14	0xbfd5731215543823	-0.33514835436733587
15	0xbfe13ae5cb5e4ce6	-0.5384396526373194
16	0x3fc439332359c20b	0.15799559808830596
17	0xbfe1546199ea7128	-0.5415504461448437
18	0x3fe55af2c4ed7663	0.6673520895235011
19	0xbfe20bdd6f7ba54f	-0.5639483621027156
20	0x3ff20857464e5c0f	1.1270363565761305
21	0xbfe62cd82088d122	-0.6929741511762908
22	0x3fd4e5d0bb4c0e62	0.32652681627971536
23	0x3fb0e1c63afed372	0.06594504299466822

lstm.bias_hh_l0 f8 [24]
0	0xbff00c5c2e60c593	-1.0030175983086778
1	0x3fcd7dc52f4d0353	0.2304007035218328
2	0xbfeceb4fd4e9c937	-0.9037245901547867
3	0xbfe67922fe50c231	-0.7022871939753427
4	0xbfe97980bf7e3f09	-0.7960818996525357
5	0xbfe25a3035572c69	-0.5735093156630572
6	0xbffffb1115f7f72d	-1.9987955911778486
7	0xbfe0c4025d90138f	-0.5239269091986091
8	0x3fa3f9b03400a953	0.039014345500919
9	0xbfd91747c9813249	-0.39204592397871757
10	0xbfed1f9abda2296b	-0.9101079658296788
11	0xbfea03a3b6752ff5	-0.8129442752483543
12	0xbfe692f038115c4b	-0.7054368109774115
13	0x3fb78da2fcf177fa	0.09200495410320278
14	0x3fb4a5ea66f2c35d	0.08065667165170738
15	0xbfbde30cddd4c2ac	-0.11674576202200154
16	0xbfe0d5f56444cddd	-0.5261179884313908
17	0x3fac5dbe62026939	0.05540270754245786
18	0x3fcf82c97067aadc	0.24617879856608382
19	0xbfdf66e4c052e1d9	-0.49065512448899323
20	0x3fe1d2505d78051a	0.556923086696915
21	0xbfdfa337cd3722fa	-0.49433703461231426
22	0x3fd4708ea9deebea	0.31936995114273137
23	0x3fe32d373d76af0c	0.5992695045910934

lstm.weight_ih_l1 f8 [24, 6]
0	0x3fed730b7826381e	0.9202935549417395
1	0x40105532bd624b4c	4.083201369404218
2	0x3fc0b2702d483da3	0.1304455014328428
3	0x3febe89ee62a12d9	0.8721460814855063
4	0x3fb76e422236bc03	0.09152615866945273
5	0x4010e3ff1356ae12	4.222652723470235
6	0xbfd3d020c771134c	-0.30957812763908943
7	0x3ff34714cd4a8c64	1.2048538226306613
8	0xbfdd53b7686cc1cf	-0.45823464582192924
9	0x400451ee15cd4d68	2.5400048926618872
10	0x40112f16e08e333c	4.295985706977088
11	0x3fd57c78ad86a714	0.3357221312131611
12	0x4009ae763f953335	3.210186478367542
13	0x3fdf88232d6c3d5d	0.49268416820355815
14	0x3ffafdd0feb843d2	1.6869668912879558
15	0x3fe3b9fd3e87c508	0.6164537640853789
16	0x40093e9d2abe59bc	3.155573209699666
17	0x40105f827766451d	4.093271127335609
18	0xbfdff7bd6d57927f	-0.4994958465379468
19	0x3ff8a20254c7317e	1.5395530044216623
20	0x3fd3d3c710489c47	0.3098008784313077
21	0x3fc5e400c72c3c0e	0.17102060055955842
22	0xbf9ebca938837421	-0.030016559671697366
23	0x3fe9295587113e22	0.7862956655534996
24	0x3fc342870cc9902a	0.15046775936491602
25	0x3fc95eeafb9b9d48	0.1982091644815489
26	0x3fcbae8c5727e901	0.21626428847941528
27	0x3fe62b001598e848	0.6927490636655955
28	0x3fe4f48b7df238ed	0.6548516712080336
29	0xbfbb611c06af7ef7	-0.10695052302571272
30	0x400292d744330340	2.3216996505802
31	0x3fe9c492aa7294fc	0.8052457169584666
32	0x3ffa6fe40cbbeeb8	1.652317094557402
33	0x3fe4301d6286a80b	0.6308733867965669
34	0x3fd1da3dbdf4cbef	0.2789453845063567
35	0x3f84c0067f9d8a95	0.010131884355080426
36	0x3fe01029b04e6ef9	0.5019730037197113
37	0x3fd548a36e6a4fc7	0.3325584963106362
38	0xbfdccbe56d562f80	-0.4499448364010661
39	0x3fe2965e5301713d	0.5808555241779129
40	0xbfa9769b1404cf7e	-0.0497330152451516
41	0x3fd2a49c79672c77	0.2912970719887151
42	0x3fe3fa194e8816b5	0.6242796453304523
43	0x3fcbcbb5dab77dd6	0.2171542470887135
44	0x3fd70c02ca1ba748	0.3601080869399209
45	0xbfcfad61d8b700dd	-0.24747870523243068
46	0xbfe59e7258c61f3f	-0.675591634165336
47	0xbfc2a5167edae5c9	-0.14566308206648973
48	0x4004aa8cd2d51efc	2.5832764121331575
49	0x3ff10ba9fc20d3c2	1.0653476570853262
50	0x4001b82948bea12f	2.2149224932838005
51	0xbff4a8fc36818df7	-1.2912561539786773
52	0xbfe02a169a4f3830	-0.505137730966231
53	0x4003ff80f10d2953	2.4997576553479717
54	0x3fd3e3637ae3ef80	0.31075369835865985
55	0xbfe8fd0f935f34e4	-0.7808912161214292
56	0xbfd7502de0373602	-0.3642687501531726
57	0xbfedb514cd84efb2	-0.9283546461151586
58	0xbffa3a3764faeb8a	-1.6392129845177998
59	0x3f8885dbbc613c83	0.01197406452788941
60	0x3fe899284a60d8f5	0.7686959698392274
61	0xbfed8c2387522b72	-0.9233567851054956
62	0xbfe768dfcc33482a	-0.7315520275390146
63	0x3fe1974b5e7caff2	0.5497185559702287
64	0xbff45686c49e5bd3	-1.2711246185697191
65	0xbfe32a384fa34872	-0.5989038043428663
66	0x3fd379f9f6830fac	0.3043198497145976
67	0xbfe4c71fb51ee0b9	-0.649307111502842
68	0xbff46c2c9af40917	-1.2764097264158119
69	0xbfe76d36b99002eb	-0.7320817589062164
70	0xbfbfb74faa792d92	-0.12389085685679493
71	0x3fd31c7bc5ecc355	0.2986134941921155
72	0xbff4e937cb661536	-1.306937975431834
73	0xbff877e6c1575efc	-1.529272799720217
74	0x3ff48411ce373e57	1.2822435431770793
75	0xbffcabbd7f7aad14	-1.7919287662178407
76	0x3fcedc59b1261191	0.2410995593055643
77	0x3febdd6f347d55bd	0.8707805657565398
78	0x3ff79ae7e3c36a75	1.4753188035016624
79	0x3fe5e3b9bfd70399	0.6840485331414242
80	0x3fd21846791be6ba	0.2827316458420729
81	0x3ffd4807ea417a09	1.830085673390956
82	0x3ffcab734fc42431	1.791858016573553
83	0xbff6657100098e5f	-1.399765968461814
84	0x400b97ebf3bb343b	3.44918051161815
85	0xbfd27ee21bde481e	-0.2889943382407426
86	0xbfee5a4761d18ad4	-0.9485203657644328
87	0x3ff6ad2fe4133a40	1.4172820004638567
88	0x3fdfdb017b34db32	0.49774205238229563
89	0xbfaa05516eea65fd	-0.0508218238730471
90	0xbfd1597c6a4b5d85	-0.2710867918044289
91	0xc006f5ce6cf0876a	-2.870022631731378
92	0x3fe0bcb77b5b3b93	0.5230367097191099
93	0xbfefb2235114e3e6	-0.9904953559517906
94	0x3f9100d094f2175f	0.016604670611307323
95	0x4006420a3e18ece0	2.7822460986477466
96	0x3ff737732f543b36	1.4510375832357574
97	0x3fd5756d28ec1b67	0.33529213901822746
98	0x400722305937f867	2.891693779964999
99	0xbffb7cd1242b70d4	-1.7179728901747255
100	0xc008b194855c1cb0	-3.0867090624556894
101	0xbfbb8e5a7644f763	-0.10764089000164527
102	0xc00f64b3a7fa5183	-3.9241707919374575
103	0xbfdeb4b4d95aae07	-0.47977944589612814
104	0xc00ae2685d4613cf	-3.360550621701328
105	0x3fe0ca44c5b21f47	0.5246909962888616
106	0x40053946c00df6d8	2.652966976572184
107	0xbfe22ead9c79711a	-0.5681980186596178
108	0x3ff39b5229364224	1.2254201516954106
109	0x400bf4910ee467a2	3.494417301507341
110	0x3fccf158f59c3cdf	0.22611534111681572
111	0x3fc1a9b0a8a3e489	0.13799103006730132
112	0xbfe546ea73809772	-0.6649067169098386
113	0x40118f1982d09dca	4.389745754225666
114	0xbfcc1371f6ceb3b0	-0.2193434195627595
115	0x3feb9d186babcfec	0.8629266837074261
116	0xbfdcb47ec84eca01	-0.4485165554171147
117	0x4008fdd7801a1977	3.1239461906399657
118	0x40101f90d3748487	4.030825904833484
119	0x3f5e45ba6e3ef50a	0.0018476791965292305
120	0x40064a4218ea3d36	2.786258883140955
121	0x3ff1cc8db8aba517	1.11243984352979
122	0x4000168ee9233df0	2.011014768016814
123	0x3fe4c7340c6aa7cc	0.6493168108474889
124	0x40039a7e2c3b3d33	2.450435967977364
125	0x401098b2d4b6d839	4.149119685802412
126	0xbfcd77b223893179	-0.23021532759811317
127	0x3ff7b80a926f3599	1.482431957253857
128	0x3f90eeb8ddf1d0f4	0.016535652681754123
129	0xbfc20716f4eb8943	-0.14084135970103703
130	0x3fc04594ac77a7b5	0.1271234361768713
131	0x3ff55eb8b4c1ba57	1.3356253681955843
132	0x3fecaa9cc2f413e8	0.8958267028507381
133	0xbfeabc9cc84c1e2f	-0.8355239784295402
134	0x3fb1d1212eedfddb	0.06959731479400182
135	0x3ff35d0e3e923d98	1.210218662661509
136	0x3ff71ba8970273e0	1.4442525767146819
137	0x3fc99c874eb44f29	0.20008937209115032
138	0x3ffb3762939ab576	1.7010217443269915
139	0x3ff38e5a295dde74	1.222253953541352
140	0x40000548e72df5e8	2.002580457773309
141	0x3fdb2cc0c7b2f127	0.42460650922636706
142	0x3fb505ce682e7ba2	0.08211984675879916
143	0xbfd8dee2198085a5	-0.3886037110370018

lstm.weight_hh_l1 f8 [24, 6]
0	0xbffc0c3d56ead581	-1.752988185425551
1	0x3fd41f5b957947cb	0.31441392514272754
2	0xbfea2fe134b4e138	-0.8183446912217169
3	0x3fbadd9ff1ccbc3b	0.10494422581972256
4	0xbff13c2a1f2cdbf1	-1.0771886079580748
5	0x4020b2fdb01d3df7	8.34959173542937
6	0xbff4bfd5c5b0aebc	-1.296834728457653
7	0xbfe79f5da37e539e	-0.7382038300735194
8	0x3fe26c95e10e186f	0.5757550616842887
9	0xbfff863f6cff7705	-1.9702753312807897
10	0x4003684140408fa4	2.425905706377266
11	0x3f73df87d9c40566	0.0048518473306569995
12	0xbfc1d2bb554d61b7	-0.1392435232653619
13	0xbffbcb8ee3ead610	-1.7371968176861436
14	0x3ffa8ce2531f5476	1.659395527550513
15	0xc006e5ff93e87dcf	-2.8623038821531064
16	0x4009c6086f656f48	3.221695776255647
17	0xbfe60786da035741	-0.6884187944476495
18	0x3fecd0a7b9632dc5	0.9004706021163932
19	0xbffddfe8cd847615	-1.8671653774284824
20	0xbfb99f3801d5ecca	-0.10008573574843918
21	0x3fb847b1a8ab9ad6	0.09484396331718456
22	0xbfca61a76e7a1edd	-0.2061051644743576
23	0xbfb9030eb9f13338	-0.09770290412525362
24	0xbfeef336c764316a	-0.9671892065394279
25	0xbfe407f8780cc68f	-0.6259729714131071
26	0xbff441a640f62b70	-1.2660276925623428
27	0xbfead6036a0da8e6	-0.8386246749262483
28	0x3ff3d2dd406eeb95	1.2389805333066068
29	0x3fdfd8e3ec76e569	0.4976129349921253
30	0x3fbf953cb1a5001c	0.12337092721008996
31	0x3fe05ccc5369bdd0	0.5113278988991912
32	0x3ff7383e55d35f0b	1.4512313225331492
33	0x3fec08ef4d28ed0d	0.8760906703022627
34	0xbffa0b557f73bb29	-1.6277670839878715
35	0x400b0c7d4f69c759	3.381098385253534
36	0xbfec8c5f25a155ed	-0.8921352133717712
37	0xbfa0d47d19b32bd2	-0.032871159922784124
38	0x3f8731cb0ab0f959	0.011325441612026909
39	0xbfec6d8bc50aab1c	-0.8883723114462074
40	0xbfcf05bdad27205d	-0.24236269907692334
41	0x3feb18ce3576f8f2	0.8467780155404212
42	0xbff1c75f5dd855c7	-1.111174933035146
43	0xbfdc1bc33ea68a72	-0.43919449918954634
44	0x3fca3191710e261e	0.20463769932057202
45	0xbff1e1fed610742f	-1.117674671352926
46	0x3fd80615ec239315	0.37537143764920816
47	0x3fe1259d788a1205	0.5358416895183501
48	0xbfda7d75e473a835	-0.4139075022673098
49	0xbfe25846e0603978	-0.5732759840337129
50	0x3fedc83de8a0d1b0	0.9306935828704379
51	0xbfd6c3c66c34c5d8	-0.3556991631222366
52	0x3ff442495b0a3493	1.2661832386250225
53	0xbfd259017c261a2c	-0.2866824829474435
54	0x3fafd440c6874f77	0.062166237101023585
55	0xbfb5ba11449232ff	-0.08487041401003735
56	0x3fc5c26897aae6ab	0.16999537854808486
57	0x3fdbc553ea301b74	0.433918932627811
58	0x3fe2fa236ae24524	0.5930344665122544
59	0x3ffa221302a25026	1.6333189108745585
60	0xc000007dd79dee36	-2.0002400250503127
61	0xbfeb2a2adc924d8d	-0.8488973911320713
62	0xbff47dd3cffbaf05	-1.280719578203333
63	0xbfef0581ff813d14	-0.9694223394707557
64	0x3fea32ecb68d808f	0.818716389225317
65	0x3ff3ae9262056422	1.230120070357096
66	0xbfb07f5ac885d9a3	-0.06444327731683201
67	0xbf7ad4a6a53675d2	-0.006550456007429388
68	0x3ffe867e50615a46	1.9078353061537583
69	0xbfe287dbb98be078	-0.579084265132237
70	0xbff589d4a5729339	-1.3461500609202643
71	0x400912f331e1f235	3.1342529198721203
72	0xc0033ec67119104d	-2.4056519351743533
73	0x3fe5b1b6a881e390	0.6779435435447443
74	0x3fd0441d78ea6ad2	0.25415741737530795
75	0xc00f593cb89a4935	-3.918572847565111
76	0xbffff192f81be749	-1.996478051353238
77	0x400f56c733871e36	3.917372133789992
78	0xbff01d8867af3939	-1.0072101640867699
79	0xbffa0fcaa1fe32c9	-1.6288553550577254
80	0xbfe7ea1ca13df7b7	-0.7473281049021726
81	0xbff9bd48bf84a38f	-1.6087119561363783
82	0x3ff725ae18ec3783	1.4466992353004293
83	0xbfd4df0aaecd75db	-0.3261133868271295
84	0xbfe9d781af477352	-0.8075569556636799
85	0xbf97de7877c73257	-0.023309595404315733
86	0x3fe737ecb73f9227	0.7255767420834375
87	0x3ffb8d1aee0996fa	1.7219495104158669
88	0x40107f86d156dc48	4.124537726332228
89	0xbfe7a29891be876d	-0.7385981413428745
90	0xc0156a73012a981b	-5.353954332566015
91	0xc00799a942dffe34	-2.9500298714263185
92	0x3fd87f9c365ff3ad	0.3827887087825797
93	0xbfcb6bab06632e72	-0.21422326862226587
94	0xc0035fe6b408457b	-2.421826750280784
95	0x400597f8e4fbb094	2.6992051972684497
96	0xbfdc5d38327a34f7	-0.4431896679823945
97	0x3faa52df2ee1c3cb	0.05141351172722571
98	0x4013060df93ed00d	4.755912680109771
99	0x3fffbcde21cce8bb	1.983610279114642
100	0xc004c23218f79f0b	-2.594822115952302
101	0xbfe39c7ed692c0b4	-0.6128534499057623
102	0x40013a223a56b722	2.1533855970109395
103	0xbfe2cc7220b28d72	-0.5874567640898205
104	0xc01775c557049d4a	-5.865010604530946
105	0xbfcd63302a1a03dc	-0.22958948188536865
106	0x3ffc8e47c2cb9ac4	1.784736405295619
107	0xbff0f510faf7483f	-1.059830646835067
108	0xbff15e2305a9e23b	-1.085482618449659
109	0x3fe28875641f7526	0.5791575389409089
110	0xbff3634763698dda	-1.2117380030912188
111	0x3fd0fb2e6abaaa1b	0.265330890872663
112	0xbfd91dfbd12701ea	-0.39245505738293096
113	0x4021359299791b74	8.604634090455626
114	0xbff6b36ce6298539	-1.4188050261221419
115	0xbfe99c04e046aa44	-0.8002952938453025
116	0x3fe045efe04fe8b6	0.5085372334572387
117	0xbffddd9a76ce1883	-1.8666023865530696
118	0x3ffdbbeba5e3fda5	1.8583790283299575
119	0xbfd35a506bbdec46	-0.30238733789127925
120	0xbfda705cce292d82	-0.41310806401153155
121	0xbff37bfa3d0a707c	-1.217767942848723
122	0x3ff640ca26eb96f5	1.3908177872012264
123	0xc00275c482bc5210	-2.3075037206383584
124	0x40093d183d113ba1	3.154831387604148
125	0xbffb5ccc87ded0f3	-1.7101559932171397
126	0x3fe7c54dde8f8320	0.7428349825750935
127	0xc00326c2a1358898	-2.3939259142362737
128	0xbff3fc6e5788cf49	-1.249128667765904
129	0x3fd5ec9d3cc2333e	0.3425667851777695
130	0x3fe185e5ac7bd617	0.5475948685477218
131	0x3fa8a8abe0b55c9e	0.04816186063788418
132	0x3fd43bafe08e28b4	0.3161430066035209
133	0x3fc347c8e602e520	0.15062819701214725
134	0xbfdda483d4cb6e76	-0.46316619663932757
135	0x3fc22b98a4fc1550	0.1419554524983746
136	0x3fcf9347bb29a367	0.24668213499833344
137	0xbfeadc2d12aaf270	-0.8393769611935351
138	0x3fc7178be15e2f06	0.18040607933323133
139	0x3fe541db3b404ebf	0.6642891080141097
140	0x3fe8ef7466320e8f	0.7792303081518684
141	0x3fefc1ac4365612f	0.9923917118385698
142	0xbff5562221443e95	-1.3335286426044253
143	0x40072a88de5887e9	2.8957688685195433

lstm.bias_ih_l1 f8 [24]
0	0xc0029602725b4b50	-2.3232468542204643
1	0xc004acd022f74500	-2.584381364031856
2	0xbffea3a485bed450	-1.9149518227034328
3	0x3fadbe1b99ef7a12	0.058091032544087665
4	0xbfe87706f7b18edd	-0.764529689575706
5	0xbfefa4bb589743ce	-0.9888588648119538
6	0xc0108062fd5614c4	-4.125377615336394
7	0xc0050990929e8710	-2.629670281851652
8	0xc003431b3684d933	-2.4077667483608365
9	0xbff4b1f1fae4a181	-1.2934436607848456
10	0xbfde126854387ac2	-0.46987350678129414
11	0xc0035b8ebd46a2aa	-2.419705847471353
12	0xbf9e4a277e4ed3d5	-0.029579751095031376
13	0xbfe22656d3474540	-0.5671800734072932
14	0x3fd08dc58c87490d	0.2586530563686587
15	0x3fda60bb047ad98a	0.4121539634465071
16	0xbfb44f4523b46c9f	-0.07933456536959448
17	0xbfc78d19914965d8	-0.1839935264022603
18	0xc000650e585bcf86	-2.049343767453993
19	0xc002604c4f8eb16e	-2.2970205512448763
20	0xc0013ef4f38ea8ce	-2.155740645209426
21	0xbfe700f204a3f9be	-0.7188654032359449
22	0xbfa572f4cdbc4039	-0.041892671693972656
23	0xbff72682fb01151a	-1.4469022564747491

lstm.bias_hh_l1 f8 [24]
0	0xbffc88c4f41b5be3	-1.7833909545349733
1	0xbffe40ebfeabb5f6	-1.890850062186812
2	0xc002210bc6e216bf	-2.2661357438799707
3	0xbfc2551b9993deb4	-0.14322228430659367
4	0xbfef6e93128ff78a	-0.982247864012366
5	0xbff6883f3ba546c4	-1.4082634286791498
6	0xc010d174230a4e1b	-4.20454458952329
7	0xc004969abd309d7c	-2.5735373287640737
8	0xbffecc6e0022972d	-1.9249095921781632
9	0xbffb766610431003	-1.7164059291108067
10	0xbfeb639803fb5db9	-0.8559074476024114
11	0xc0030c4680416064	-2.3809938449813206
12	0x3fd22d3e71cf1ff0	0.2840114699761207
13	0xbfbd175761c9cce4	-0.11363741052064175
14	0xbfb3f344651e12d1	-0.07793071240127893
15	0xbfcc70a72f4de465	-0.2221878987291205
16	0x3fbb1ce5c25103f5	0.10590969080023156
17	0xbf9a1deb78c865e2	-0.025504760024068214
18	0xbffe93f236323107	-1.911119662955629
19	0xc00039797447f52d	-2.0280636867961648
20	0xc00061708227dd9b	-2.0475778740325956
21	0xbff2846540d965af	-1.1573231251880818
22	0xbfc648fecce84039	-0.17410264020191038
23	0xbfe84ce1feea7918	-0.7593851069284794

linear.weight f8 [2, 6]
0	0x3ff26606661a41e2	1.1499084461576037
1	0xbfc5f8af28c440c7	-0.17165173998410507
2	0xbfd8e5364e4f8617	-0.38898999831698816
3	0x3ff491419a5cdf91	1.2854629545017568
4	0xbfd66fef4cc37e3f	-0.3505819558758709
5	0x3fc4c3e42cf21fb9	0.16222812838191006
6	0xbfb1d91798a5e246	-0.06971881367452068
7	0xbfe95585fcec1a36	-0.7916898670089896
8	0x3fe3eb0f46a1a58e	0.622443807556168
9	0xbfd1931e87fecb22	-0.27460444718160393
10	0xbff1b9a68d8e4138	-1.1078248528975347
11	0x3ff1ca63db4d4fc9	1.1119116369709323

linear.bias f8 [2]
0	0x3f732ac6079c599c	0.004679463914519035
1	0xbf6a57b31bfc4a60	-0.003215646574866768
