trained_NNs/lstm_derivative_with_input_ws6.pth (torch, 4000 bytes, 6 tensors)

lstm.weight_ih_l0 f8 [20, 3]
00000000: 964e d838 795f ebbf f957 cd51 b84d e53f
00000010: a9df 05ee ddeb d0bf 4965 3818 0895 ed3f
00000020: 2abc c061 2619 fabf 5bfb f928 1166 c9bf
00000030: cef1 3c32 e4fd eebf 3a05 7f5e 3026 f33f
00000040: c31f 0743 6675 e33f b0f9 9e11 f796 f93f
00000050: 9355 aed6 5843 e43f 7a3c 6b8a da4e e03f
00000060: 9b83 e696 7911 d0bf bdab 5469 3ab1 763f
00000070: 8d1a 68b5 23bd e63f a4dc b21e 8938 e6bf
00000080: a62f dc4c f435 c63f ed53 e790 757b d9bf
00000090: 2f17 23d0 e95d c13f 16a5 e198 2cad abbf
000000a0: d834 5eee 3638 edbf ef6c 6231 92e6 e0bf
000000b0: d9b4 bd9e e032 c93f 3b71 518b bf7e c33f
000000c0: 5fde 088c 0755 e53f e2b1 ece1 2c54 d0bf
000000d0: e503 7ff5 0462 e43f 4453 7ed9 a628 d83f
000000e0: c63d 9aee 8cd0 da3f 7d71 49ee b02c d73f
000000f0: e28b b859 ce49 d0bf bfb1 3f73 4b6e cfbf
00000100: 42da f0e1 46ad e6bf 9f9f a605 bfdd d5bf
00000110: 2e3e 403a da8d bf3f fe74 70c0 fc80 e83f
00000120: f4a8 7f05 4c83 d43f 61a3 1132 77d9 e23f
00000130: 85e3 7801 c1ac a6bf cac2 e262 bc0f d53f
00000140: fb6e 194d a5f8 ebbf b721 0683 d50f d63f
00000150: b10d 4af0 674b f53f 44fd 3b59 565b d23f
00000160: 0ce5 7711 9bf7 b83f 4c1a cd54 b347 e8bf
00000170: f78d 64ea 1f30 e03f 43e6 e92b 55f2 e5bf
00000180: 98f8 7a82 92ff e83f f357 1e01 a4f9 b8bf
00000190: 332f 1933 8fd5 dabf 50c9 4fdd 06af ebbf
000001a0: 784d 506a 49b9 e93f e9e4 e4a9 192d e13f
000001b0: 25a7 141d 5851 c9bf 5f01 7eaa 4a6a d9bf
000001c0: 4974 ee69 2775 9f3f fd23 6169 2c21 ca3f
000001d0: 5c08 7ceb 5c61 d53f 7013 b521 949e c23f
-0.8554044828656113 0.6657373044679381 -0.2643961739008725 0.9244423363735815 -1.631140119406846 -0.1984273386078382 -0.9684926015102577 1.1968234721428659
0.6080809888016961 1.5993567169494831 0.6332210724819326 0.5096256927007652 -0.25106658684131283 0.005540111703605297 0.7105883162592633 -0.6944013213714197
0.17352155449804946 -0.3981603541445214 0.13567850745146745 -0.05405558935383163 -0.9131121307015304 -0.5281458820858499 0.19686515570666677 0.15230554869311583
0.6666295752574561 -0.2551376539511506 0.6369652552458517 0.37748118629069816 0.41897891331697357 0.36210273046687985 -0.25450476419263 -0.24555342795737364
-0.7086519635111659 -0.3416593127426441 0.12325824663297943 0.7657455214099682 0.32051373040179887 0.5890460946949184 -0.044286757878984985 0.32908544213118474
-0.8741022592398332 0.3447164325266629 1.3309096704768815 0.28682478632250175 0.09752816368554224 -0.7587525039933296 0.5058745935424999 -0.6858316285790312
0.7811977909511993 -0.09755921389873361 -0.41928462972713304 -0.8651155779355495 0.803868014949713 0.5367554014439097 -0.19779492778735022 -0.397112528320596
0.030720344391387298 0.20413737435799809 0.33406756397756054 0.1454644360148012

lstm.weight_hh_l0 f8 [20, 5]
00000000: 3686 6cfa 7817 d9bf bf35 dea1 44f4 e33f
00000010: 223d fac4 ad79 dbbf baf0 0306 6039 e13f
00000020: 1005 83c0 eab8 f93f a003 b586 0cac babf
00000030: f531 0f2e 7ff4 ee3f 8767 fe89 a7d9 dc3f
00000040: f007 0039 520a f13f 8da6 7322 560c 0140
00000050: be30 c7cb c684 ca3f 3f55 d859 0c6f d73f
00000060: e08a 1215 3805 e63f 30ee 0778 f498 c03f
00000070: f97a 6332 fa22 f43f 01a5 2e6d dfa9 c23f
00000080: ee3e 65ce eea2 e13f beb9 1daf 564b e8bf
00000090: a1ab e065 dba7 c9bf 7222 a215 3b09 f5bf
000000a0: fd6d 7b3e 77dd f6bf 7585 c395 b763 f83f
000000b0: 5f4f 33b3 3c1c ec3f 121b 96dc edef c4bf
000000c0: 9483 628d 011b f53f e144 3934 73ec ecbf
000000d0: f456 1522 d378 e13f 598e c662 02b7 e53f
000000e0: fd20 2339 dcfb f63f 60da 5bad 11a4 fe3f
000000f0: a7e1 15fd bcae d3bf 821d 78d7 989b ea3f
00000100: 6815 1b3a f711 ec3f cb1c 3c66 c86e dd3f
00000110: 143b c1da d93f f03f 85bb 24bf 758d d8bf
00000120: cb88 5be6 aa2e d23f 5674 3ee5 7ae5 ee3f
00000130: 5de8 a6e8 5472 df3f 4cba c9bb c620 f13f
00000140: 628c 8afe 6ae2 e9bf 37ea 1e8f 0237 f43f
00000150: a36c 54b7 e576 ed3f 783f 7926 222d c83f
00000160: 3fca 8019 e033 ebbf a35d 6245 a05e f7bf
00000170: e4a9 2d6b 64c1 f03f 7c86 d9c0 6780 e53f
00000180: 9e63 085f 9d16 e23f a4ac cf22 9664 fb3f
00000190: cd25 4f8e a8b6 e8bf 5274 05c0 d834 e2bf
000001a0: bc0e eab3 9077 cdbf 69ec 5204 97ad aebf
000001b0: 05c2 1ff6 18ee a2bf 6e29 5384 457e d23f
000001c0: b60e b1de f789 f3bf b109 17a4 aaff e43f
000001d0: 497c 2c56 4d9e d9bf 0569 dc51 b6ec f3bf
000001e0: 4829 0950 09fe b13f c186 ed61 ec9c d73f
000001f0: f82b 74d3 7593 b7bf a73d 2f86 5b67 d1bf
00000200: ef7c 81d4 cb34 efbf fdf6 2f94 ec3a af3f
00000210: 26da 7221 bfd6 923f 3cd4 2780 d040 dfbf
00000220: 3977 68a8 09cb ecbf 4d30 7e11 82a2 e6bf
00000230: 6e4f 7302 ec20 f1bf e037 1bd4 727e f93f
00000240: 9492 f36d 19ee f13f 4324 51d1 10b0 fa3f
00000250: 947a 59d5 e2ea dabf a8d8 4a23 12a1 ccbf
00000260: 650b bfec cc16 f23f 6514 f73d 0807 e43f
00000270: 5e41 7146 d021 de3f 5e8f 34fc c451 ff3f
00000280: 0457 b1c0 676a d43f 0861 4012 a54a d03f
00000290: c5dc 4f14 ccf4 d2bf 75b1 ab32 d359 f03f
000002a0: a09e 1710 8fce f63f 0b5f b3fc a15e c43f
000002b0: 47f7 a423 555a c03f ff8e 743b 510c ec3f
000002c0: 9e70 4583 cb7c ec3f 59ee e547 890c f23f
000002d0: 9b20 5036 af5c d33f aae5 cacc f278 cc3f
000002e0: ac57 b876 e756 ce3f 7e8c 591c d2d0 b7bf
000002f0: fdc8 5abc 5b1b f7bf 6d80 d5d9 548d f1bf
00000300: 8f7b dcb6 0bea e83f feed c5f9 2b10 eb3f
00000310: 887f 7f49 b2ea dfbf ec61 c33b deac fc3f
-0.3920576520486948 0.623567882679417 -0.42930168377002265 0.5382537953842281 1.607645751952365 -0.10418775833842497 0.9673458003613279 0.4507845733256705
1.0650198198859435 2.1310236636680373 0.2071770186433976 0.3661528470414232 0.6881370936938218 0.12966781483543022 1.2585393875412463 0.14580910521662108
0.5511392623102134 -0.7591966076122885 -0.20043508982174976 -1.3147536130001325 -1.4290687981327885 1.5243450021883664 0.8784469127663036 -0.1635720564920225
1.3190932772488155 -0.9038635272974284 0.5459991136255824 0.6785900048457264 1.4364893180773486 1.915055920775238 -0.30754017558458674 0.8314937790282075
0.8771930823210541 0.4598866461169108 1.015588621626823 -0.3836340300212487 0.28409836288313944 0.9655127026959558 0.4913532516471884 1.070502027079459
-0.8088889094837095 1.2634301748900165 0.9207638340625589 0.18887736204714733 -0.850082444964137 -1.460602065117066 1.047214907327196 0.6719244734378687
0.565260587321166 1.712057243329391 -0.7722971705890643 -0.5689510107437263 -0.23021134171368896 -0.05991813590795731 -0.03697278980678579 0.28895700380657885
-1.2211836527721238 0.6562092976458215 -0.4002869931736695 -1.2452910611814911 0.07028253749846158 0.36895284236207365 -0.09209381496854963 -0.2719334421535344
-0.9751948500160362 0.06099643048217549 0.01839731828359894 -0.4883309604186399 -0.899784878656397 -0.7073374120386774 -1.0705375762672378 1.5933712277796914
1.120629720209 1.6679847885555013 -0.4205863078586074 -0.22366549227962662 1.1305665252591208 0.6258584223038609 0.4708138168253039 1.95746325032902
0.3189944631352406 0.25455595762606764 -0.29619123443212586 1.0219299296687414 1.4254294041256017 0.1591379627122865 0.12775673141907815 0.8765035783039535
0.8902337612048716 1.128060608722896 0.30253200820926346 0.22244105338704162 0.23702710434798513 -0.09303010170110501 -1.4441792829134663 -1.097004748262431
0.7785700389393798 0.8457240942365727 -0.49869973351996366 1.7922041258335595

lstm.bias_ih_l0 f8 [20]
00000000: c01e b0b3 8703 d73f 644e ab5f 22f6 d3bf
00000010: f44e 8003 ee8f debf 53fb 4610 70b6 c6bf
00000020: 480c 49a6 ca87 e2bf a59a 4ac4 c10c eebf
00000030: 56ff 0f38 f2c2 debf c9c3 0705 26de e5bf
00000040: 339d 4b1d 8176 eebf 5798 47f7 8b2b ddbf
00000050: c87f e849 7e76 eb3f e54a fac7 c2a3 d1bf
00000060: a067 039d b0ab e8bf 4b24 9e8f c234 d5bf
00000070: 72be 92f0 fcbc b03f fc3a a714 b151 cbbf
00000080: 0bd5 2185 fb0f ddbf d8ad 6b4c 2788 c93f
00000090: f0db 9bc5 a467 dcbf 25bb f7d2 d0d0 e1bf
0.3595904593243908 -0.3118978437680424 -0.4775347742263272 -0.1774425582388753 -0.5790761230240458 -0.9390572389427986 -0.480648569820905 -0.6833677385567337
-0.9519658634352822 -0.4557828821983824 0.8582145160216834 -0.27562016991684707 -0.7709582392374053 -0.3313452150837903 0.0653837287270507 -0.21343053348979157
-0.45410049439608774 0.19946757537341742 -0.44382590577828207 -0.5567402000868681

lstm.bias_hh_l0 f8 [20]
00000000: 4e8b 8e82 8006 c63f f671 4e7b 9092 d6bf
00000010: 7b9d 00ee edfa e0bf 96e9 4874 e3a0 b3bf
00000020: 7351 6487 d3ba e5bf cd00 e667 9291 d1bf
00000030: 8315 28fa 87b0 e6bf 3a85 3d73 53a8 e8bf
00000040: 6124 b0e8 d265 e8bf 7b9c 07ff 5819 9f3f
00000050: c695 3ed3 9268 c93f d7ff 2583 c020 c9bf
00000060: 12b0 302e 551e e6bf ab46 72c8 1a0d 9f3f
00000070: 2973 6685 dcb4 cd3f dcda e182 8acd e3bf
00000080: cbf6 533a d454 d5bf a2a2 917d a1ae c4bf
00000090: d13c 1962 03e3 d4bf 4bf7 2ff2 2f29 f3bf
0.17207342505306616 -0.35269557992594913 -0.5306310318455155 -0.07667371357903216 -0.6790559429523867 -0.2745100035317705 -0.7090492139692944 -0.770547604635943
-0.7624296707809998 0.030370131078509815 0.19850383104964758 -0.19631201175434285 -0.6912027265693743 0.030323427662159712 0.23208195222550757 -0.6188404613775123
-0.33330255218593824 -0.16157930976193763 -0.32635578708591334 -1.1975554905361203

linear.weight f8 [2, 5]
00000000: aa8b f612 8ec2 e4bf 28b3 96df 7c3a df3f
00000010: abfd 8053 9483 d1bf 85d5 d890 477a d63f
00000020: 1d9b 55ec 5ebf c83f 53b5 17f0 5cc4 c9bf
00000030: 1505 393c fcaf d2bf b62a fcdf 65af e13f
00000040: 6ae8 877b 6ca3 d83f 2de8 442e 059a ba3f
-0.6487493868229326 0.4879448111994855 -0.27365596918749685 0.3512133516809047 0.19334017314687282 -0.20130502436897277 -0.2919912899124751 0.552660882445102
0.3849745947223996 0.10391266231172898

linear.bias f8 [2]
00000000: 8ea9 5120 9557 b73f b764 b7cb ced2 b83f
0.09118015326536108 0.09696667169136473
