trained_NNs/lstm_ws4_final_long.pth (torch, 4928 bytes, 6 tensors)

lstm.weight_ih_l0 f8 [24, 3]
0	0x3fcbdf65e25988a3	0.21775506546243148
1	0xbff489ff5be14f69	-1.2836907948557956
2	0x3fd3379f4cef8fd0	0.30026991379986345
3	0xbff7e8a82035ec9b	-1.4943009622791468
4	0x3fe2c6c120688342	0.5867620118116081
5	0xbfd48d3566c91998	-0.32111868894244244
6	0xbff177370a77b7cd	-1.091605225457431
7	0x4004a571ce9c2ef1	2.580783476010645
8	0xbfc3cb4eada0fa65	-0.15464194753618013
9	0xbffa92891331e5c4	-1.6607752561379678
10	0x3ff7cc0ce80d53f3	1.487316996053093
11	0x400e6a939ce3f3ed	3.802039361673897
12	0xbfe7507edd316c1b	-0.728576118486106
13	0x3fced12eb546b0e5	0.2407587418687235
14	0xbfea3099ab6b6689	-0.8184326503789673
15	0x3fe755d4a49dea20	0.7292273726628231
16	0xbfda4d8a648b1739	-0.41098270243343255
17	0x3fd1f2380bca6e32	0.2804088702339157
18	0xbff313894e73681b	-1.192269617508379
19	0x3ff0a9f590e4979f	1.0414939556007778
20	0xbfe3f252c86faa8a	-0.6233304896134808
21	0xc00aafc2909875e3	-3.335820321705556
22	0x3fecc76e8d68daba	0.8993447076707846
23	0xbfeae161a8664a3b	-0.8400123871854882
24	0x3fce9b106ad7f5cc	0.23910718171093348
25	0xbff00b97ef78a0d9	-1.0028304437965316
26	0xbfe5546c6ea007db	-0.6665556107184288
27	0xc00166a7fad374bb	-2.175125083521008
28	0xbfa51192bd03ce33	-0.041149697850326204
29	0xbfe65d361e5b3994	-0.6988783448121461
30	0xbfe52b31c3e99d93	-0.6615227533738327
31	0x3fd20dac88746676	0.2820845921101872
32	0x3fefa751b2737e35	0.9891746983884732
33	0x3ff261c6ac05d5c4	1.1488711089744905
34	0xbfe601ac01a4dc2f	-0.6877040893658711
35	0xbfb02c5b1c45e487	-0.06317681732424961
36	0xc0108faf4b4ffeb2	-4.14031713176489
37	0x3ffeda52e746e630	1.928301719117723
38	0xbfd57c34c4e8f610	-0.33570594052784575
39	0xbfd594c19f5e303f	-0.3372043663337116
40	0xc004527cd08b4978	-2.5402771275050178
41	0xbff26b4cb5a68937	-1.1511962028240086
42	0xbfff6f683d34eb32	-1.9646990195166834
43	0x400a0d3304711741	3.2564449641239723
44	0xbfe2ed1e7f5e2d9a	-0.5914452064184161
45	0x3fef064da92e85b3	0.9695194534617059
46	0x3ff8fcef6bfae138	1.561751767918464
47	0x3fb1af81addbb639	0.0690842675646416
48	0xbfec10a417a987aa	-0.8770313703682764
49	0x3fedcf124a3fc87a	0.9315272760561719
50	0x4002916e6e9d9576	2.321011413749768
51	0x400a185628fffebf	3.261883087456084
52	0xbffeda88e58b2cb8	-1.9283532110737678
53	0x3fe82418ece8cf74	0.7544064166199704
54	0x40184b07d4ef3f3f	6.073272063353044
55	0x4000dc65b51feaa7	2.1076158666958977
56	0xbffb97d71f70e048	-1.72457039147959
57	0xbfec523b55cf1710	-0.8850380588489504
58	0xbfe1864c4d264d93	-0.5476438052013911
59	0x3fb6434ff8402d2c	0.08696460543449253
60	0xbfe829032d615e47	-0.7550063978514537
61	0x3fc4780be4a36d09	0.15991352714522858
62	0xbfc3fed900524c3e	-0.15621483340928138
63	0xbfcf61480eb83031	-0.24515629500126715
64	0x3fde789e033efd20	0.4761118919086176
65	0x3fe7dd3d84ec0ffb	0.7457568737158903
66	0x3ff9bf3dfb53ea5d	1.6091899697772967
67	0xbfee31f17e3cdf3e	-0.9435965982038181
68	0xbfe8bfeecc7f8fa3	-0.7734292978388918
69	0x3fffbee4c81b2186	1.9841049019470076
70	0xc011be814bd8680b	-4.4360401011308666
71	0x3fe48e93c456fef6	0.6424044451486839

lstm.weight_hh_l0 f8 [24, 6]
0	0xbffa3e3bbde36c44	-1.6401936929239733
1	0xbfe37160281d715a	-0.6075897963997179
2	0x3fb85d15ac833a1c	0.09517035924657374
3	0xbfd50d30d6ce545f	-0.32893010117670046
4	0x3fef5f458135433d	0.980379822120177
5	0x3ff0fe09a87dd964	1.0620209294989644
6	0xbffce7770441ee52	-1.806509987479235
7	0xc00c5ce0f3541de8	-3.5453509340329568
8	0xc01296fb632c555f	-4.647443341809178
9	0xbfe2b99b2f84f026	-0.5851570060835953
10	0xbfe9048d38bcbc8f	-0.7818056209706742
11	0xc0120f94003bc40b	-4.5152130161741395
12	0x3ffe9d7f4d871588	1.913451483576269
13	0x3fee0e964e682b40	0.9392806559929809
14	0xbff81a8248205592	-1.5064719026025597
15	0xbfee2adc66004367	-0.9427320472915256
16	0x3fb9fb07786fc600	0.10148665132853552
17	0xbff98fcb1d731637	-1.5976058149693821
18	0x4001dd3dfe26cd2b	2.2330283980933436
19	0x4008b98fe51bcad8	3.090606489096313
20	0x4012e72a7eab573d	4.725748042304812
21	0x400adc11107e2889	3.3574544228077383
22	0xc0226004f5152a99	-9.187537821611203
23	0xbfcdfc3d7cfa734a	-0.23426025965172875
24	0x3fefe24edf47bdc5	0.9963754998151947
25	0xbfe152645b5562f5	-0.5413076194627978
26	0x3fe8f339ef4b58e8	0.7796907113759319
27	0x3fc86f53324e1c2c	0.19089736896805343
28	0x3fbfbcce26059ea7	0.12397468975324931
29	0xbff57645a296e2a7	-1.3413750029705314
30	0x3fea65cd9bc2bbc9	0.8249271433068027
31	0xbff408a385341b68	-1.2521090701354414
32	0x4013a090065767da	4.906799410900897
33	0x3ff863b0b75cb3ef	1.5243384516318164
34	0x3ff25bc2749c1910	1.1474022440975808
35	0xc0049689b339cb19	-2.57350482959863
36	0xbfe17447ce4fd2a1	-0.5454443959739202
37	0xbfe8aadff250ef64	-0.7708587391602859
38	0xc009c41b22211a5f	-3.2207548776962507
39	0x400f53a1fa037f23	3.9158362896267973
40	0x40089fb4bff02bc5	3.0779814715546956
41	0x3fd1f5b9cf620068	0.28062291385868443
42	0x3fdfd860ebbae271	0.49758170147428077
43	0xc00bc2d12cf7da6d	-3.4701255334032823
44	0x3fb668360d0ebb67	0.08752763575351495
45	0xc0116709274dd790	-4.35062085545168
46	0x4002dd8b61070c82	2.3581760006214276
47	0xbfcec2faf5ad5a69	-0.24032532688098066
48	0xc00e913040902f41	-3.820892815017857
49	0x4004aa4467478792	2.5831382816986173
50	0xc01522fa7a2b90b2	-5.284158619793901
51	0x400232f78fca8da5	2.274886248940407
52	0x401557207df20f22	5.335084884547344
53	0x3feec163cfc6fed6	0.9611071642065905
54	0x3fc901b5bc1e8ed4	0.19536468205944024
55	0xc002b37e0f1969ae	-2.3376427821760535
56	0x4000c99c14fce3de	2.0984422340084015
57	0x4019e07d30921dfc	6.469227560919077
58	0xc0267d8d5cc0a757	-11.245219133870405
59	0xc01b393722e9cc0f	-6.8058743910978725
60	0xbffe3ca02b2bc7b3	-1.8898011862151918
61	0xbff5a21931892410	-1.352074807642797
62	0xc024fbd78d7c7bdd	-10.491878911443502
63	0x3ffc9eb53ee9b00e	1.7887470681698718
64	0x400bb38f5bac1163	3.462675777615162
65	0xc020fb852d54f59d	-8.491250435467743
66	0x400617b3617c045d	2.7615726104709624
67	0xc01097738ae9d5d9	-4.1479016976568
68	0x4007827a9c32e695	2.938710422805182
69	0x4007f55c55b1e60a	2.9948050208011
70	0x40120397bc8fa221	4.503508516565973
71	0xc013d67f785b5454	-4.959470635008149
72	0xc02958af318e2580	-12.673211620904794
73	0x401d1cba8fd885bc	7.278055427160719
74	0xc00db2c1c795f6c2	-3.7122836678161955
75	0xbfd36e0b7fd055f4	-0.30359160882775815
76	0xc0009c567de5fbb6	-2.07633684499839
77	0x4022b924e8b9dc53	9.361609718978945
78	0x401c740977204279	7.113317357391332
79	0xc01ed71a36f0321e	-7.710060938272845
80	0x40188e611936406e	6.139042276321659
81	0xc01beced1f07a9a8	-6.981373295633979
82	0x4011d4837bf9200a	4.457532822685616
83	0x3fbaca6ba99e1e90	0.10465119257980349
84	0xc0202dcc7ca0879d	-8.089450735660472
85	0x4018339ee1307228	6.050410765249161
86	0xc009e9e77d62ff97	-3.239211062987987
87	0xbfd0251d5ac7a3df	-0.2522652994653622
88	0x400033970aa1f441	2.025190432612846
89	0x3fff11d09e3a82da	1.9418493443301288
90	0x3fff4f29f381b60d	1.9568271171550606
91	0xc013f2f55725dae8	-4.987264024434559
92	0x400159cb7459bff8	2.1688450899018754
93	0x3ff1d3e5b928831b	1.1142327530616913
94	0x400139943fc713fc	2.153114794028168
95	0x3fded3d3ba7007b7	0.48167889792250257
96	0x400c110b7aa610a0	3.5083226758889197
97	0xbfe8829166769ab1	-0.7659384728657043
98	0x3fe8aae7b68cd168	0.7708624425345478
99	0x4004baf49b27a05e	2.59128686155968
100	0xc01c4c933bcf38b9	-7.07478040172844
101	0xbfc0e34119637f63	-0.13193525066071307
102	0x4021bd89b814f759	8.870191338118888
103	0xbff9d6ba305daec5	-1.6149236573500485
104	0x401c0166efc2b90d	7.001369234332981
105	0xc01657896a3b09b7	-5.585485133984938
106	0xc01347aac02c7386	-4.8199872996455095
107	0xc018c62edd18c54f	-6.193538145672689
108	0xbfee4042ffc3ef04	-0.9453444476525594
109	0xbf9a773197232272	-0.025845312928853344
110	0x40042eb6d9ceb9a6	2.5228096977436563
111	0x3fc5341d2e37819d	0.16565289265328156
112	0x3fbfb877b94d467a	0.12390850328417882
113	0x3fdac1317a175463	0.4180415813728528
114	0xc005cefe5b97ad7f	-2.7260710864699713
115	0xc00a679abeb05b3f	-3.300588121182414
116	0xc0128ad9ebabb836	-4.635596926074916
117	0xbfe20f348830e7e4	-0.5643561038953036
118	0xbffae9886e31f1b2	-1.6820148758407467
119	0xbffeab0be5c8902f	-1.9167593933025378
120	0x3fd4a4b682dbd30d	0.32255327967804776
121	0xbff6a37a9b741124	-1.4149118492505943
122	0xbfbd3fc32adac8d1	-0.11425418659453902
123	0x3fcdd6448e7f3deb	0.23310143430579386
124	0x3fdc7fa0718fcfbf	0.4452897175790404
125	0xbff272277f37b636	-1.1528696984709206
126	0xc00b1b1300ae0646	-3.388219838438803
127	0xc012cc25eeb3c3cd	-4.6993634507388835
128	0xbfe42ed536f93646	-0.6307169030857913
129	0x3fd1f6bd97e47e7d	0.28068485100991564
130	0xc00790944cd2653d	-2.9455953599650955
131	0xbfc0348046165221	-0.12660220548845394
132	0x3fefe05c6b0a3287	0.9961378183957813
133	0x3ff7787de5deb0f5	1.4669169406216132
134	0xbfb07e22529fbefe	-0.06442465321719834
135	0xc0055dbf72c8dd43	-2.670775315050976
136	0x3fea2c6282594c1b	0.8179180665850966
137	0x3fea6668dbd82bd1	0.825001172431593
138	0xbfde944d84154ba2	-0.47780168436764303
139	0xc00364f6065e78e5	-2.4242973802166596
140	0x40183cea88492ebe	6.059488419977866
141	0xbff9e72506ed53b0	-1.6189317961300098
142	0x3fc210d6c4c140c8	0.14113888365910143
143	0x3fd8a4655c885135	0.38503393207908526

lstm.bias_ih_l0 f8 [24]
0	0xc00268ccd47f30ee	-2.3011719323459294
1	0xbff64600846bd84d	-1.3920903370576696
2	0xbfe5267c572a055e	-0.6609479620384879
3	0xbfeb46b99318e968	-0.8523834107393613
4	0xbfea6aa706074101	-0.82551909615907
5	0xbffbc09dc21a5c44	-1.7345254499575882
6	0xbff6445797801cf6	-1.3916850965486538
7	0xc00f0b126b917529	-3.8804062274708895
8	0xbffbdf51b884193a	-1.7420212943703306
9	0xbff73230db1cffe6	-1.4497536238777626
10	0xbfd9e0dbcdaa86d7	-0.4043492802103236
11	0xbff702639608f2f5	-1.4380832539310948
12	0xbfb9e9888e372979	-0.1012196871953729
13	0xbfb26b0d758c2384	-0.07194599265871032
14	0x3fe1cbff86289f74	0.556152116802862
15	0xbffb0179ba2e5bc2	-1.6878602287958846
16	0xbfcb906e82c99a31	-0.2153452051745304
17	0x3fd5ebfd3ba98c26	0.34252863718410465
18	0x3fd08c6ebbb042eb	0.25857132271725786
19	0xbff30051ef6f81f4	-1.1875781395866598
20	0xbff0effffa1db649	-1.0585937280806255
21	0xbff805f5daa937d4	-1.5014551679082517
22	0xbfdfeb7876aff1ff	-0.49874698248439125
23	0xbff65d31a805d75d	-1.3977524341002756

lstm.bias_hh_l0 f8 [24]
0	0xc00165e9a1017e83	-2.174762018068408
1	0xbffe41e364ec6a7b	-1.8910860006641588
2	0xbfe62ac76b7298b2	-0.6927220438563124
3	0xbfe58f73c83ca5e6	-0.6737612639309958
4	0xbff0ebb44c418dfb	-1.057544992327961
5	0xbffefb7589bb7f40	-1.936391389863232
6	0xbff301b2f40919c4	-1.187914803756585
7	0xc00c5cb6770ba16a	-3.5452698994087557
8	0xbfede90ef24b4f9b	-0.9346995098408003
9	0xbff7df695de59e48	-1.4920438449716062
10	0xbfc5cc9e2fdfe3f9	-0.170306943298584
11	0xbff06d929d5bc37d	-1.0267511507811087
12	0xbfc6cab333ccb0c6	-0.17806091336513513
13	0xbfa5adc1bf44f2a5	-0.04234128436880739
14	0x3fe36a25149189a2	0.6067071344116821
15	0xbff8a417ba601822	-1.5400616913116285
16	0x3fdc91d3816b5a5d	0.4464005245076004
17	0x3fd21c6d8e120e54	0.2829851043136149
18	0x3fd7a38d114bb774	0.3693573635963425
19	0xbff705f0feae0d20	-1.4389505337174526
20	0xbff84d38f980dfc7	-1.5188531633593685
21	0xbff86a9820bc202b	-1.526023986692972
22	0xbff04e588c23c2cd	-1.0191274141508757
23	0xbff5a69852bbd7b6	-1.3531726104533681

linear.weight f8 [2, 6]
0	0xbfc42cedad740b53	-0.15762110680960947
1	0xc0042c21aa3d7f43	-2.521548585893386
2	0xbff76409dd26bdc2	-1.4619234694217629
3	0xc001572e71268da2	-2.167569049824764
4	0x3ff3e3b54815d35d	1.2430928054647759
5	0x3ff6ae90641eeb5a	1.417618170830528
6	0xbff9da8186c47b98	-1.6158461822849173
7	0x400057fe419a161e	2.0429654240749775
8	0xc000a2e175ffdba0	-2.079531595106758
9	0x3fe98eab8a6aa01f	0.7986657813498858
10	0xbfdcb72a5d73fd99	-0.4486795342090431
11	0x3fffd73113a082d0	1.9900370375327618

linear.bias f8 [2]
0	0xbf77859ae3da09f8	-0.00574265006946683
1	0x3f9dfe1451deb800	0.02928954839415354
