trained_NNs/lstm_ws2_noise.pth (torch, 4238 bytes, 6 tensors)

lstm.weight_ih_l0 f8 [20, 3]
000000 1e c0 bd b0 b3 42 d4 3f fd b8 56 8c 1c 52 cd 3f
       0.31657116184124046 0.22906834461668515
000010 07 19 63 6f d4 2e b5 bf 6f 7a 0b c9 8a e2 a8 3f
       -0.08274581641589772 0.048603379289251396
000020 db 8e f5 52 dd 84 d4 3f 09 73 d6 55 8d e7 ee 3f
       0.32060940839276747 0.9657656361119688
000030 3b 96 2c c4 c5 6b cd bf 03 d4 c1 d3 a2 e7 e8 bf
       -0.2298514564401318 -0.778275884235541
000040 ec ca b1 fa c7 97 85 3f 25 c2 c5 3c e0 e7 c2 3f
       0.010543405855263775 0.147701291727132
000050 b6 b4 32 8a 9b 4c e2 3f 22 0c 45 01 ad 1e b7 bf
       0.5718515109234861 -0.09031182557105003
000060 27 ba 53 5f 41 51 af 3f b7 4a 49 e7 ae 74 79 bf
       0.06116680420551673 -0.006214793411873635
000070 95 12 e5 69 8e 5c c2 3f 0a b1 d6 52 e0 d4 e4 bf
       0.14344959421773198 -0.6509858720724264
000080 5c ce 2d 93 dc 76 f7 3f 0e 29 7e ba ba d2 ef bf
       1.4665189503838496 -0.994473804706361
000090 ac 27 bd 02 4e 90 f9 3f 23 7c 7c 82 95 b8 f8 bf
       1.5977306467998273 -1.5450644585723772
0000a0 c3 83 ce e6 e4 4d fd bf c6 2c 86 a8 33 de ec 3f
       -1.8315171256910936 0.9021242419707043
0000b0 bb cf ba 9e 0d f6 af bf d1 e9 8c aa ef b2 01 c0
       -0.0624241119634514 -2.2123711895230618
0000c0 29 72 83 20 6f 8e cb bf 1b 65 e5 61 ab 94 09 c0
       -0.2152842434651501 -3.1975925109988004
0000d0 21 d3 b1 03 a2 14 d0 bf 68 76 77 1b 6a e7 f2 3f
       -0.25125933037570475 1.1814976761737856
0000e0 73 1e 78 91 98 9c a5 bf ac 64 fd 1f b9 4a e3 bf
       -0.042210357434723365 -0.6028714775849457
0000f0 75 f4 ad 0a f7 d0 c1 3f 87 87 12 be f5 67 aa 3f
       0.13918960591755405 0.05157440133304108
000100 b8 15 06 0c 82 30 e5 bf dd fc 18 fa 17 15 e0 3f
       -0.6621713862265812 0.5025749096602358
000110 fc e1 56 01 25 68 c9 bf e9 93 6d 38 48 aa c0 3f
       -0.19849073949241347 0.13019659762645056
000120 98 f8 62 7d 7c 94 d5 3f 84 58 01 04 16 75 e4 bf
       0.3371878838041851 -0.6392927244403528
000130 66 5c ef 8d 92 a9 a6 3f ab 1f 87 0c c5 cb c2 3f
       0.04426248533825898 0.14684355842314054
000140 e1 6c d4 9b b3 e3 d0 3f 9e 18 52 e4 17 23 e2 3f
       0.263897802522207 0.5667838534725609
000150 05 94 e9 b1 fe 44 7f 3f 72 8e f0 43 5b bc df bf
       0.007634158041217813 -0.4958713687394499
000160 f4 63 6b c2 4d 46 db bf 17 f4 39 97 46 2c e1 3f
       -0.42616600023535445 0.5366547540321588
000170 62 42 e1 8e 0c 17 c1 bf 27 a7 1b f3 08 89 e7 bf
       -0.1335159013419967 -0.7354779003337385
000180 4c a6 b6 b5 ad d6 d8 bf f9 15 08 02 26 c8 d5 3f
       -0.38810293908554594 0.3403410930480671
000190 2d 2c ee 35 77 61 f0 3f 03 b8 4e fe af 25 f2 3f
       1.023795328774905 1.1342010434996161
0001a0 f5 93 e7 3b a3 c4 d1 3f 40 34 7a d6 65 d2 b8 3f
       0.27762680864390116 0.09696041570914904
0001b0 7b 08 cc aa 5f 0e cd bf 8b d6 f4 c7 e2 80 b0 bf
       -0.22700115050981026 -0.06446664220569624
0001c0 1d 63 05 4d 31 89 93 3f 10 ef 9d d6 ea 31 d0 3f
       0.019078035665503913 0.2530467124813507
0001d0 bb 3b 1c e8 a5 e8 c3 3f 12 31 9b 37 03 f2 cf bf
       0.15553735574255065 -0.24957313742778148

lstm.weight_hh_l0 f8 [20, 5]
000000 6b f4 59 07 be 78 e1 bf 3a 4b 15 47 f7 42 06 40
       -0.5459890502530816 2.78269820722326
000010 d1 5c e9 cb 0c 97 f9 3f f5 01 d1 91 e1 b1 f2 3f
       1.5993774380965997 1.1684280105547462
000020 89 8e dc bb 4d 0a d1 bf 7f 0f 76 9a ae 8a e0 bf
       -0.26625388475279316 -0.5169289604968837
000030 dd 3d cb ea 2b 5c e3 bf 06 bd d9 76 bf ea ef bf
       -0.6050014100855453 -0.9974057503985996
000040 cc 89 5a 48 98 f5 d9 bf 84 e4 71 ca 3a 07 fa bf
       -0.4056149202898751 -1.6267650516513479
000050 47 e5 45 4c e0 27 e4 bf af 01 3e db 27 58 bc bf
       -0.6298676957805264 -0.11072014906495185
000060 b8 89 40 d8 fb 23 d6 bf 38 d2 c8 d3 ae b3 eb bf
       -0.34594627493256835 -0.8656839500823201
000070 ff 89 fc f4 f2 6e c3 3f b5 6a 32 ae b2 d7 04 c0
       0.15182339632254124 -2.605321274674987
000080 48 c8 85 33 c0 40 f8 bf db 3d 64 6d d1 26 fb bf
       -1.5158082974053446 -1.696977069197479
000090 d7 e4 cf c4 0a 71 df bf dd 62 ff 88 72 12 f7 bf
       -0.49127454013757926 -1.442003760477909
0000a0 c7 1f fe b7 31 5c 10 40 08 51 dc 35 90 36 04 40
       4.090033411870485 2.5266422469959515
0000b0 78 01 50 2c a9 ec 02 40 33 dd 3f 38 96 fe fa 3f
       2.365557047072965 1.687154979443062
0000c0 54 b6 91 41 d2 fb e5 3f be c2 93 86 10 51 f7 bf
       0.6869899063728533 -1.4572911507531638
0000d0 60 30 1a f4 44 0e f3 3f 05 b9 a7 a2 7f 06 f0 3f
       1.190983727955448 1.001586566325899
0000e0 cb 1d f6 09 d9 e1 e2 3f 83 bc be 9f a5 4b c2 3f
       0.5900693125303688 0.142933562279243
0000f0 f5 7d 61 78 48 2c f5 bf 0e 6c 1a 45 70 4c b1 bf
       -1.3233113005043127 -0.06757260977831
000100 9f bf af c9 11 12 c2 bf 4c f7 52 a1 4a 17 e3 3f
       -0.1411764368817758 0.5965932036267332
000110 35 5c e7 4b 1c 7b fd bf 1d f8 03 ee 2f 48 dc bf
       -1.8425562825193655 -0.44190595859243037
000120 2b 93 4f 30 2d 07 f0 3f 2a 4a 38 1f 57 1c f4 3f
       1.0017520796911394 1.2569190234686496
000130 86 f1 31 fb ff f3 c8 3f 7f 9f 4a 34 74 af e3 bf
       0.19494628682504017 -0.6151677151983533
000140 a8 88 8a 99 fe d7 e0 bf 66 20 54 c0 13 2b d4 bf
       -0.5263665198183576 -0.3151292207917379
000150 b3 7a bb 90 33 d3 a9 bf a1 1a ff 47 69 79 ee bf
       -0.05043946401359758 -0.952320709818043
000160 0f 34 1b ef 15 d5 de bf 4f 67 b0 18 62 9e fe bf
       -0.4817557177564717 -1.9136677708069845
000170 2d 99 e7 f8 c7 21 02 c0 4a 28 64 19 5d 58 01 c0
       -2.2664946981123166 -2.16814632260233
000180 f0 d0 78 4a 8f 25 ea bf 99 3e 42 b6 d8 ba df 3f
       -0.8170849279909174 0.4957792072172907
000190 99 23 9f 49 a3 37 ff bf 2f cd fd 9d 3c 6b c6 bf
       -1.951083457550544 -0.1751476069872324
0001a0 73 a6 3d a7 51 7c d6 3f d5 b3 d5 1f 3d b3 b8 3f
       0.3513378270350593 0.09648496653763002
0001b0 6b 9e 01 d9 84 39 dd 3f 58 30 85 45 cf fa f2 bf
       0.45663567726157933 -1.1862328258166794
0001c0 ac 2c 32 7b ff 0d f2 bf bd 19 1f c5 d6 ed de bf
       -1.1284174740165254 -0.48326653719086804
0001d0 47 58 01 36 0d e2 af bf c0 de b8 83 e5 fc f7 bf
       -0.06227151188129248 -1.4992423196217004
0001e0 c0 3c 3f 93 e8 9a b0 bf b9 9b fd cb 62 a2 ae 3f
       -0.0648637160768315 0.059832656289294524
0001f0 77 c6 85 87 f0 f4 af bf 80 e0 72 b2 1b c3 9d bf
       -0.062415615599900436 -0.029064591185232747
000200 01 27 b3 a7 48 5f ea bf 7b 65 6d fb 4c ef de 3f
       -0.8241313243281355 0.48335575631570976
000210 85 cc a8 8b e7 97 cd bf 2a ab 6f b5 4d f6 b8 3f
       -0.23119825667672358 0.09750829391093122
000220 bb 83 ef 02 82 7d a5 3f 45 dd 96 41 5f 1b e2 bf
       0.04197317396006591 -0.5658413201371465
000230 e0 d4 1e b8 c5 0d d4 bf 83 af e3 8b d8 aa de 3f
       -0.31334059696685124 0.47917760525773917
000240 3b 15 c5 48 21 b1 d4 bf 53 86 4f ff 0c 66 f4 3f
       -0.32331115824156925 1.2749147389480597
000250 5a 8a 5c 7c d4 80 fa bf 9c 3a 37 d8 d1 34 de bf
       -1.6564526422377157 -0.47197385897463007
000260 61 eb df ca dc a5 05 40 45 dd 92 61 4f 9c 00 40
       2.705987534483413 2.0763232825226248
000270 80 17 cb 98 c6 81 ce 3f 3b 78 ca fa c2 c6 cd 3f
       0.23833544216739355 0.23262822385453483
000280 00 aa 34 4e 19 00 df bf 09 d5 f1 9a 74 bd 85 3f
       -0.4843810332992291 0.01061526391843383
000290 d7 1d bf 80 7f 2c d8 bf 72 26 cb 46 9e 74 bc 3f
       -0.37771594593911345 0.11115445354803358
0002a0 12 84 94 9d e8 c9 00 c0 65 c8 6a a5 80 31 e2 bf
       -2.098588210196348 -0.5685427885821467
0002b0 ad b6 d6 99 74 8a d5 3f 8f cc c3 28 c8 e1 c2 bf
       0.33657565139115314 -0.14751531591864306
0002c0 11 3d ae ed 9c aa f8 3f da d4 81 e6 c5 c3 01 c0
       1.5416535648726646 -2.220592308842794
0002d0 d3 7d 2e b8 c0 78 ec bf fb 0e 20 3d b2 b3 c4 bf
       -0.8897403332993526 -0.16173389420156767
0002e0 ea d3 45 53 a5 22 ea bf 68 68 8f 3b 2e 44 c8 3f
       -0.8167292238637149 0.18958070667469262
0002f0 dc a7 b2 0e 1c 20 f6 bf 5b 7e e8 f6 c3 0c 0a 40
       -1.3828392576347062 3.256233147592679
000300 0a c7 13 a9 03 a5 fc 3f 97 12 33 6e 3b 5f f2 3f
       1.79028669400981 1.1482500366848052
000310 ae 0f e1 d1 5b d6 fd 3f 27 42 f2 b1 16 c9 c7 bf
       1.8648336599735376 -0.18582423867020845

lstm.bias_ih_l0 f8 [20]
000000 ae cf f0 a9 66 29 cf 3f 4f 82 b1 51 d8 5e e0 3f
       0.24345095918544984 0.511577758366977
000010 05 25 82 ca 24 8c c5 3f 0f 35 09 5c c8 bc a6 bf
       0.16833934677223553 -0.044409047350749124
000020 da af 56 8b f1 a8 a8 3f b1 d9 6f 9a 97 4b dd bf
       0.048163936862095816 -0.45773878175478006
000030 00 00 db cd ba 1d 91 3f fd f6 74 9c cb c2 a1 3f
       0.016714972319050503 0.03468929562448684
000040 ea 72 3c c8 c5 eb da bf 0a 7f e7 7a cb 54 02 c0
       -0.4206404166632597 -2.2914037324807213
000050 88 5d 50 33 88 8e e5 3f ba 07 5c 32 08 8f d7 3f
       0.6736489298081532 0.3681049815933154
000060 8b 8d c4 02 7b fe d2 3f c6 2c 7f 85 63 ea d0 3f
       0.29678225775042993 0.26430595433039306
000070 da f4 cd 35 a8 f6 b4 3f c6 1d 78 7c ac 17 ba 3f
       0.08188868821703768 0.10192373312758382
000080 3c 41 3d e9 23 45 be bf 67 3e 91 28 56 c1 e3 3f
       -0.11824249691313055 0.6173506538706989
000090 89 d4 42 7d 84 cf e1 3f 24 04 7d 83 d1 fa d3 3f
       0.5565817305092803 0.3121837410035957

lstm.bias_hh_l0 f8 [20]
000000 bd 84 e4 52 9f cc e2 3f 74 c7 33 1d 41 15 af bf
       0.5874783152577475 -0.0607090328357022
000010 92 d4 48 11 32 fd d5 bf c1 48 b9 29 85 1f c1 bf
       -0.3435788315576441 -0.13377441918652802
000020 03 39 53 6c 71 10 d6 bf b2 15 8f d6 e8 8d e4 bf
       -0.34475360468503896 -0.6423229399303436
000030 76 89 6c 92 b4 b5 d9 bf 9a 03 7f 97 d8 f2 df 3f
       -0.4017154149934393 0.4991971473173692
000040 c1 3c 71 fe 6c 1a 74 bf 94 86 88 2c 6a d7 02 c0
       -0.004908014066202061 -2.355182979504045
000050 0f d2 53 58 67 32 d1 3f 6a 8f 19 1f f6 6a d3 3f
       0.2687013971874714 0.3034034064969463
000060 6f 63 45 4a 6c fa af 3f 4c c2 27 d9 d2 62 d7 3f
       0.06245745092991838 0.3654067154557523
000070 de f7 cf 2c 46 c5 ca bf 70 cb a8 de 2e 5a e3 3f
       -0.2091453284082822 0.6047586773696434
000080 9b a0 77 e6 10 81 94 3f 5a a5 9a 24 e9 7b dd 3f
       0.02002359778080685 0.4606879098378919
000090 ab 9f 72 8e 4d ed d3 3f 25 ef d3 b5 d3 58 c3 3f
       0.311358822926645 0.1511482847052942

linear.weight f8 [2, 5]
000000 42 23 25 6c 85 fc d6 bf 5d ad 0b 8e 30 70 d8 3f
       -0.3591626697639648 0.3818475138820839
000010 46 6d 98 c6 88 e6 ae 3f a6 61 c5 b7 e5 af e6 3f
       0.060352586977581654 0.7089718426969298
000020 09 ca 71 17 a3 f1 e0 3f 61 87 ed 24 7b 51 e1 3f
       0.5294967134380509 0.541196415066434
000030 78 08 ce b0 8b ed e0 3f a0 f5 50 1b 13 d4 e2 3f
       0.5289972737521245 0.5883880170364826
000040 58 e8 a4 70 8f 59 a2 3f 6f b7 23 b0 b8 6e ce 3f
       0.035839540958890026 0.2377539501243819

linear.bias f8 [2]
000000 48 7e 60 81 4e 43 b0 bf c5 8f 1a 15 4a c3 d4 bf
       -0.06352701815239314 -0.3244195180980081
