trained_NNs/lstm_1.pth (torch, 4158 bytes, 6 tensors)

lstm.weight_ih_l0 f8 [20, 3]
00000000: f2ca dbc4 d44c e6bf f8db 2a7d aac3 02c0
00000010: 4532 00b6 7033 e7bf 58a0 5bb7 0284 9f3f
00000020: be7d 61bb 8f9b ccbf 0e1d 8366 26cc f23f
00000030: 3d19 5708 181f 19c0 1ce8 0961 397b 2340
00000040: 38ea 5e7b 1f62 0640 9944 8484 da6a ee3f
00000050: 0c13 eac6 dba5 f1bf 028d e14f 2c68 1a40
00000060: d811 1ac9 587b 1940 5e2d fa49 054b 1bc0
00000070: 807f c00a 61d0 03c0 724d e254 fc8f 1ec0
00000080: a126 fef1 8b6e 0fc0 09f8 70e1 2d71 0cc0
00000090: 4f23 8445 cac3 e73f 506e 1950 2ba4 f5bf
000000a0: de32 f996 1e4c 0e40 38f7 c680 9fcd 1cc0
000000b0: 7597 363d 65f7 2340 0b23 26fa c0aa 0b40
000000c0: 84a9 c705 a086 f6bf a616 2ed0 1a69 f93f
000000d0: da25 bb24 3b05 19c0 19c1 24b8 07b9 2140
000000e0: 7aaa 7e00 f661 20c0 a8f0 5b8c 6627 11c0
000000f0: 7f4e 82ef 2d3b 3b40 ab40 3386 b9f3 2340
00000100: a7e9 ed7f 10c5 0ec0 e5a8 468a 35d6 e1bf
00000110: f886 9fbe b161 d83f e114 a760 3d79 09c0
00000120: 485a 7c3a 0ce5 02c0 fd74 c8d7 ecff 0e40
00000130: 6095 8aef c48a fc3f 31a2 5262 7476 d1bf
00000140: d656 5e89 5f16 d3bf 5086 be0c 49d4 1a40
00000150: 4da8 d7b1 4077 26c0 a815 8c96 9474 1b40
00000160: d84f fb74 0a6c 26c0 0ec4 8661 d1e7 f83f
00000170: bb4f 480d 3ea9 1f40 4c93 a62e ea5e ae3f
00000180: 51e6 e117 1f5c 00c0 47f7 3da7 9b87 f33f
00000190: 75f6 2c2c ec7a 11c0 d1a0 ebb0 4138 ffbf
000001a0: 332b 28d1 f8c1 ee3f 67b3 6929 e8fc e13f
000001b0: 8545 cce8 3b50 c83f bf40 f48b 0c83 e03f
000001c0: 4733 b127 8188 fabf 2232 efe9 74bb ed3f
000001d0: 3474 9df5 5b62 e8bf 13e5 8c6e ef69 d9bf
-0.6968787999051911 -2.345540025587521 -0.7250293307020647 0.030777018014220253 -0.2234973587937769 1.1748413090115863 -6.28036511451347 9.740672142466842
2.7979116094914183 0.950543650457024 -1.102992798814003 6.601731537000207 6.370455877510231 -6.823262363333326 -2.4767475929256193 -7.640611006081018
-3.9289778619466493 -3.555263291606938 0.7426501615274023 -1.3525803688888978 3.7871677202987106 -7.200803768295195 9.983194268144624 3.4583758871925787
-1.4078674531725435 1.5881603366882842 -6.255108426973914 8.8613870186678 -8.191329970800542 -4.288477128135277 27.23116967135729 9.97602481246607
-3.846222876976032 -0.5573985768035327 0.3809627877763968 -3.184199099635052 -2.361839730186407 3.874963460736238 1.7838792187770522 -0.27285489656290723
-0.2982405511369114 6.70730991280432 -11.232915456366891 6.863848068523488 -11.211017280271264 1.556596165621389 7.9152757716546445 0.05931789226023074
-2.0449811807455167 1.2206074269192457 -4.370041551822955 -1.9512345229105004 0.9611782155128367 0.5621224221082287 0.18994854800306996 0.515997193668248
-1.6583262968517418 0.9291328972845501 -0.7620067403000861 -0.39709077640471085

lstm.weight_hh_l0 f8 [20, 5]
00000000: 6ec8 6aa3 ec35 20c0 025d 9bf7 bd2a 2040
00000010: 0a52 ab52 c194 58c0 8cd5 7737 4cd5 0e40
00000020: 8792 4d29 c6b0 4540 9f14 c1b6 d1c8 31c0
00000030: 79d1 b2cf 8c15 4d40 4796 5a41 192c 40c0
00000040: fc7e 9c1f 4399 4d40 b52a 1d8a 909d 0a40
00000050: a23d 8940 980e 4ec0 2d19 334e b7ea 0a40
00000060: 2dfe c395 c868 4fc0 d1fc d4fd 0d88 13c0
00000070: df3e 57e4 1efe 48c0 9d2c 2a9e 45ee 0740
00000080: 533b 9eb8 dd88 1a40 1a51 e34f 2e68 2b40
00000090: fba3 effe 2884 1fc0 e9c0 6806 9ca6 1540
000000a0: c93f b648 9be9 2bc0 524a d9ec 606e 29c0
000000b0: 6fd0 ea1c 80cc 2340 fd17 b5a6 0584 32c0
000000c0: 255f d48e c486 4940 a90d 364a 6a31 0040
000000d0: 538f 241f b608 20c0 9d76 8070 dfc4 c3bf
000000e0: df08 dfc9 86eb 1840 2a29 ab4a d183 1140
000000f0: a380 c34f 90fe 28c0 56c8 bc5d 1337 5940
00000100: b21b 1b74 cb07 0a40 828a a781 3edd 4340
00000110: e9f3 7a40 1143 3e40 5899 1ff0 0aa3 2b40
00000120: 7718 8999 1c8e 4e40 0aa1 0f71 5d0e 54c0
00000130: 0154 d585 773e 3640 0118 e121 895f 1640
00000140: 48c6 e8c5 8cd6 18c0 81f5 f80d 9877 45c0
00000150: f0c7 c078 096a 57c0 1e23 2bbf a5af 4140
00000160: 3685 9226 5ffa 4ac0 5cb3 4a06 41e4 3440
00000170: ce3b 46fc daf5 46c0 344f 34fa ec1a 09c0
00000180: ef19 e5ae aed8 6340 57a8 1249 5dfb 6240
00000190: d951 7046 fc3a 47c0 8813 ad80 7572 01c0
000001a0: 2c25 8d89 d2c6 1840 5763 28f4 ad67 07c0
000001b0: 7d80 de5e 3e66 40c0 4e61 6679 850d 3840
000001c0: 349c f0d2 00dd 61c0 bfa0 831e 8f93 33c0
000001d0: 27bc e19e f225 5440 eb38 14d2 35ce 0fc0
000001e0: 61fd fd9d 2cce 0a40 ac5d 7345 2c56 2040
000001f0: 7bf2 a727 4176 47c0 1ff1 5a1d 5d2a 0c40
00000200: e260 bad1 406f 36c0 0bc9 8bfb bb39 1040
00000210: 519f 31e6 81b4 4340 8c88 5861 cf1f 5140
00000220: 2df1 752d 17f5 62c0 4499 a4de 4ddf 5040
00000230: a8d6 a8e0 4717 1340 f732 0689 0519 4b40
00000240: 1cbd 0ce4 d35e 49c0 ad63 c94d 88bd 1740
00000250: 89bb 37e6 6c1b 46c0 8d9f 2341 1af1 4840
00000260: 34af 832c e4b4 2840 ff7b 8377 4887 42c0
00000270: a859 7554 d729 4240 2815 e998 eac9 3e40
00000280: fb11 bfc0 3fe6 2ac0 7ec2 a5f7 b880 0c40
00000290: 9c6d aceb d4cd 1840 9562 3e86 775d 4340
000002a0: b3c1 9de7 96e5 39c0 03ca fe8d e623 4dc0
000002b0: 4f65 2ad7 67e8 f1bf 236f cacb cf93 41c0
000002c0: 7d3c 2b13 24b3 0940 247f f9e1 425b 5440
000002d0: a95e c330 9e95 33c0 b7ac c238 42fc 4040
000002e0: a6dd 54b5 1120 12c0 db41 76a0 4eb8 4240
000002f0: 4e91 ff68 20e0 11c0 d1a5 a8a5 dbe4 39c0
00000300: ede0 58d5 9b43 11c0 1675 df92 647d 3dc0
00000310: 7ac2 4dc2 01d3 eabf b14c bd03 60de 3240
-8.105321032319093 8.083480584826706 -98.32429949503435 3.85414927801566 43.38104740417207 -17.78444997991448 58.168359720529175 -32.344520730239815
59.197360946096495 3.3269358434821137 -60.11402136517724 3.3646074399322488 -62.81862136907544 -4.882865873455743 -49.98531774768866 2.991343722974831
6.633658299119662 13.703478332995065 -7.879062636734484 5.412704563277864 -13.95626284813615 -12.715583230519005 9.899414924300997 -18.51571123048051
51.052873471924876 2.024128513121202 -8.01701447793281 -0.15444558137180744 6.230006365049319 4.378728071877314 -12.497194759955454 100.86055701671407
3.253806025578762 39.72847004585948 30.2619819927385 13.818442825181293 61.1102477950489 -80.22445322538638 22.24401127298552 5.593296555865892
-6.209521381695204 -42.93432783752633 -93.65682810617704 35.37224568945224 -53.956028768103735 20.891617196309525 -45.92074540547729 -3.1381473109448965
158.77132363077496 151.8551373829275 -46.46082382664071 -2.1808881810015386 6.194162511100597 -2.925624759180589 -32.79877839912749 24.052817904944554
-142.90635058397459 -19.576402575622293 80.59293338818007 -3.975688592188012 3.3506710379730724 8.168306513149979 -46.92386336994692 3.520685414636446
-22.434582813265372 4.056381159216708 39.41021420882192 68.49703248639906 -151.6590792945439 67.48912778925029 4.772735128693661 54.195481422449966
-50.740841394634316 5.93509027043994 -44.21426084252659 49.88361372222344 12.35330332858539 -37.05689901275763 36.32688384752265 30.788735920815412
-13.44970514614487 3.562852797266088 6.201007540129833 38.730210094891994 -25.896833873762898 -58.280473470124 -1.1192396550089432 -35.15477893242339
3.212471151120154 81.42595719685465 -19.584445045182893 33.97077092652892 -4.531317551903532 37.4398994996479 -4.468873634909256 -25.893976548837433
-4.3160241446969225 -29.48981588321211 -0.8382576746935932 18.868652566638676

lstm.bias_ih_l0 f8 [20]
00000000: ee36 23f8 dd82 0ec0 feac 3815 bef9 00c0
00000010: f4f7 9927 e7bb 07c0 a8ae 63f8 c872 1440
00000020: 7489 622a 3ffb ca3f ccf4 e2e0 f548 12c0
00000030: aea2 af94 c5b1 e43f 1791 8ea9 f5d3 10c0
00000040: a345 e277 78aa f7bf 8759 6294 fc86 f4bf
00000050: 4786 ef82 0d0e 0dc0 6aa3 e0ec e84c edbf
00000060: 931d f972 629e 1540 94de cb7c b3e2 f3bf
00000070: f5be 973b 8fbe 2ac0 172e 89e1 150e 1040
00000080: 4f3b 8cf9 47fa 1040 0b90 6e7d c4d9 06c0
00000090: 68ed adfb 04bb 0bc0 e8f9 89ae caf7 00c0
-3.8138999353167184 -2.1219445856019084 -2.966749486337898 5.112094765743372 0.2107924420316284 -4.571250451900777 0.6467006591820643 -4.206991814924797
-1.4791187937702055 -1.2829557224518753 -3.631861708578785 -0.9156384111894174 5.404672428564839 -1.2428469538553246 -13.37218652942054 4.013755344388776
4.244415187057554 -2.856331806122403 -3.4663180983022137 -2.120992053590488

lstm.bias_hh_l0 f8 [20]
00000000: ab7b a633 9809 0ec0 88a4 cdf5 466e 05c0
00000010: ee77 835f 7cfe 03c0 e96d 7c01 64a8 1240
00000020: 2c15 f07f 751c dd3f 04af 294d 2208 13c0
00000030: 04ec 6157 edca e93f e590 6cf6 67d2 10c0
00000040: 8504 b388 5155 f5bf aedc 346e 08ba edbf
00000050: 5048 b2cc 2c46 0bc0 eba5 3af5 bd53 c9bf
00000060: 8f98 0b5c 1e54 1640 4a9d 2e93 16b3 e8bf
00000070: 9fbf 22d4 d609 2bc0 ac7b 6de8 e8ca 0f40
00000080: 34fb 92f4 b11a 1040 e1cb c9f5 1ae3 09c0
00000090: e0de 5818 5008 09c0 58a8 de80 7e04 05c0
-3.754684833067093 -2.6788462832815334 -2.4992606603618617 4.664443991870464 0.45486199850013764 -4.757943349522751 0.806021376294098 -4.205474710823386
-1.3333297099891592 -0.9289590980978539 -3.4092651359469883 -0.1978681037337958 5.582147062499771 -0.7718613505029819 -13.519217137567294 3.9740770491038884
4.026069470854782 -3.2358912660797476 -3.1290590192910344 -2.6271944110822396

linear.weight f8 [2, 5]
00000000: 0901 d69f 83a6 02c0 a6e3 90da 505e 19c0
00000010: 8021 1820 ec9f ed3f 0e32 efe7 f606 2b40
00000020: 12ac 20e1 fcd4 d43f fbc6 cbe9 f8ef 27c0
00000030: 5445 afbe 107a b03f 2e9c a64b 784f 2bc0
00000040: 7816 9cd0 33a4 d03f f905 1cda 0882 28c0
-2.3313057410415507 -6.342105307668055 0.9257717730370558 13.513602493237183 0.32549974427337347 -11.968695932507663 0.06436257033717158 -13.655214656913895
0.2600221192554737 -12.253973785324876

linear.bias f8 [2]
00000000: d4fd 430c 1f32 92bf 96b8 c151 9c1c a9bf
-0.01776932251322967 -0.04904640672690268
