trained_NNs/lstm_derivative_with_input_ws1.pth (torch, 4000 bytes, 6 tensors)

lstm.weight_ih_l0 f8 [20, 3]
000000 76 da f4 b0 cb ff e1 3f 0f c6 ff 76 e2 d3 de bf
       0.5624750572377042 -0.48168241139418994
000010 4c d7 28 51 a3 68 f1 3f cc e8 14 2a d8 97 cf 3f
       1.0880463762564032 0.24682142309922595
000020 44 2c a7 cd 97 ad 80 bf d3 d3 15 8b cf 73 d0 bf
       -0.008143602336437301 -0.25706852514786965
000030 20 fa a9 ff cb 7f fe bf a0 f9 ee e2 2a 59 ea bf
       -1.9062004076837482 -0.8233847076697209
000040 bc 0c ba 8d c3 8e d6 3f 70 42 e4 56 32 4f f5 3f
       0.35246361580375285 1.3318351167873992
000050 6f 58 b6 ff 21 81 d4 3f 05 b3 16 d1 2f 32 c6 3f
       0.32038164111998574 0.1734065791073577
000060 1f 10 44 49 3b 60 e0 3f b9 d3 0b ea 62 8b d5 3f
       0.5117470198606532 0.33663246971201094
000070 55 c4 18 84 14 78 dc 3f b7 4d 49 f0 e3 61 a9 bf
       0.4448291101462634 -0.0495749693697251
000080 6e 8c 51 d8 49 8d ae 3f 20 77 14 67 2b 25 d7 bf
       0.059671695381234055 -0.361643648780829
000090 e6 64 b4 f1 e6 08 c7 bf da bb e1 d7 6a 9b 35 bf
       -0.17995917131410194 -0.0003296981666442413
0000a0 b6 a1 e2 55 fa 06 cc bf 8d 85 ce a7 71 31 d3 bf
       -0.21896294778458775 -0.29989282023787994
0000b0 ec c0 7c 88 9c 4e c9 bf 2e df 44 25 1a 4b dc 3f
       -0.19771153129978047 0.44208387031129603
0000c0 0f bf a2 66 82 63 85 3f d5 86 89 ee a3 5c bb 3f
       0.010443705327218859 0.10688232968962137
0000d0 ab de 25 b4 11 fe b2 bf 21 14 b5 49 dd 90 c3 bf
       -0.07418928764479442 -0.1528584108256448
0000e0 ca 40 f2 58 77 90 d0 bf b5 b2 ce db d1 18 d4 bf
       -0.25881751714861123 -0.3140148779446393
0000f0 1a f6 f4 34 4c 71 e5 3f 53 f5 fd 99 8b 3d 7f bf
       0.6700802835763995 -0.007627053564531155
000100 37 c8 6f 35 34 ce ec bf d9 63 d7 ff f1 dd b9 3f
       -0.9001713794407412 0.10104286666991359
000110 78 49 06 e3 e1 c9 ab 3f 72 c1 5a e4 26 88 e8 3f
       0.05427461525245553 0.76662010765544
000120 5b ec 57 e1 c7 5a e8 3f 92 8c cf 86 54 7e e1 bf
       0.7610816384543669 -0.5466711648008575
000130 c6 f1 bc fa c9 eb e2 bf af 84 f4 f3 6e fc dc bf
       -0.5912828347423378 -0.4529073126196392
000140 7a fe 0b e3 67 dd e3 3f b0 04 b6 9e f8 39 bd bf
       0.620777076197512 -0.11416581988125318
000150 e1 d1 82 6a da 0a d1 bf 25 7a 51 75 26 ba 83 3f
       -0.26628742600885685 0.009632397132176848
000160 ec 7e bb 18 fd 1d ac 3f df 7c a2 0d a6 05 f3 3f
       0.054916295308201274 1.1888790638548057
000170 2a 3a 2b f6 ad 63 ce bf b8 96 09 d6 3a 72 e8 3f
       -0.2374169780727738 0.763944070856005
000180 5d eb 86 7c fd a1 ce bf c6 78 d1 7d bb c3 b4 3f
       -0.2393185480157979 0.08111163923010442
000190 06 c9 a3 cc d7 34 c8 bf 40 ea 0f 2a f7 50 f0 3f
       -0.18911263935257966 1.0197669642499392
0001a0 e9 04 ce 1c 5d 50 e9 3f e4 43 68 8d 32 7f c1 bf
       0.7910600245087639 -0.13669425873425134
0001b0 91 66 53 cf 2f 79 f2 bf 8e b7 d8 38 63 f3 e1 bf
       -1.154586610666602 -0.5609603987011142
0001c0 37 ef 07 bb a4 d4 ca bf 43 2d 8d c2 0b ae cf bf
       -0.2096143639790797 -0.2474989604910239
0001d0 b7 9f df f5 f8 aa c4 bf 70 0d 05 88 81 21 c5 3f
       -0.16146766667884346 0.16508502141560255

lstm.weight_hh_l0 f8 [20, 5]
000000 2e 7a 5e 81 52 0b d4 bf 6c 01 42 ff 4f 7a d5 bf
       -0.31319105752655474 -0.33559036185763236
000010 7b c8 1b 3a 9b c3 c3 3f 58 58 3e 52 7a 74 cf 3f
       0.15440693223314725 0.24574212089345582
000020 ad 68 35 79 b2 03 be 3f d6 2f 0e a1 25 6e cd 3f
       0.1172439142150405 0.22992391933473638
000030 94 89 55 6c 5d 84 c8 bf ff c7 15 c1 56 42 d9 bf
       -0.1915394572234389 -0.3946740041347993
000040 d5 0b 2b ad e5 f8 a1 bf b2 1f f4 04 b3 16 db 3f
       -0.03510205973500261 0.4232604549765667
000050 17 8b af 10 48 54 89 3f ec 74 cb b1 15 0b ca 3f
       0.01236778546257748 0.20346327954658905
000060 13 a2 8d b6 7a de d5 3f 84 4c 59 2a 8b c8 c3 3f
       0.3417040617701172 0.15455760543645536
000070 38 9f 93 ff f6 26 d2 bf a8 3a 35 72 e0 51 d7 3f
       -0.28362822493226103 0.3643723597823887
000080 9d ed ba 63 91 e1 d6 3f fb 45 9d d6 5a e7 cf 3f
       0.35751757373119536 0.24924788932052863
000090 23 6c c0 ff e1 b0 81 3f c6 3d 7d 4f 4c 27 c9 bf
       0.00863815843336197 -0.19651178246793516
0000a0 d0 4b a6 ea c3 cc ac bf f5 76 33 69 54 9c b6 3f
       -0.05624973525404864 0.08832290237793557
0000b0 2b ce 00 5a 60 83 c2 3f 4f 22 19 89 bc 20 61 bf
       0.14463428873715264 -0.0020908052763711003
0000c0 bb 9d e6 13 76 c0 d1 bf 05 86 1a 1e 10 99 bd 3f
       -0.2773719019264395 0.11561680540992121
0000d0 c0 ad 36 ca f4 5a 9d 3f 02 e8 a8 f8 49 d4 db bf
       0.028667282907617553 -0.4348320892637504
0000e0 87 f5 3a 96 da b8 bc 3f 16 ff 77 2e 7c b7 d4 3f
       0.11219564597828056 0.3236990407749415
0000f0 a7 54 69 11 be 25 a1 bf 06 c1 c0 e5 e0 03 d8 3f
       -0.03349107706586923 0.3752367252045733
000100 8a 13 39 a3 d0 b1 d5 3f d9 a1 77 69 a9 21 d0 3f
       0.33897796573392525 0.25205455112020797
000110 36 bd 3a 87 a8 1a d6 3f 88 c9 b3 d0 1a 20 a2 bf
       0.34537709432602826 -0.03540118978152679
000120 ee 79 94 0f cf 0d d6 3f 20 71 8d 3c ac a5 d7 bf
       0.34459282418711623 -0.36948686517077256
000130 8e 08 4d 7c c6 3b d7 3f 19 f8 9b ea c4 b2 b5 3f
       0.3630233968616573 0.08475905158772469
000140 84 26 40 0b d6 ef d7 bf 77 b7 fd 79 93 67 da 3f
       -0.37401343439760404 0.4125717822379253
000150 4f a9 12 39 f4 db b1 bf e3 23 c7 19 e1 29 dc bf
       -0.0697624816263318 -0.44005610959408
000160 ff 2a fe 94 71 37 d3 3f 89 16 07 61 f4 e5 c3 bf
       0.30025901365358715 -0.1554551576393133
000170 40 6c be a7 3c a6 bd bf 2c ba 69 c8 14 7e b8 3f
       -0.11581782431896759 0.0956738461770576
000180 4f df 27 5d f3 c7 be 3f 25 ef cd 3d 06 8a 95 3f
       0.12023850464163142 0.021034333727114735
000190 0d 74 d0 25 96 ea d6 bf 09 9c 94 d9 3a 09 da 3f
       -0.35806802456664927 0.40681334732147484
0001a0 5c ec 42 d8 bb 3e d8 bf 25 87 ca df e0 33 d0 bf
       -0.3788289653709336 -0.2531664071521951
0001b0 6e da d7 7b f1 49 d3 3f 62 ad e8 1f 5f de b4 3f
       0.30138814062175967 0.08151812104249737
0001c0 d2 2b 57 c5 59 64 c7 3f e3 3f f5 30 50 f3 d1 bf
       0.18274995933310706 -0.2804756620507744
0001d0 06 ed 60 b5 af 5a c5 3f a7 b4 b7 6d 49 4e d5 3f
       0.16683002811792152 0.3329032489262524
0001e0 0b c4 49 31 54 bb d9 bf 0c 66 3b 32 96 82 5f 3f
       -0.4020586472825591 0.001923224140162441
0001f0 a3 3e 75 31 e2 3e ab bf cc c1 02 ff f5 b1 95 bf
       -0.053214138543464594 -0.021186679544088524
000200 dc db 64 3f 31 6e cf bf b9 1e a2 83 65 49 9c bf
       -0.24555030436906022 -0.027623735579736606
000210 76 9d eb 2d 85 83 c0 bf 79 18 f5 23 c1 73 c5 3f
       -0.12901367895322452 0.16759504562122965
000220 82 d3 08 1c 88 05 d5 bf 8a 25 98 3d 92 54 b6 3f
       -0.32846262681714944 0.08722795490043303
000230 b1 dc 69 82 56 0f d6 3f b7 d7 47 4a d1 b9 c6 3f
       0.3446861527986114 0.17754570128425737
000240 06 bc 96 15 16 26 d2 bf e2 4a dc 20 58 6c da bf
       -0.2835746012523831 -0.4128628083137028
000250 2c 07 6c 6c 36 ca c8 bf ff 6e eb 1c ba a3 cb 3f
       -0.1936710385708066 0.21593405162899867
000260 be 57 54 c3 79 96 d0 3f ea 3e 0a 28 3f f6 cf bf
       0.25918430400031045 -0.24970235304908012
000270 e4 d1 03 ee 31 16 c6 bf 25 35 3e c7 85 40 d9 3f
       -0.1725523388082727 0.39456314523052277
000280 ca c5 e7 c7 a3 e3 ca bf a2 00 69 74 d5 76 d5 3f
       -0.21007201443675988 0.33537804001026406
000290 96 39 a6 68 94 e7 d3 3f e3 0d 0a 34 50 c0 4c 3f
       0.3110095045057276 0.0008774177186556233
0002a0 b4 91 7e 83 69 4b d0 3f 0b cd e6 53 14 a4 d3 3f
       0.25460279313326883 0.3068896121360047
0002b0 3e c2 1f 1b f2 cf d6 bf 82 7c 9f b1 11 6c c7 3f
       -0.3564419999011398 0.1829855077075742
0002c0 f0 3a 5c eb 43 ac b8 bf 0a 92 dc 99 c1 65 d8 3f
       -0.09637856002903411 0.3812107088618012
0002d0 ac 80 2b 12 61 95 d7 bf 7c a4 c3 ce 50 8b d0 3f
       -0.3684923818054908 0.2585031527692718
0002e0 2e 14 4c e1 3b 7a 91 bf fd b7 b5 34 ed fa ce bf
       -0.017067847848938715 -0.24203267167780487
0002f0 c6 48 24 37 71 9c 52 3f 6e f6 d0 63 31 92 95 bf
       0.0011359315508952402 -0.021065494267750777
000300 9e 27 81 3f d1 46 b2 3f 1c bb e2 36 9e bc ca bf
       0.07139308739092917 -0.20888116531337964
000310 69 0e 37 ae f4 5e d3 3f 9c 9b 86 fa 16 f4 d2 bf
       0.3026706410712224 -0.2961480566540844

lstm.bias_ih_l0 f8 [20]
000000 52 33 e6 cf 94 2a e2 bf 50 e5 be 03 a2 6f d5 bf
       -0.5676979122668888 -0.3349385296420069
000010 18 16 11 76 d8 0e cd 3f 67 d8 df 79 dc f9 d3 bf
       0.22701555027940468 -0.3121253194980284
000020 1f c3 51 ad 5a 42 02 c0 8c 3e c8 de ca 89 b9 3f
       -2.2823995152069894 0.09975879611033117
000030 ff f2 8e ed 01 cf ac 3f ba 43 52 8f 9f 82 d1 3f
       0.05626684212572818 0.27359761234498203
000040 ed 81 7f fd 03 21 d8 bf 08 89 70 db f1 6c d9 bf
       -0.37701511150046835 -0.3972744601216083
000050 a5 0a df 1c 4a d5 d2 bf 25 cd a1 43 63 bc 81 bf
       -0.29426815814455615 -0.00866010236879917
000060 cb ed fc 27 42 42 b0 bf 13 63 f5 a1 3b b1 b1 bf
       -0.06351102329511275 -0.06911061004701606
000070 b5 39 b2 5c 32 f4 b8 bf 07 bb ec 9d 8b 3e e0 bf
       -0.09747614634600306 -0.5076349338977203
000080 9e 9a f0 b2 2c 4d dd 3f 26 c0 24 60 2c b3 d1 bf
       0.4578353640994609 -0.27656087292689546
000090 3c 42 69 b4 3e 51 d2 3f e9 38 57 a8 f0 96 01 c0
       0.28620879762914675 -2.1987012054079185

lstm.bias_hh_l0 f8 [20]
000000 b2 10 0e c3 8c 78 ee bf 8f e4 b7 34 fd 58 77 bf
       -0.9522155580202905 -0.005700100980441949
000010 6d 1d 9e 48 ff e1 ae bf ae d2 9f 70 5c d1 d0 3f
       -0.060317971815545636 0.26277838705508827
000020 4b b7 d4 2e 22 52 00 c0 0f 18 0e 05 88 f8 d6 3f
       -2.040104261271073 0.3589191483846443
000030 38 02 ad af ca 9b a4 3f 9e c1 2a 20 3c 74 d1 bf
       0.04025109667282262 -0.27271941319761506
000040 9b 54 1b 64 d5 67 ca 3f 28 eb ec 9d 10 97 ce bf
       0.20629374874139192 -0.2389851351852823
000050 f4 6b e7 69 9b cb d5 3f d8 0c 12 a0 d6 88 a0 bf
       0.3405521902292883 -0.032293993987900727
000060 11 0d 83 97 76 a9 b6 bf 80 96 50 29 72 98 94 bf
       -0.08852330397626341 -0.02011278512158876
000070 cc 3e 96 f1 64 ac b9 3f 71 96 c8 67 a6 ba f0 bf
       0.10028677843205996 -1.0455688528103588
000080 c9 68 94 80 25 3b 89 bf 98 8c 4e 3a 6c 91 d6 bf
       -0.012319844232980508 -0.3526259011652626
000090 92 27 2e 1b c0 4d ce 3f 68 7c 1c 45 25 62 02 c0
       0.23674775435602818 -2.297922649318526

linear.weight f8 [2, 5]
000000 3c 1f a3 c7 5a 68 db bf 65 65 66 45 5f 5a e0 3f
       -0.4282442998487459 0.5110317569225741
000010 10 16 15 12 41 31 d2 bf 97 ad 23 fb e4 a7 d0 bf
       -0.284256236704409 -0.2602474644215475
000020 f2 c4 7f 27 f6 41 81 3f 38 80 12 ae 06 be 92 3f
       0.008426592903534733 0.01830301701977552
000030 a6 2d 77 9e 48 45 95 bf de b1 42 a2 93 6d db 3f
       -0.020772108718842518 0.42856303067926926
000040 18 72 39 9e fa 12 e2 bf 9f c5 f4 5f 4d c3 8e 3f
       -0.5648167696304567 0.015020946970795644

linear.bias f8 [2]
000000 c4 9f 5f fd e6 3b 85 bf 84 e4 5d 6c 0f c8 6e bf
       -0.010368160827013535 -0.003757505534789875
