trained_NNs/lstm_wsize_8_smaller_net.pth (torch, 3915 bytes, 6 tensors)

lstm.weight_ih_l0 f8 [20, 3]
000000 53 64 20 1d 98 68 b3 bf 03 c6 76 40 be 97 b7 3f
       -0.07581473075005478 0.09215916704012987
000010 99 ca c6 95 db 8c fd bf 05 4f 62 fd 9a 4e d5 3f
       -1.846889100136343 0.3329226946309379
000020 25 36 cb 98 48 99 c7 3f e7 42 fa a2 c4 ad e8 3f
       0.1843653436721279 0.7712119277149129
000030 8c 66 67 71 71 06 fc bf 8c 35 58 fb ad 65 f2 bf
       -1.751573031410234 -1.1498241251132155
000040 80 77 16 dd 38 77 98 bf 94 e4 a0 a4 42 af 02 40
       -0.02389229630863765 2.3355763303375827
000050 69 79 c4 ce ea 9c 0c c0 64 03 ba 74 b1 26 e1 bf
       -3.5766197351178346 -0.5359732894722637
000060 81 85 7e a3 42 8c f9 bf ee 27 5f 80 4e c5 d0 bf
       -1.5967432390683316 -0.2620426419858849
000070 97 01 83 a7 91 ce d4 3f b8 d5 3c 7a be 0e f6 3f
       0.3251079688889375 1.378599622240797
000080 45 a3 74 db e5 a8 f0 bf 9e 24 c4 fc e5 12 e5 bf
       -1.0412348339543354 -0.6585569321479345
000090 64 fb ee ef a9 ee c3 bf db 2d 12 b4 d9 90 e1 3f
       -0.15572094169143746 0.5489319340717275
0000a0 4a ff 95 93 ae 81 b9 3f 30 5b e4 27 8d 16 b7 3f
       0.09963503935977971 0.09018785690237219
0000b0 24 5c fb 64 19 0d d5 3f 5f 48 92 c6 d4 44 e2 bf
       0.3289245115424271 -0.5709022405956253
0000c0 a2 e7 d8 50 2a 15 08 40 47 03 0f 28 bb be de bf
       3.010334617251787 -0.48039130126931123
0000d0 0b 6c b8 a6 a4 ae f3 3f 3e c3 66 0a e5 d3 dc 3f
       1.230137492419774 0.4504330255104384
0000e0 fe a7 eb 34 c1 5a f0 bf 36 d6 b5 fd 7f ec e2 bf
       -1.0221569125374113 -0.5913696246413511
0000f0 b2 35 7a 12 34 2f d1 bf a9 af e5 48 fe 2f b5 bf
       -0.2685060673182661 -0.08276356963841515
000100 e4 ef f5 cf 81 72 08 c0 06 1a 59 57 08 0b bc 3f
       -3.0559116599015272 0.10954334385414918
000110 76 e7 a3 59 a7 a4 b9 bf 0c 15 83 29 9d de 02 c0
       -0.10016866625292473 -2.3586982005241506
000120 77 ce 41 a1 81 69 f6 3f f5 96 91 e8 9f 40 f6 bf
       1.4007583903411651 -1.3907775006022665
000130 fb c5 fc 19 f8 73 e6 3f 61 7f b4 57 21 23 e3 3f
       0.7016563899580314 0.5980383599271414
000140 55 58 8c ad 53 12 0a 40 a2 b0 29 1c f6 c6 e5 3f
       3.258948665471545 0.6805372762733166
000150 58 df 09 c8 97 79 fc 3f 03 3d db 13 bf 4c fe bf
       1.7796857656485 -1.8937369132652868
000160 ae 1b 44 25 a5 69 d4 bf 19 4a e4 54 8a 48 b8 3f
       -0.31894806517851293 0.09485687801888111
000170 43 8a cb d5 e9 cc 8d 3f 12 23 53 14 7e 0e da bf
       0.014550997578628549 -0.4071345518573689
000180 86 6d ec 00 f3 19 db bf 37 d0 05 3e 9a 08 c8 bf
       -0.4234588154810911 -0.18776252773716504
000190 79 08 83 66 41 ba f3 3f 50 80 03 d2 b0 6c fe 3f
       1.2329725269669594 1.9015358165415996
0001a0 34 7f 2c 88 9f b4 db 3f 2b ee db ab fd 34 e3 3f
       0.43289936350082603 0.6002186161635498
0001b0 a5 3e 8a 8b a8 9e f1 3f d5 f5 57 0e 40 d3 df bf
       1.101234955862233 -0.4972686901163262
0001c0 be 4e 6a c8 a1 25 c8 bf b8 b9 51 dc f5 c5 d2 3f
       -0.1886484364118725 0.2933325435214118
0001d0 6f ad 4a 95 fb 72 f3 3f 84 cd c9 62 3b 28 bf bf
       1.2155719596583727 -0.1217076412374834

lstm.weight_hh_l0 f8 [20, 5]
000000 70 b3 34 6a 49 01 d1 bf c3 45 1f fc 4a eb f1 bf
       -0.2657035386244422 -1.1199445580026441
000010 d7 92 48 12 1e eb 05 c0 b1 a3 f4 04 46 9d e6 bf
       -2.7398034504316047 -0.7066984268941409
000020 ef 13 9e c7 17 d0 db 3f 25 63 5e 28 4a 50 dc 3f
       0.4345759820355956 0.44240049307113544
000030 f4 89 99 da 25 2b f1 3f bd 88 89 41 64 8e b7 3f
       1.0730341471722769 0.09201647377043094
000040 6e a6 f6 1f 16 ea d1 bf f3 22 44 f4 37 27 c0 bf
       -0.27991250153954794 -0.126196855803094
000050 73 c0 f3 dc 25 87 bd bf e2 b1 01 c1 da b4 f0 bf
       -0.11534344333972672 -1.0441539325066675
000060 74 b8 1c 31 36 a9 fd bf 6a 7f ec 0e f8 03 d4 bf
       -1.8538114469952491 -0.3127422471752569
000070 5d 48 8c 83 45 59 e0 bf 4c 15 1d b5 d5 16 e7 bf
       -0.5108974046036213 -0.7215374505400773
000080 cd 7f 06 29 73 c2 d8 3f 55 05 46 d4 71 02 ab bf
       0.38686827665696627 -0.05275302616338232
000090 f9 2b 89 a8 c4 32 f0 3f f6 7d 4d 7c 85 ff 04 c0
       1.0123945792608977 -2.624766322245473
0000a0 b0 59 dc 1b 27 16 89 bf 65 4f 80 b1 cc 9e ef bf
       -0.012249284303419511 -0.988134714777044
0000b0 8d f1 03 de 5c 11 f6 bf c9 2b c2 92 c2 60 f6 bf
       -1.379238955733942 -1.3986230595353268
0000c0 17 48 8b 44 f5 61 dc 3f b1 ab 5d 51 e3 c6 ff bf
       0.44347888654476847 -1.986056630931426
0000d0 c9 16 30 3f ef 65 07 c0 0c a5 8f 0a 81 77 09 40
       -2.924772733359394 3.18335159541005
0000e0 c6 75 5d bd 83 27 cb bf 64 a4 b6 8f 9a 35 fe bf
       -0.2121433901437923 -1.8880868543440323
0000f0 66 6b f1 66 c0 80 00 40 39 f2 0b bc af 15 03 40
       2.062866977922954 2.385589093317574
000100 4d 38 dd 84 cf 6b 0c c0 2f b7 c1 5a 16 82 fb 3f
       -3.552641904831978 1.7192596001800202
000110 d4 80 4a c8 0c f1 f1 bf 0c ce 0a a0 4b d4 f2 bf
       -1.1213500808590213 -1.1768299342774098
000120 c7 45 13 6c 4f e3 c7 3f af 5c 7c 66 b9 d4 04 c0
       0.18662445809472514 -2.603869248075703
000130 04 ea 60 24 85 19 fc 3f 40 64 b9 38 90 85 ec bf
       1.7562304898298189 -0.891304121770311
000140 2e de 1e 93 1d c3 fd bf 5b 8d 7f 81 65 41 fc bf
       -1.8601356264970366 -1.765965944149534
000150 03 b7 d3 60 12 5c f7 bf 53 09 b2 19 9d 68 07 40
       -1.459978464346421 2.9260808951814083
000160 c2 90 d0 74 1d a5 13 c0 90 e6 1b 9f 52 cd e1 bf
       -4.911245179395509 -0.5563138110730552
000170 3f 77 17 21 09 04 86 3f 10 05 f9 d0 5f 29 a7 bf
       0.01074988491285078 -0.045237535724036104
000180 e3 12 3b cc 3a 62 b6 3f c5 68 08 72 1e 67 e3 3f
       0.08743636594870056 0.6063377597049785
000190 c7 58 6b b9 51 7b 0c c0 c8 cf 00 17 8d a3 f6 bf
       -3.560214470470871 -1.4149294756471011
0001a0 e9 0c 79 b7 b3 22 c1 3f b1 e2 c1 de 6f 1f 02 c0
       0.13387152155528462 -2.265350094119946
0001b0 22 b2 a6 c0 f3 3f d2 3f e7 60 e5 08 a3 4d e1 bf
       0.2851533299788419 -0.5407271550893967
0001c0 06 a8 b9 e2 44 5b 0f c0 15 a5 a6 f2 07 c2 06 40
       -3.919564982691557 2.8447417218309377
0001d0 db 2c 89 c4 0d fa e4 3f f3 74 c7 66 50 90 00 40
       0.655524143084587 2.0704658536548037
0001e0 b2 50 99 3d 50 4e e0 3f d5 df d7 f7 c0 f8 b9 bf
       0.5095597460845254 -0.10145193148480243
0001f0 28 f9 fc 2a a2 0e 17 c0 78 af 64 cb ce cb fe 3f
       -5.7642904965307835 1.924757761483276
000200 c8 ae c2 e4 32 fc 09 c0 09 b7 11 fc 1f 88 aa 3f
       -3.24814394683003 0.05181980087296096
000210 55 a2 e9 52 29 4b f8 3f e7 1d 27 14 a1 2a f4 3f
       1.5183499563956009 1.2604075228899718
000220 6a 2c 93 b2 31 62 fb bf 13 63 be 2a 2e ef 00 40
       -1.7114731765348332 2.1167872752524857
000230 06 cf 41 77 bd 5c c4 bf cd 3d d5 37 ca f2 d1 bf
       -0.1590802032766236 -0.28044372036398785
000240 75 49 21 0f d1 ef fc bf 63 3d 77 f7 73 7d 02 40
       -1.8085489836708721 2.3112563451065156
000250 8a cd 3c 6e 0c aa 09 c0 02 46 57 41 19 76 cd bf
       -3.2080315220170563 -0.23016658487772196
000260 a2 66 27 cb 5b 63 e3 bf c4 a3 34 ef 69 78 0a c0
       -0.6058787315225411 -3.308795803827225
000270 54 41 91 6b ef 8f e0 bf 15 1e e8 74 3a 85 e0 bf
       -0.5175702191282121 -0.5162632258733902
000280 02 09 95 23 3a 65 cf 3f 87 50 c3 6f c2 29 e9 bf
       0.24527670609865743 -0.7863475973959034
000290 4f db e8 4e 0e 04 e7 3f a7 10 a1 48 23 d1 d1 bf
       0.7192451039507918 -0.27838975994769516
0002a0 2f 58 ce 36 76 52 dc 3f 23 1d b9 2a 83 60 ec 3f
       0.4425330672469298 0.8867812952457012
0002b0 19 c0 0c a2 4c 72 bb 3f bf 9b 16 1b a8 8c f4 bf
       0.1072128196362886 -1.2843400056969896
0002c0 34 8f 87 ef 9d 00 e2 bf 1a f9 a1 d5 62 d5 ce bf
       -0.5625753095923529 -0.24088702613148244
0002d0 72 7c 32 07 6a d3 d2 3f 91 4e dd 81 a9 ef c3 bf
       0.2941536970410602 -0.15575140801467005
0002e0 14 da 01 8e e6 1b df 3f 02 1b 03 aa 0a 5b f4 3f
       0.486077917746486 1.2722269669627058
0002f0 48 6d 92 17 06 19 f5 bf 4c 22 60 9d f7 ba f1 3f
       -1.3186093254833668 1.1081463000756626
000300 9f d7 e3 27 07 22 e1 bf bf 52 5c 07 82 47 f6 bf
       -0.5354038027860389 -1.3924579894566447
000310 eb 08 6a 54 ef 55 f9 bf 88 b4 1d f9 16 de b5 3f
       -1.583480195754016 0.08542007047590705

lstm.bias_ih_l0 f8 [20]
000000 dc c6 c6 ee 8e 8d e6 bf 63 fd 0a ee 6d fa f1 bf
       -0.7047800696948019 -1.1236399935295018
000010 59 d8 05 5d 94 6b e9 bf 77 68 f6 44 31 7a ed bf
       -0.7943822686054417 -0.9211660715984767
000020 73 6a f7 98 4b 5a e0 bf b5 41 69 ba 9c c8 0c c0
       -0.5110223758341149 -3.597955185258082
000030 d2 3f a8 8f 5e db ff bf 95 bc b6 e3 cf ef ed bf
       -1.9910569774256044 -0.935523934129281
000040 03 b8 7b 23 9a 68 03 c0 4b 2e be ee 80 c6 ee bf
       -2.426075246060465 -0.9617314017245432
000050 04 95 f3 b9 ca ac ed 3f e6 05 1e 09 61 6e d9 bf
       0.9273427612176026 -0.3973620022807992
000060 bc 79 03 3f 80 2c d5 3f f0 0d 04 89 ed 0b f0 bf
       0.3308411231390911 -1.002912078111759
000070 b6 5b 1b ed 52 cb 9c bf 42 9f 24 6d 24 3f f3 bf
       -0.028119369241575952 -1.2029155982399549
000080 26 1f 2f 2b fc 33 e9 bf cc 4d cb 2e e9 05 f8 bf
       -0.7875958293379639 -1.5014430835625374
000090 b3 c0 ad 30 e2 ab f6 bf 00 b7 4a 70 b7 9f f3 bf
       -1.4169637586128772 -1.2264933000946598

lstm.bias_hh_l0 f8 [20]
000000 39 e7 9c bd ce dd e4 bf a5 c4 25 cf ac 72 f6 bf
       -0.6520761206986442 -1.4029968349171125
000010 e8 62 5f 8f 84 98 eb bf 84 cc 67 eb 22 3e f0 bf
       -0.8623678970571662 -1.0151700206304506
000020 c8 b5 2f 32 6d c9 d4 bf 50 9a 58 58 2c e9 09 c0
       -0.32479410077106907 -3.2388541128196167
000030 24 04 17 aa c1 c7 fc bf a5 16 71 65 7f 25 e5 bf
       -1.7987686771523466 -0.6608273488315787
000040 3e 00 d0 8b de e7 fd bf 8e d9 2f 25 b9 e0 f3 bf
       -1.8691087209154058 -1.2423640682805828
000050 9d a1 93 99 3a 50 f2 3f 26 45 db 31 19 0c b2 bf
       1.1445871352280854 -0.07049710719299593
000060 59 34 a1 1e 83 9b ba bf 70 64 55 7b 47 f0 f3 bf
       -0.10393542764468701 -1.2461619203297936
000070 92 b8 bf 94 fe cd bb 3f 5c de 55 ae 69 3e eb bf
       0.10861197597088992 -0.8513687520016435
000080 e2 54 08 04 92 a7 e3 bf 95 86 e5 83 a3 bf fc bf
       -0.6142053679237984 -1.796786799641642
000090 c9 28 bb 1b 67 1a f4 bf dc 9a 8c 0f cd e5 e3 bf
       -1.2564459880109544 -0.6218018821426443

linear.weight f8 [2, 5]
000000 3e 81 72 5b f3 08 00 c0 9a 5c f2 6c 0a 9a f8 bf
       -2.0043704170531376 -1.5376075988513436
000010 9c cd 9e 56 10 78 e8 3f 88 e5 b6 50 ec 8f b2 bf
       0.7646562282374592 -0.07250859232489948
000020 f2 65 ec 96 11 a7 b9 3f d7 2c 0f 09 3d da a0 3f
       0.10020551619199816 0.03291502700411691
000030 de b8 0a 31 53 0e d0 3f e8 73 65 39 f7 4d e4 3f
       0.2508743266033785 0.6345172997495157
000040 fc 67 39 28 3b 27 f9 bf 61 85 ae 3d 61 43 f7 3f
       -1.57207790100665 1.4539501580660146

linear.bias f8 [2]
000000 a4 3f 3a c2 03 78 a0 3f 56 a0 81 0a 88 c8 8a bf
       0.03216563936177799 -0.013077795811298792
