trained_NNs/lstm_ws4_1.pth (torch, 4198 bytes, 6 tensors)

lstm.weight_ih_l0 f8 [20, 3]
00000000: 5666 4963 0d00 c6bf df86 ee11 a734 d3bf
00000010: 7ae4 84e0 a8a4 ccbf 05d2 b356 fcdb a43f
00000020: 9718 63f8 54b9 c03f e40e 671b 7956 d23f
00000030: 1a01 7b85 dae2 b4bf b0d3 7862 98b4 d03f
00000040: d6ca b4c9 ff95 d33f 2b28 1923 7e5a d03f
00000050: 9230 54df c567 b23f cc90 6e9b cd14 d83f
00000060: b271 a3d5 dd9e d9bf 040b e8ee aace bebf
00000070: cfba 9d27 964b dabf 740d 35dc 1024 ae3f
00000080: a70d fbfd 7c51 d73f bf4d 6fb2 6316 da3f
00000090: 9ae2 8daf 5f14 cd3f 47b0 735e 0653 d63f
000000a0: fc62 f83f 6b79 d5bf 84db f244 7234 d53f
000000b0: ba48 0cf2 eb57 d33f 4c0a 97d7 7427 cf3f
000000c0: 9f68 1909 dd83 68bf f9f2 076d 4850 a8bf
000000d0: be62 3f64 3ca2 d0bf 8c91 b715 0847 cd3f
000000e0: e230 40bc b6ab a73f 998f 2033 9df7 cdbf
000000f0: c387 efc0 4dfe babf 7e7c f24a 8ed3 cebf
00000100: 3234 9c4f 44ca dabf d488 6294 74f9 b33f
00000110: 4606 cafa f7d2 c2bf 5390 c46c c611 dd3f
00000120: 38ec 0077 627e d4bf efb4 91cb e3f6 c1bf
00000130: 221e 8a3d 9cbb c3bf 5891 1fe0 9018 d23f
00000140: 9e0e 847e 1d9b 86bf e991 c516 f03a ddbf
00000150: 582d f946 b01e cd3f cf5b 9aad b432 c1bf
00000160: d8b6 4c63 fd4c c33f f19e f1c3 a080 cabf
00000170: c1e3 9689 b955 d0bf f92d 0bbd d70d d73f
00000180: 1d24 a6c0 eaef bd3f de02 03ee 389d d63f
00000190: 057b 5316 5352 c6bf ed18 f0f7 6cfc 933f
000001a0: 1815 6586 9fa4 c0bf ff71 7ccd 81d6 d73f
000001b0: b3f7 fe75 6b22 cbbf 23f4 8605 c5ff d7bf
000001c0: dba0 fa11 66f3 c63f 2301 baec 9f9e 913f
000001d0: 11bb 7e3e 6842 cc3f 38c6 799d 5783 aa3f
-0.17187659595474497 -0.3000886607279493 -0.2237750145230029 0.04074085768107597 0.1306558811977012 0.28652789760620423 -0.0815865112190334 0.26102265945820147
0.30603022287247705 0.2555232374912772 0.0718959493862619 0.37626972369095024 -0.4003214441597961 -0.12034099896122191 -0.410863436401013 0.05886891067577951
0.36434864809799666 0.4076165430571698 0.2271842581938202 0.34881743644541924 -0.33553582427116146 0.33132607205646303 0.3022413123845912 0.24339161421638023
-0.002992564878508366 -0.04748751002259683 -0.25990209379009943 0.22873021183398767 0.04623194740278948 -0.2341190814632881 -0.10544286690085784 -0.24083117160350648
-0.41859538816862873 0.0780251371639083 -0.1470632528835713 0.454209905832845 -0.3202139055389952 -0.14034697952175842 -0.1541629124151181 0.28274938475649014
-0.01103804628701904 -0.45672228072933635 0.2274990412282516 -0.13435991741854855 0.15078704212776617 -0.20705041472978494 -0.2552322238585099 0.3602198930863945
0.11694209292740294 0.3533460926374071 -0.17438734617368126 0.019517614968230502 -0.13002389967201888 0.37246747080806125 -0.21198790799638587 -0.37498593845140443
0.17930293920404136 0.01720666773189906 0.22077658702388495 0.05178331181822354

lstm.weight_hh_l0 f8 [20, 5]
00000000: ef08 97fc 174b 9c3f e542 2ddf 2c12 d43f
00000010: 0092 287b d421 d03f 780d d598 36a9 d73f
00000020: 0c7b 4476 a81b bb3f 4295 8b4f 2f95 dbbf
00000030: 5737 7cac d3bb b8bf e18b 3724 614a d43f
00000040: 560b a4c1 5d86 cb3f ad60 495c 170f d23f
00000050: 8d46 eab3 0937 cbbf 67b9 db56 9a5c d0bf
00000060: dcda a4bb 9805 c7bf c521 7ec7 dedd d93f
00000070: 7ee9 7307 bb12 cdbf bc1e af55 2bcc d73f
00000080: 8922 da0b eebe d7bf 2ca4 4f54 5e9d d43f
00000090: 0fc5 b7fe d34b d9bf 7b32 4b8a 1705 9b3f
000000a0: 0214 aaee 1d4b d1bf acf6 0fce 3f56 b63f
000000b0: 5574 0810 809e c1bf 2a5e 3e06 e439 67bf
000000c0: 56d1 36f1 af5a d6bf 820d 2f15 d83f d4bf
000000d0: 1ddb 531f 400e cf3f 4dac 34d0 8016 d0bf
000000e0: 1d92 7bff 0331 b6bf 0a18 0751 68a7 d1bf
000000f0: e4f7 5929 bf7a dcbf ce79 7423 181d ad3f
00000100: ba31 345c ed56 c2bf 75b6 09c8 0103 db3f
00000110: 7a0d 0886 da53 dabf b547 3acd 6795 cdbf
00000120: ceb4 6ec5 a29e c13f f271 a4fb 7a18 b5bf
00000130: 7903 606f b30d d1bf f692 d68c b4bf d83f
00000140: 8059 6fbc fce3 db3f abfb 5651 9749 d2bf
00000150: d691 0a4c 51c2 bdbf a0e0 7be7 b4a1 d0bf
00000160: 4036 25b9 6b2d c43f a59a 10a6 43c4 d5bf
00000170: 6105 0ebe 200c c0bf 05f5 0b9b 94f8 d93f
00000180: 9c97 6367 e153 d4bf 2e72 ddbb 60de d9bf
00000190: 1e11 3d33 a65e c73f 773e 8092 c043 cfbf
000001a0: dae1 1a9b 524c cdbf e034 4f2d bb2d c7bf
000001b0: 2073 f455 f06b d53f 2baa feba c60a dcbf
000001c0: f1c8 7961 ba7a cb3f 45ec c2d9 9967 c63f
000001d0: fadb 2830 6c7a d5bf 986c f26b e066 dcbf
000001e0: 3ab1 9e18 38ff d33f c6a4 704d 19ec d2bf
000001f0: 26a8 aaaf 53a4 b9bf e603 d6f1 29bd a1bf
00000200: 15d1 3b3c 9fe6 cabf dde6 2ada 35e9 b13f
00000210: 7008 f198 0497 d6bf 6c5e e2c3 18ba c0bf
00000220: 764e 669a 41a4 d4bf 7460 d1d4 6fe8 b23f
00000230: b802 059d 48a2 dbbf eaf6 9cbc ebd2 bd3f
00000240: 9ac8 a71b 8130 d73f 9519 9e39 b198 a53f
00000250: 6e3a e509 40f5 b63f fee9 cf2e 9756 933f
00000260: 90bb f247 695f ccbf 8961 5cb0 13f8 d3bf
00000270: ffb2 232e 4b39 c8bf 60d8 cf14 4603 d1bf
00000280: 205c 64d9 9ba9 cebf 125d 1b18 09c4 b6bf
00000290: 0733 910c 9ec9 db3f f4dd c237 64e1 db3f
000002a0: caa4 bfd9 ed55 c8bf 3abe 4d33 64af d2bf
000002b0: 9c22 f8ce c391 c9bf 7a11 cf8c 8bad 943f
000002c0: 4553 7c9d 73c1 d7bf b32b 8210 d686 b83f
000002d0: 6a72 f036 8b00 d03f 0a72 97c0 8d01 a73f
000002e0: 3538 4d0c 4e07 cdbf eb84 c5d7 7095 ca3f
000002f0: 0bfd daf8 64c5 d5bf 0aed 67d4 02a2 ad3f
00000300: a6d5 b0c0 ad1b dabf 059e 9727 88ba c03f
00000310: 8d4f fd30 0150 843f cf96 146a 7cf5 d8bf
0.027630209724301243 0.3136093310795743 0.25206481959529015 0.3697029583456337 0.1058907784213085 -0.4309805180367513 -0.09661601029457977 0.31703976189436217
0.21503803210370148 0.2821710969196925 -0.2126171234599962 -0.25565203172927514 -0.1798582950811668 0.4041668842478681 -0.22713411201386785 0.37183650367340326
-0.37102843434744465 0.32210500939851516 -0.3952531802634249 0.02638661176279065 -0.27020977313105743 0.08725355892962722 -0.1376495435987716 -0.0028352216340399488
-0.34928511196200895 -0.31639673298578697 0.24262239007631417 -0.25137348492234396 -0.0866854189621979 -0.2758427420889126 -0.4449918655226368 0.05686259682464688
-0.14327780725615274 0.4220585301871787 -0.4113680180455145 -0.23112199326402352 0.13765368118530436 -0.0824047912942161 -0.2664612376830103 0.38670076135376463
0.43579023744441514 -0.2857416433652655 -0.11624630075909378 -0.2598697910866665 0.15763613262463316 -0.3401040193297525 -0.12537011413591428 0.4057971490982058
-0.31761965843758744 -0.4041978678340311 0.18257596494562106 -0.24425513413779118 -0.2288916833256412 -0.1810831042516048 0.33471306222945607 -0.43815773259362584
0.2146828628497768 0.17503665097123836 -0.33559708312117176 -0.4437790922326683 0.31245233921324067 -0.295660329461111 -0.10016367949234048 -0.034646330615039564
-0.2101630252942718 0.06996475769383488 -0.35296740470597054 -0.13067922176991276 -0.3225254066285069 0.07385920472859359 -0.43178000768606806 0.11649964670956661
0.3623354692528068 0.04218057468738149 0.08967972032153579 0.0188850042650106 -0.22166172040075738 -0.31201641295185617 -0.189248464135197 -0.2658248141518751
-0.23955104937405824 -0.08892876471087544 0.434180748245851 0.4356318039458238 -0.19012234813934575 -0.2919550419819391 -0.19976089101716787 0.02019327208451347
-0.3711823499627836 0.0958074369720368 0.250033191348655 0.04493372894259913 -0.22678542709985697 0.2076855710575168 -0.340172999403834 0.057876671246015546
-0.4079393750901893 0.1306925004312093 0.009918221766987556 -0.3899832759801542

lstm.bias_ih_l0 f8 [20]
00000000: 973e c67d 0968 b53f 3fd3 9f55 07c3 c73f
00000010: fab1 396f db8c b03f 185c 3b9c 8ff6 da3f
00000020: 1be9 4b2c 2d82 c3bf c6c5 7578 d344 ce3f
00000030: 682b 6c38 dfe6 c2bf a56b 9891 558a ba3f
00000040: 2729 5212 7100 8d3f 56c1 ae93 59d0 d6bf
00000050: d456 1b8f a49a 863f 2b56 bbfd 42ed d63f
00000060: 224e 073f d556 a23f 08e3 c466 f2fa b23f
00000070: 051b f144 ac0f d6bf 70e1 6e5f 8a3d b0bf
00000080: 6b43 ce5c 49da c9bf 5c1f 1373 7e2b d23f
00000090: e0b3 4e30 3fb0 d33f b4ed b320 b977 d83f
0.08361872978843575 0.18563930207133159 0.06464930978263075 0.42129888779658264 -0.15241017020145695 0.23647540456617672 -0.1476706529141112 0.10367331318449986
0.014160998698816997 -0.3564666692937143 0.01103714524962688 0.35823130396360864 0.03581873316184338 0.07414164551745384 -0.3447065995464274 -0.06343903379354798
-0.2019740775254165 0.2839046596313801 0.3076322528602855 0.38230732148778235

lstm.bias_hh_l0 f8 [20]
00000000: ac68 8b77 e28a a63f f006 b3f6 e5a1 d33f
00000010: e2c7 5be3 1c48 babf 563c b36b 128c b9bf
00000020: 8b90 16ba 2bc4 d1bf 7e32 d0a5 c7a9 c53f
00000030: 3e8d 221e dc11 a2bf b406 bd0e b8c4 d5bf
00000040: b076 d0eb 4061 dbbf 7b43 88d3 2e7e d53f
00000050: 2d50 3a0c 4756 c4bf 5130 fb93 afd6 d73f
00000060: 5234 8cc5 21f1 c73f 4913 f6fc 8471 6dbf
00000070: 59bd d0e6 7c63 d23f 8ca9 ab7e cbae d7bf
00000080: 2582 0919 7193 d5bf 2a3e c47f c90f 863f
00000090: 5fe9 272b d773 cabf f720 a539 57f5 b73f
0.04402835568699123 0.3067564877675144 -0.10266285467858396 -0.09979357842824874 -0.27759831593198986 0.16924377056456658 -0.035292509726128504 -0.340131773369744
-0.4278108885645038 0.335826593946926 -0.15888298127231462 0.37247838450708054 0.18704626222498405 -0.003594169371071852 0.28732225933614114 -0.3700436341302058
-0.3371241325858441 0.010772299014688864 -0.20666017157766256 0.09358735234593839

linear.weight f8 [2, 5]
00000000: 463d d8b0 4ef5 bc3f fa74 2173 6713 cb3f
00000010: 7735 7004 38c1 d1bf b09b a44b 23d3 cfbf
00000020: 34ff b3fd e457 a23f bbe2 ead5 7a07 c1bf
00000030: 116c 0345 bc51 a8bf b02a 93df 1eb2 d73f
00000040: 767c cf12 864c 403f 6d6c d839 6567 d53f
0.1131180936574668 0.2115296661531046 -0.2774181407301834 -0.2486309165335263 0.035826831788652674 -0.13304076619330893 -0.04749859182785355 0.3702466185901967
0.0004974035888344458 0.33443575524297026

linear.bias f8 [2]
00000000: deef 4cb2 dbdb b6bf 892e ab5b c1e1 63bf
-0.08929226973572166 -0.0024269844555869263
