trained_NNs/lstm_ws4_final_h5.pth (torch, 12448 bytes, 14 tensors)

lstm.weight_ih_l0 f8 [24, 3]
-0.07017602087668545 0.407615920754416 0.33057191630045285 -1.1366965838736736 1.1524076172005369 -0.27748702638727557 0.43289221143479767 0.7169169031283461
-0.3117644302188417 1.204350216490971 0.06745693922966635 0.8787893952715792 1.035616759421404 0.269221504983797 0.33886014907880274 1.141745242479361
-0.07738043947216063 1.5018268395958114 -0.20603971631237894 0.5498232785321872 1.1096795610174317 -1.5872465500328898 0.503831814783439 -0.7787142359017538
0.6629124520849092 0.699655828205318 0.14306896115376608 0.8821293670672222 -0.5545103198112802 1.0318368558090252 -0.4721205620907171 1.3872465906409661
0.423908302803773 0.7695099815120889 -0.7079131887394359 1.5719113085787693 0.9766259051988928 0.059191868535781234 1.5538078256728325 -1.1218781505029367
1.0963593014193629 0.7439262380915747 -0.120238133892796 -0.44729265329142864 0.4895776179094096 -1.0719447131511908 0.2760773590496311 1.1248526868909372
-1.1006636309026083 0.949800933035731 0.05813803202945456 -0.9091223450648876 0.034311415464915736 -1.0033196334888983 -0.8868187133651634 0.2133686020835311
0.18368894621115853 -0.9406388005654586 1.0404017702573207 -0.3229139748554968 0.12631378138372645 0.712078081595245 -0.45944708635073345 0.598893985466348
-0.17260865974096068 1.0696937884259856 0.7051901419252562 0.2601619278486209 0.3004039339815334 0.5660194789426214 -0.11989943569318709 1.4761222378734766
00000000: 8cf7 a042 0ef7 b1bf 7606 3e16 6116 da3f
00000010: b922 5f1c 1728 d53f c865 d3c1 e82f f2bf
00000020: fb99 38f8 4270 f23f e572 d9f1 58c2 d1bf
00000030: 838e b388 81b4 db3f db58 9cb7 fbf0 e63f
00000040: da24 f6cb f2f3 d3bf d925 8cbb 0445 f33f
00000050: 7932 e1a3 db44 b13f e76a 18f0 0a1f ec3f
00000060: 8c78 0ee1 e291 f03f 8142 d2d5 ec3a d13f
00000070: 5b83 8d7a e2af d53f c7ff cca8 9644 f23f
00000080: bd0e e258 34cf b3bf d21a 8594 7b07 f83f
00000090: 8490 9e69 825f cabf fd01 fcfc 2698 e13f
000000a0: 89c0 f95a 3fc1 f13f 0c48 71a3 5c65 f9bf
000000b0: 01bc e5e5 631f e03f ce15 041e 3aeb e8bf
000000c0: 761b ba2c 9436 e53f d41f 939e 9463 e63f
000000d0: 0733 9d6e 1550 c23f 03a3 cc5d 673a ec3f
000000e0: 5049 1c6d 8cbe e1bf 9e1d e85c 6782 f03f
000000f0: 9bb8 7c29 3937 debf aea5 247b 2932 f63f
00000100: 6ee2 424a 5021 db3f 9247 9165 d39f e83f
00000110: de5f 418f 39a7 e6bf 1eef e878 8c26 f93f
00000120: 362e 68f8 8440 ef3f 78c2 1987 654e ae3f
00000130: f989 3898 65dc f83f ff1c e880 36f3 f1bf
00000140: 642f 040d b08a f13f fdaa e765 3ece e73f
00000150: 7e37 cd24 edc7 bebf 1a2d 685d 71a0 dcbf
00000160: 6191 715c 3d55 df3f e4ab e17f af26 f1bf
00000170: 9530 125f 40ab d13f 963a f087 65ff f13f
00000180: 1cf9 a977 519c f1bf f728 23ed c464 ee3f
00000190: 31cc 70a4 44c4 ad3f 87ba 83be 8717 edbf
000001a0: 9941 9a0e 4491 a13f f94f 54e3 980d f0bf
000001b0: 294b 6ca3 d160 ecbf 9293 f88f a94f cb3f
000001c0: 658b 4e90 1e83 c73f bbdf b88a b619 eebf
000001d0: 8a4a 9f53 7ca5 f03f 143f 5b60 9faa d4bf
000001e0: a6e1 09cc 0c2b c03f c6cc 14f9 57c9 e63f
000001f0: dd9b 87c0 9467 ddbf 882b 2bb8 232a e33f
00000200: 3a02 4c62 0a18 c6bf 1b62 e03b 771d f13f
00000210: 76fa a0ea ea90 e63f 7c8b f136 7ea6 d03f
00000220: 6496 026c d139 d33f 00a4 dee1 d41c e23f
00000230: a270 1cbb bab1 bebf e409 095a 329e f73f

lstm.weight_hh_l0 f8 [24, 6]
-0.12788909177590757 0.5613534689164886 -1.0058522209551364 0.1862550439016083 0.02381962247952846 -0.43166910460053437 0.040917146271226355 0.0622439394372489
0.04763077377440344 0.12837252875199942 -0.029547411002462224 -0.4774037988961756 -0.3458482781465468 0.4761019774542983 -0.6763497189538356 -0.8996713988202307
-0.1425388444600373 0.9487501285976322 -0.14331733513454625 -0.104429084641451 -0.5689202779917445 -0.17630258233913143 -0.3903680481795666 -0.11979397590920164
0.3910088631280001 -0.28807581223347645 -0.1327054197068651 0.19829363337889191 -0.06640376499732545 -0.8354059777849688 -0.7354860040106995 -0.16524937093829206
-0.7364129015432789 -0.38010451298667824 -0.5692087908737956 -0.14591212802395284 -0.11158685046091714 0.26101577454171815 -0.19530372440578903 -0.035817597021096076
0.343129455880318 0.24964997689759016 0.11152281400828488 1.12685015224118 0.15647222904345096 0.4667752543947436 0.3739659463504299 -0.058788053961967075
-0.25907367707936657 1.758961623802405 -0.9468755412960473 -0.5945470033573691 0.9739259305227276 1.3541836161597973 -0.06357492047370172 0.2799665152237621
-0.7822859968862155 0.49380792790030176 -0.01951659631950957 -0.5115823136182629 0.33513343397979756 0.8958750296516615 0.130914225711273 0.7186236423379413
0.08760092317673322 -0.42027185030153646 -0.26094804488888307 -0.33901540545384906 -1.4121763809783507 0.2881099771018602 -0.29264977906786616 -0.24350596408017056
-0.49254925967923524 -0.24344205764817373 0.016914640377678706 0.04890490177593866 0.026690937841684328 0.5609549538371262 -0.24927998767593146 -1.1273479185026045
-0.1605753721931609 0.028829620970676414 0.2042723119046913 -0.06856886721670047 -0.6989064238086085 1.096809211889527 -0.6014746234128662 -0.16740746981355917
0.33259147127927335 0.11364015410198723 0.02636090812165049 0.03766604488490853 -0.9459112382208561 -0.47628413858109625 -0.17685158889531205 0.216049934850732
0.05070268399160912 -0.6498536208748493 0.3052690575977738 0.2992878479684082 -0.5404460281402885 -0.06822086794535213 -0.16409376069181053 0.009901468086337491
0.6788978604861955 0.08127498169710089 0.16863565408940298 -0.3495666308312253 -0.036442573200425356 0.2552788369737842 -0.8576694702622929 0.3053954564767479
0.36329409957944025 -0.3404727813204824 0.2954207394462824 -0.3576991216238707 0.47703769215781217 0.07226621495504278 0.07369231311484492 -0.7511754926191638
-0.0587772687671375 0.21263811079245157 -0.7083723087750708 -1.1231810670019933 0.40555964417482515 0.18910894482675827 -0.09535725592475632 0.30953206284902457
-0.44437967750318275 0.3464854712255197 -0.3754518565435133 -0.3944197094213253 0.8967612308134257 -0.19341354557440174 0.17356499069548345 0.5510690184375017
0.7851364556911937 -0.6803829448359551 0.03947798107181894 0.31300953977343043 -0.4814281507503712 -0.0757386235455829 -0.521812436525668 -0.38485937951613286
00000000: 44a9 5875 ab5e c0bf 53c2 cf8c 9bf6 e13f
00000010: cac7 997f f817 f0bf b4df 228d 34d7 c73f
00000020: 91e7 35ce 2b64 983f 49fc bc73 77a0 dbbf
00000030: e33f 299a 17f3 a43f 3cae 8308 70de af3f
00000040: 77d9 498f 0f63 a83f 87ea 58d2 826e c03f
00000050: f188 bf2f ad41 9ebf efb1 cfa9 c88d debf
00000060: ef1b 01d1 6022 d6bf 7889 ae6d 7478 de3f
00000070: b318 722a a8a4 e5bf f88a 62ac 1bca ecbf
00000080: 69c8 ae7d b63e c2bf 4de2 cc3a 295c ee3f
00000090: d826 adf1 3858 c2bf 8b47 494f ddbb babf
000000a0: 472f 804c 9834 e2bf c467 ac40 1591 c6bf
000000b0: f069 1544 cafb d8bf 6baf c968 d1aa bebf
000000c0: 7a2d e509 4a06 d93f 46ee 1388 d56f d2bf
000000d0: d84b d2be 7dfc c0bf 7b05 2f8f af61 c93f
000000e0: 0eaa fe4e d6ff b0bf dd04 2f51 a5bb eabf
000000f0: a388 bcf1 1989 e7bf 28a9 ee31 e426 c5bf
00000100: 2163 0fca b190 e7bf 20bf 15e1 a153 d8bf
00000110: c9c1 ac5a f536 e2bf 31f0 f9a4 3fad c2bf
00000120: 1bae 64b1 f490 bcbf fd64 d981 7bb4 d03f
00000130: ec0f 8e62 b6ff c8bf 5c61 a71f af56 a2bf
00000140: 2537 d33f d5f5 d53f 8074 1ccb 87f4 cf3f
00000150: cf68 ec56 c28c bc3f 55e5 7506 9407 f23f
00000160: e5a6 3c31 4807 c43f bf47 0d51 a5df dd3f
00000170: 6c23 59dd 0eef d73f f102 53c2 7719 aebf
00000180: aedc 93c2 a994 d0bf fa67 92f1 b424 fc3f
00000190: 57f6 67ef cd4c eebf b959 eb6f 8706 e3bf
000001a0: 9749 8ab6 662a ef3f 2ef7 8270 bcaa f53f
000001b0: 00c5 472c 7246 b0bf fd1c b7ac f8ea d13f
000001c0: 7ad7 97a4 7c08 e9bf af96 3591 8c9a df3f
000001d0: eca4 af9b 28fc 93bf 827a 46df e15e e0bf
000001e0: 6c52 af80 d372 d53f 7605 351c 02ab ec3f
000001f0: 116b 011f ccc1 c03f da29 3f02 f7fe e63f
00000200: f3ba 249c 036d b63f 525e 1ee7 bbe5 dabf
00000210: 652f b06d 5fb3 d0bf f1ec d0ab 6db2 d5bf
00000220: 3cc5 c742 4698 f6bf 6f71 53d4 6470 d23f
00000230: 90cc 9123 c6ba d2bf ec79 0d14 342b cfbf
00000240: e671 7f54 ed85 dfbf f0f0 08fe 1b29 cfbf
00000250: f1a0 fb4c 1252 913f 82c6 7b33 100a a93f
00000260: a7b6 8484 de54 9b3f 074f a8cd 57f3 e13f
00000270: b6c5 4e19 68e8 cfbf f2ea 92f8 9d09 f2bf
00000280: 716b 0eda bb8d c4bf bc88 e61c 8385 9d3f
00000290: 6cf2 8d59 9825 ca3f d430 38b2 ba8d b1bf
000002a0: fe1c 2701 715d e6bf d945 f0d0 878c f13f
000002b0: 63d4 9db5 473f e3bf b548 faa3 9b6d c5bf
000002c0: 12ac 04bd 2d49 d53f 3764 6169 8517 bd3f
000002d0: 42f5 1999 5afe 9a3f 4e94 e6bd f648 a33f
000002e0: 687a 22a5 e744 eebf 3bcc b377 707b debf
000002f0: 3c87 46a7 12a3 c6bf 4550 3e36 86a7 cb3f
00000300: db73 20c3 b3f5 a93f 7607 1bd2 99cb e4bf
00000310: 523e b73a 8789 d33f 8354 c737 8827 d33f
00000320: 48b3 0378 554b e1bf bbe2 ba3c ec76 b1bf
00000330: aa11 d33b 0601 c5bf 31d9 e78c 3847 843f
00000340: 429a 8301 88b9 e53f 773e 5fec 6fce b43f
00000350: 7974 a065 da95 c53f 685a ccb7 4c5f d6bf
00000360: 35e4 27d8 99a8 a2bf d073 0a0c 7d56 d03f
00000370: f2bb b13e 0772 ebbf 3189 7a62 998b d33f
00000380: 6c80 21e5 3540 d73f c4c6 3c59 4eca d5bf
00000390: c7d7 9e63 2ce8 d23f 47ad 4bdb 8ae4 d6bf
000003a0: 51bc b119 c987 de3f ed6d d6e5 0980 b23f
000003b0: 587b cbda 7fdd b23f 5664 cb2f a109 e8bf
000003c0: fec3 34de 0d18 aebf 994f dec1 b937 cb3f
000003d0: 1697 7267 fcaa e6bf bd28 e4b5 8cf8 f1bf
000003e0: b6ba 1370 b0f4 d93f 42bc b4ce b834 c83f
000003f0: d914 a247 5569 b8bf a0ff bf91 5fcf d33f
00000400: 4c86 7875 b770 dcbf f5f9 dc65 d12c d63f
00000410: 7eeb 4439 6707 d8bf d031 372a 2c3e d9bf
00000420: 8742 d59b 44b2 ec3f 1138 6c6a c6c1 c8bf
00000430: 3742 62ab 6037 c63f 7be4 807e 5ba2 e13f
00000440: b8e9 027d d61f e93f 8073 1a74 b2c5 e5bf
00000450: e92b 3b3b 7536 a43f df6c 2a2a 5908 d43f
00000460: bb2e b604 b8cf debf 171e 2c3f 9b63 b3bf
00000470: 22c3 b0fe afb2 e0bf 4129 253c 89a1 d8bf

lstm.bias_ih_l0 f8 [24]
0.19987355876794824 -0.12198092483091541 -0.5718730055558857 0.034436916443016434 0.8323594666677097 -0.6843383786743296 -0.6060362035727961 0.3778340223632515
-0.38370087127533187 0.25448932918353456 -0.9198083686118868 -0.002129729853556361 0.16045852793614213 -0.22697338998830555 -0.14519295248563446 0.09091257457521816
0.011980582539887721 0.12545768774122432 0.8855171709378776 0.343751546031593 -0.23373612856677548 0.12601905131757335 0.5615519397285923 -0.00025721772563797225
00000000: 152a 1fef 7495 c93f 3276 e252 243a bfbf
00000010: f97c 0a9e c84c e2bf b7b1 cb2b b7a1 a13f
00000020: 7452 fb51 b0a2 ea3f a0b9 7999 19e6 e5bf
00000030: 6530 5109 a664 e3bf 6c71 57c0 6e2e d83f
00000040: 9dc0 6419 8e8e d8bf 778d 819c 8d49 d03f
00000050: 2ace b8f5 116f edbf 7f38 4002 5e72 61bf
00000060: e0cd ecb0 e789 c43f 79f0 87cb 760d cdbf
00000070: ac8a 44c3 ae95 c2bf 4f81 98e6 0b46 b73f
00000080: e817 9191 4689 883f efae f05c ff0e c03f
00000090: 2330 271b 2856 ec3f a9ed 097c 0600 d63f
000000a0: 0342 0bc2 10eb cdbf 767c 0a6c 6421 c03f
000000b0: 2778 04c6 3bf8 e13f 2284 35b8 65db 30bf

lstm.bias_hh_l0 f8 [24]
0.1380692036277484 0.6022648273692208 -0.11913006773795982 -0.42968772331029126 0.7506137083384097 -0.662713526899994 -0.15436733455778276 0.06342147217323729
-0.22347921003795912 -0.10783169457455102 -0.6803410333591016 0.10381766364024798 0.7258404453263008 -0.09059825844072542 -0.20251536793761304 0.0030435886534328745
0.500968534471887 -0.032680077932573215 0.8619320470730448 1.0958216178189353 -0.2192758390282581 -0.00785571143021654 1.342979194495318 -0.3158610265662591
00000000: a73d 156d 40ac c13f d69e 22e3 c045 e33f
00000010: 1da1 e7e0 4e7f bebf c210 c7ef 0080 dbbf
00000020: a0c4 270a 0705 e83f 90df 94ff f234 e5bf
00000030: f988 bf0e 4fc2 c3bf 7c25 d9bc 633c b03f
00000040: 2c77 397d f79a ccbf 5282 aba1 db9a bbbf
00000050: 18ef 0c8f 5ac5 e5bf 85fd 145e cb93 ba3f
00000060: 164c d9bd 153a e73f 2ed5 138d 7231 b7bf
00000070: c85e 1d09 06ec c9bf baba 5337 deee 683f
00000080: bc37 fc29 ef07 e03f f0fa e673 71bb a0bf
00000090: abb2 3184 f294 eb3f a383 ac3f 7c88 f13f
000000a0: 40f4 b60e 3b11 ccbf aece 6fbd a716 80bf
000000b0: 930d 79c0 d77c f53f 6bb7 cb2a 1137 d4bf

lstm.weight_ih_l1 f8 [24, 6]
-1.3758984811439685 2.0645529341920263 0.2823854383086467 0.2194197766297621 -0.17904575772703607 -0.155593092909649 -0.5888118699298758 -0.11953596689180883
-0.13940855153744444 0.2048872183537837 1.0292612982156608 -0.759002983123732 -0.015943861266110543 0.2557628615973781 -0.6016003599081644 -0.6223240552168428
-0.2184928116016014 -0.13316810831208506 -0.2180771255746471 -0.320677526537956 0.4963724852738798 0.8427766024178939 -1.118620982718611 -1.3169974408623444
-2.023404067061357 -0.40240280795859545 0.2003802330897539 -0.09158220156894996 -0.6338007942120779 0.46333699429774666 0.5045281603802109 1.5739930318277047
0.009713537002522723 0.8446083525485643 -0.4220066637111925 -1.3067851083062905 -1.59346591503165 0.8313506570141671 -0.02520225739103575 -0.5915919221493986
-0.7343390733061235 0.6501400573271588 -0.12553889699086068 0.5157399057133322 -0.05471736683177467 -0.009729432350032716 0.8311729473378086 0.2642794598899687
0.1620452461177028 1.071409355109576 0.5728736845973998 0.3356906005786244 0.1996279607571948 -0.9982362537606213 0.6407447695839241 -0.6854248876861616
0.6324095017652284 1.1517553734241817 -0.7254513232260895 -0.7310518878487501 -0.32824123276958245 -0.07055635194612264 -0.15093762470431793 0.1613376650245393
-0.3321320982848157 -0.47131122987240875 -0.9163742501242064 -0.5376770514433444 0.07628758650680499 -0.43208476255411155 -0.7173646075697858 0.5824983984149009
-0.031035983864950167 -0.6289586914335068 0.7571261757408942 -0.13430054448747572 -1.4578320802688083 -0.2539854591714807 1.1136311047441554 0.8218812840689182
-0.03268040970478674 0.6372609702498967 0.8196887280538799 -0.4076567622506669 0.2862487374851064 -0.2815686239275709 2.0082042826051123 0.5147859547831588
-1.9100276106389726 -0.41000967428261703 -0.9283346342488218 0.6586783783496096 -0.9640221399188366 -1.1470122719622438 1.496681996918958 0.9564385203996282
1.1933206944678947 -0.1119686197351028 1.276070466049471 1.6588888897033074 -0.9001691331407031 -1.0048934390630295 0.7852294571859293 1.0626159720115012
0.2199851015130345 0.9557331903342189 -0.3598638210762489 -0.8529409932112695 -1.2129239992065055 1.0488124930024714 0.9234196784916329 0.8915762204116355
0.1759903232527236 -0.352396734579932 0.20581919035945453 -0.9139162491162928 1.5371240089427924 2.1058795936849886 0.2830187507047921 -1.9657133763570882
0.04587036597541558 0.8766937428099032 0.09283532730188959 -0.26339535370832184 0.48645998247480654 -0.04335442485006914 -0.059709312598155984 0.3255715743572446
0.1740885787072605 1.6102560239376742 -0.7543884013962534 -1.5232207203279027 -1.4676889881521133 -0.564184702360812 -0.09335345931463088 0.09437195962651836
-0.5671123080298129 0.7009990075080402 0.03848107455041958 1.6812123823129124 0.36482544812740536 1.3470034085598486 -0.29303659801281057 -1.1810888196522795
00000000: 1812 3220 ae03 f6bf 89b9 2954 3484 0040
00000010: aebe 995f 9a12 d23f d037 5c7e f215 cc3f
00000020: 9e6b f6ac f8ea c6bf 32e5 c376 79ea c3bf
00000030: b30d 9bfd 8bd7 e2bf a3fd 7ebc e899 bebf
00000040: 3b6a d1b0 23d8 c1bf 2e55 198f be39 ca3f
00000050: 0bff edb1 da77 f03f dda6 c29f c049 e8bf
00000060: 95f1 d66a 9653 90bf 2fe5 8531 6b5e d03f
00000070: 1b28 e265 4f40 e3bf 3a74 1523 14ea e3bf
00000080: 40b7 1e8c 92f7 cbbf 2109 090f a70b c1bf
00000090: 4ca5 2c85 f3e9 cbbf 7cbb 4208 fb85 d4bf
000000a0: f0ac b819 91c4 df3f cf00 27a3 06f8 ea3f
000000b0: 4355 961d dfe5 f1bf 1fb6 96e8 6b12 f5bf
000000c0: b1f9 b478 ee2f 00c0 0f0c 00b5 f7c0 d9bf
000000d0: 2653 f139 0fa6 c93f cb62 a260 ee71 b7bf
000000e0: fd3a 6a9a 1848 e4bf e649 6235 50a7 dd3f
000000f0: 3fcf 973d 1825 e03f 604f 3d51 132f f93f
00000100: 6ed9 08de b0e4 833f 15fc 8318 0807 eb3f
00000110: 635a d53c 2802 dbbf 9334 7180 97e8 f4bf
00000120: 5da0 851d d67e f9bf 6849 6cb1 6c9a ea3f
00000130: fc96 1edd 9ece 99bf c6b3 c62e 52ee e2bf
00000140: baca 00a8 b47f e7bf 5345 8185 f2cd e43f
00000150: facf 7998 a811 c0bf 03fd 88f9 f080 e03f
00000160: 65a4 212a ea03 acbf e52a 044e 06ed 83bf
00000170: 9f58 4402 f898 ea3f 6cd8 4e65 f4e9 d03f
00000180: 751e 460c e6bd c43f 6e2f cd22 7e24 f13f
00000190: 1ab7 8231 fb54 e23f 9bd3 c36d f47b d53f
000001a0: 94df 68b5 688d c93f 6cab f227 8df1 efbf
000001b0: b645 ce2c fb80 e43f cb3f 8f2c 00ef e5bf
000001c0: a75c f8d9 b23c e43f 0796 dd0a 976d f23f
000001d0: 4412 83b1 e536 e7bf 81a9 bfed c664 e7bf
000001e0: cf6b fc83 e701 d5bf b837 2228 fb0f b2bf
000001f0: d0a4 eb90 ec51 c3bf e95a 726d b6a6 c43f
00000200: f472 05fd a641 d5bf b987 a293 f629 debf
00000210: 7bc2 6517 f052 edbf b248 f880 a634 e1bf
00000220: 1733 2351 9587 b33f f844 11d9 46a7 dbbf
00000230: 4b3e 1a9f a6f4 e6bf 9542 65ae d3a3 e23f
00000240: 93ec cb9e e5c7 9fbf 60bd 47fa 6d20 e4bf
00000250: 0816 78ac 603a e83f 5350 349f c230 c1bf
00000260: e006 3dbb 4753 f7bf 7344 333a 4c41 d0bf
00000270: b4f3 6ad9 6ed1 f13f daa7 88fa d94c ea3f
00000280: 17cb cd95 7cbb a0bf 77b2 471e 7164 e43f
00000290: 2385 fcda e33a ea3f f907 7763 0c17 dabf
000002a0: c044 8139 e651 d23f 1f50 d667 3805 d2bf
000002b0: 0dcf 2b68 cd10 0040 4e7b 0765 2079 e03f
000002c0: 2c6c a21c 798f febf d298 8537 993d dabf
000002d0: 4ff8 bad5 eab4 edbf 2101 b3ad e413 e53f
000002e0: 6948 72f5 44d9 eebf 1304 438a 295a f2bf
000002f0: 5d76 54d2 68f2 f73f 7408 b8f4 249b ee3f
00000300: e812 c670 d717 f33f 5cc6 f0b7 f9a9 bcbf
00000310: ed2e 71dd c86a f43f 4793 8f13 cf8a fa3f
00000320: daa7 767f 2fce ecbf d4d9 8b24 0b14 f0bf
00000330: 5005 cf86 9920 e93f 46f2 ff9a 7900 f13f
00000340: 5788 4dc8 7828 cc3f a7fd 85c5 5d95 ee3f
00000350: 364f a243 0208 d7bf 3c53 e8e8 4a4b ebbf
00000360: ee01 d2fe 2268 f3bf 3b4f d19b efc7 f03f
00000370: 3a57 f36c a78c ed3f 7ae5 91da ca87 ec3f
00000380: 9936 64d5 d986 c63f 653b 8f08 ab8d d6bf
00000390: c5d4 bd81 4858 ca3f 5399 274a cd3e edbf
000003a0: 2be4 4458 0f98 f83f bf86 8166 d7d8 0040
000003b0: 94a3 9bad fa1c d23f 0637 8cde 8f73 ffbf
000003c0: bc9e 7013 527c a73f 6b3e 3f09 e00d ec3f
000003d0: 80d1 ac56 0ec4 b73f 391e 862f 78db d0bf
000003e0: 93b0 e20c 2922 df3f 3262 bc19 8d32 a6bf
000003f0: 785e c011 3892 aebf 42c8 1728 2ad6 d43f
00000400: add0 13d8 8848 c63f 26fd 0fd2 9bc3 f93f
00000410: ee50 0f25 f323 e8bf d15d a6b0 1c5f f8bf
00000420: a600 cd72 a77b f7bf be61 b113 cd0d e2bf
00000430: e68c b926 03e6 b7bf 395d 41c0 c228 b83f
00000440: 3fb5 04b6 c825 e2bf d3d0 7878 956e e63f
00000450: bd00 6b99 cab3 a33f 98a0 7af4 3ee6 fa3f
00000460: 042b 1dd6 4c59 d73f 5ad7 3572 538d f53f
00000470: 6ec0 3f93 1cc1 d2bf 993e e163 bde5 f2bf

lstm.weight_hh_l1 f8 [24, 6]
0.01344086637531536 -0.11352272212324832 -0.39338957648846806 0.1485388165740529 -1.172643040573493 -0.21614189576025064 0.3713569999709099 -0.09220525891284348
-0.04171759384916354 0.3398819551154414 -0.5171086133764717 -0.02249995385062479 0.001390567760196917 0.21636581376878614 -0.46321446711690556 0.16757765710882863
-0.2357086003029351 -0.13077110181487275 0.37553878443630584 -0.12708944217732518 0.6831219370589799 0.6216413885861947 0.21421486104870363 -0.7509669925239868
-0.49216517588405767 -0.33114386526282813 0.7714302603863556 -0.6336662534207961 0.08426336674129967 0.587723747808478 -0.327008013481977 -0.11132504557877076
0.04159408903959851 1.0781435977961575 -1.0169997291612287 -0.3474756607051066 -0.32116747414765123 -1.2419972488398257 0.6308041891972607 0.5292803213960297
-0.7122547584234296 -0.4434374162264902 -0.04665594337180759 0.16064990161188059 0.04407200799064699 0.7638317026356485 -0.3025499702818649 -0.2751731856837739
0.07141379152602874 0.8986842361615583 -0.8267602477136328 -0.39661827182349424 0.2211095401588722 1.20406482197451 0.2081925906457057 0.014358120222942843
0.8541224140506833 -0.14640716195698064 0.08127480114777529 -0.4334014680922068 -0.17200728624279593 -0.1535118319959726 0.40691192393425646 0.13614432615423777
0.771933238876007 0.20351525623935443 -0.30141079765687623 -1.2089922762841812 1.0630502172081833 1.2617548753178098 -0.47769293528071616 -0.34208729759839623
-0.8832582328347431 0.3289449614013396 -0.23884418276769206 -0.2261145576600938 -0.8023256004923986 0.6148218195739611 0.19430602210481712 -0.6845294199123951
-0.030374678535533113 0.5503733241642546 -0.05703856889300979 -0.6026014823721135 0.09111150680191778 -0.16427169121962387 -0.00195694627950415 0.5137627930359688
-0.2776110284713494 0.37927703234183935 0.03149804371300563 -6.890052872248948e-05 0.19339852550166747 -0.20308249137264447 -0.33934501954557456 0.12152216757869312
-0.6105620277135453 0.12173985312357952 -0.22674084915493037 0.6633368088039552 0.22298970937366533 1.4310112032960698 -0.32170921697758037 -0.5606028754685044
0.13441025439725487 0.12316817084952703 -1.0232242033254775 -0.09490761272844773 -0.273568015990194 -0.5455785653404726 0.287707671828106 -0.689616167546853
-0.008430917638548188 -0.2712183041353577 1.0002438622237697 0.3567870520514235 0.5451620787905793 -1.348333566572193 1.7875300605678488 0.3713921598002601
-0.2998332466464715 0.569313675456552 -0.3385388349037001 -0.33206595509391923 0.5643237951465199 1.7285342387296627 -0.13094826810640658 0.21754687928136887
-0.12128902878790007 -0.162550547681679 0.04686271075246104 0.4338805370990625 -0.18125252050272342 -0.1466671224845265 0.6180145397753988 -0.04003666321170581
0.5019624854836915 0.8391069708933081 -0.3086635161147495 -0.4086031054443945 -0.2777397565625808 1.1364768646277534 -0.4994177914239418 0.18286138272436847
00000000: 7157 188c e286 8b3f 984b df3a d30f bdbf
00000010: 98bc 6679 4b2d d9bf f9a0 afe7 5103 c33f
00000020: 8c52 5259 25c3 f2bf cbf8 caa2 89aa cbbf
00000030: bc01 8126 50c4 d73f a0c4 8c8b c39a b7bf
00000040: d4fb 7f2a 025c a5bf c62a 6e3e a0c0 d53f
00000050: c0d1 dd5c 278c e0bf cabd cc57 3a0a 97bf
00000060: 0b01 63c3 76c8 563f 9bff 0dff dfb1 cb3f
00000070: 7b46 d34a 4ea5 ddbf eb4e 6946 2f73 c53f
00000080: fef0 d70c b32b cebf 1144 c782 1bbd c0bf
00000090: 5025 62d3 d308 d83f 6fc4 e882 7744 c0bf
000000a0: d326 5b89 22dc e53f e02a 3a7b 7ce4 e33f
000000b0: 22bc 427f 646b cb3f 1283 28ee eb07 e8bf
000000c0: 43bc a95d a27f dfbf caca e409 7631 d5bf
000000d0: 1822 7083 8eaf e83f 67ad 6073 fe46 e4bf
000000e0: ca9c 67b4 4892 b53f 5a70 7d08 a2ce e23f
000000f0: 57d7 db04 b3ed d4bf 388d fc55 cc7f bcbf
00000100: e393 4308 d24b a53f 05d2 4e80 1340 f13f
00000110: 059d 0c82 a145 f0bf 6c9a b88d 0a3d d6bf
00000120: 9632 8005 028e d4bf 0cd3 d781 38df f3bf
00000130: 6606 5944 8c2f e43f 7ffe d948 ddef e03f
00000140: 182b bb7d caca e6bf 33fe 2054 4761 dcbf
00000150: 7452 e4ad 49e3 a7bf a2aa c30c 2d90 c43f
00000160: 6a4e fa31 9b90 a63f bcfa ce2e 4f71 e83f
00000170: 660c f18c fa5c d3bf 52de 4ffe 6f9c d1bf
00000180: 9570 169b 2c48 b23f 0ad4 7771 05c2 ec3f
00000190: 5f03 32e8 d174 eabf ab96 9e9a 3162 d9bf
000001a0: 3471 e841 514d cc3f 3650 8a79 d943 f33f
000001b0: 93e1 0b08 0ea6 ca3f 160d 5146 ca67 8d3f
000001c0: ac1a 6487 f854 eb3f 2fb1 404a 78bd c2bf
000001d0: 3f29 ebe4 6cce b43f 82a4 df82 d9bc dbbf
000001e0: 1013 8bb2 5504 c6bf 4362 fc94 46a6 c3bf
000001f0: c49a 694f d80a da3f 0428 2f62 2d6d c13f
00000200: aa5e f555 adb3 e83f bd7d e4b4 c90c ca3f
00000210: 5f3e a683 504a d3bf 4e1d fc48 0858 f3bf
00000220: 33a3 cef1 4002 f13f d3ef 50e1 2530 f43f
00000230: 1fe6 a363 8592 debf f5f9 e31e c2e4 d5bf
00000240: d055 fec4 a643 ecbf 6dc6 d92a 6f0d d53f
00000250: e5dd e938 7292 cebf 9859 2663 52f1 ccbf
00000260: 2078 dbbc a6ac e9bf fbfe fdce 9eac e33f
00000270: ce92 2d0d 05df c83f 098e f53d aae7 e5bf
00000280: 621b bf2b 8a1a 9fbf 7c0a 7c84 a89c e13f
00000290: 2822 03c8 2834 adbf 2ee6 69e7 8248 e3bf
000002a0: 95e6 006e 1553 b73f da33 b9d2 da06 c5bf
000002b0: f0ed a788 0308 60bf 1db7 3fab be70 e03f
000002c0: 95c6 120c 61c4 d1bf 7d0e 822c 1346 d83f
000002d0: f84a 45f7 8220 a03f f60e f611 d60f 12bf
000002e0: 88e8 0f6b 48c1 c83f 8df8 6a69 9bfe c9bf
000002f0: ed8e 402c d4b7 d5bf 1551 7da7 131c bf3f
00000300: 22b1 a660 b989 e3bf 3a1e c9cf 572a bf3f
00000310: 32d3 e419 d805 cdbf c578 811d 0e3a e53f
00000320: 335e 8d42 ed8a cc3f 11dc e500 6ce5 f63f
00000330: f463 6f41 e296 d4bf 02c9 0571 75f0 e1bf
00000340: 550e 71ef 5a34 c13f b8f4 b401 f387 bf3f
00000350: 2523 9c57 205f f0bf c963 cf84 dd4b b8bf
00000360: 0e35 7a6c 2382 d1bf 5426 f12d 6175 e1bf
00000370: 4dd7 5370 cd69 d23f c902 cdec 5511 e6bf
00000380: 7b3e 439c 3a44 81bf dba0 9504 a45b d1bf
00000390: c369 44b5 ff00 f03f 839d 0c5c 99d5 d63f
000003a0: e498 6dbe f771 e13f fc6c c837 c692 f5bf
000003b0: cc17 ec1e b999 fc3f 9c4e 159f e3c4 d73f
000003c0: fc67 26c9 7730 d3bf de0b 2850 d137 e23f
000003d0: e796 15ca 9eaa d5bf aa93 4f90 9140 d5bf
000003e0: f648 90c6 f00e e23f 35c3 9584 13a8 fb3f
000003f0: c40f 7eb0 e9c2 c0bf 991f ee7d 93d8 cb3f
00000400: 42f4 013c cc0c bfbf 7dae 1ed3 74ce c4bf
00000410: 5cde 2aa4 63fe a73f 6287 4ddf b2c4 db3f
00000420: e339 f057 4833 c7bf 8417 3cff fcc5 c2bf
00000430: e535 996d c6c6 e33f 8b3e 457e af7f a4bf
00000440: 2215 5fa1 1310 e03f e0a2 badc f6d9 ea3f
00000450: 1499 cb9e 24c1 d3bf aa5f bba3 8d26 dabf
00000460: ed0e cff8 7cc6 d1bf 04ca 635d 022f f23f
00000470: 5235 4d0a 76f6 dfbf fc51 4075 0068 c73f

lstm.bias_ih_l1 f8 [24]
0.06654490457407207 0.05186931728738309 0.5300959228778888 0.43219093905962574 0.15200806906975625 -0.07795128718671071 -0.3724403268704356 -0.1690571213854445
-0.07410770578599296 0.44843762869162856 0.15673628236094683 -0.9390881326296473 0.3313679442033563 0.24743963483335943 -0.055130926193855435 -0.055476900473540244
0.24358840929745496 0.08204869487071664 0.5220059060505124 1.060371182938889 0.12246457191442306 0.6181511854827765 -0.1061829486190816 0.25050470277174924
00000000: c36f dc3c 1609 b13f 908f d47a 9d8e aa3f
00000010: 6e1c 90b9 8bf6 e03f 2ddf 382f 04a9 db3f
00000020: b7fc b01a 0075 c33f 0ee5 2595 9df4 b3bf
00000030: 3eaf e7f3 0fd6 d7bf 44d1 c0eb a9a3 c5bf
00000040: 8480 bbfc b8f8 b2bf 7daf 61bd 33b3 dc3f
00000050: 281f 6b3b ef0f c43f ed97 368e 020d eebf
00000060: 6bf4 d2e4 2135 d53f 89f6 ab19 1aac cf3f
00000070: b568 00ea 1e3a acbf 3e42 6fe2 7767 acbf
00000080: 7001 cfad e72d cf3f b032 26ad 2401 b53f
00000090: 1cc9 d9ba 45b4 e03f 697e 05c6 47f7 f03f
000000a0: b084 4a93 d659 bf3f 9d3a b4fe e4c7 e33f
000000b0: c738 b643 ce2e bbbf fb86 79e0 4408 d03f

lstm.bias_hh_l1 f8 [24]
-0.15581798969402635 0.7718038368915764 0.05253570269073476 0.7387692601803842 -0.15362727853951735 -0.07412377538704087 -0.5795229294459877 -0.4575525936713866
0.1981720740574723 -0.1454294028594929 0.18243884889767403 -0.7405481719129967 -0.1951796728863423 -0.3588197361726568 0.2100458328783478 -0.7420600902884589
-0.10334917726342356 0.03929830243741423 0.2211670759401737 0.31740081688051236 0.22364234883733278 0.7901547853233064 0.45648623094978064 -0.11245638197625715
00000000: a7a1 ee08 d8f1 c3bf 6d0d ccf5 9db2 e83f
00000010: 07b1 dba9 f5e5 aa3f c779 786e ffa3 e73f
00000020: 0ee4 8c04 0faa c3bf 3ab5 2497 c6f9 b2bf
00000030: 9115 a8ab 738b e2bf 7330 81ac 8a48 ddbf
00000040: b556 87d8 b35d c93f 3044 9440 6e9d c2bf
00000050: d887 c4fc 275a c73f 3453 6f14 92b2 e7bf
00000060: 5406 f2c3 a5fb c8bf 9356 010e e7f6 d6bf
00000070: a5d1 6f27 c8e2 ca3f 6895 6ecd f4be e7bf
00000080: 9b37 6a78 1775 babf f996 8337 e81e a43f
00000090: 24b8 0ee7 334f cc3f 5a6e 0e84 4b50 d43f
000000a0: 53e4 20ff 4fa0 cc3f 62ba 37b0 f248 e93f
000000b0: 293b 4006 1237 dd3f 9e83 d002 f1c9 bcbf

lstm.weight_ih_l2 f8 [24, 6]
-0.0824886198649364 -0.16001777320943353 -0.2387118024014965 -0.24003285579846745 -0.14392852359075683 1.3283625257250948 0.006557185112277054 0.44463289392803945
0.3099259836376271 -0.4806945662250408 -0.41462789070156225 0.6143472718556372 0.13652770751034515 -0.9551657519709883 1.3326121654472294 0.4849679061090298
-0.10049944140383311 1.9266949333880277 1.8380630769002058 -2.7559819806744494 0.9098682892788039 0.5068371206203031 0.8723369596220157 -0.46134388571791013
-0.6696140177998112 -1.4498409381988806 0.9688339465773725 0.02712495523768007 0.05933591742834165 -0.1972079697338523 0.6060846974759202 -1.1365256787330695
0.087464611506547 0.13622521619769823 -0.28880593227677276 -0.2767434051723499 0.36989913896167265 -0.06314275992401863 1.1312937176364046 0.41729027395547763
-0.06851731860814018 -0.4523471956512412 0.4955103840465979 -0.7159804218884444 0.8030863050980563 0.47405849941021033 -0.208801880671648 -0.11493723912776799
1.2098142780819738 -2.4150786171074374 1.1450635672816203 0.08287260525851589 -0.4807992250046759 -1.1800464881456947 0.3920778684329709 -0.9246851727393619
0.7779597641585414 0.8190489726495662 0.4056592626551752 -0.5816363906730576 1.379823429916483 -0.21364234181768893 1.1373245437506492 -0.5128790691145536
1.019029341176129 -0.18001721304288526 -0.11487437499356151 -0.43901513608656945 -0.11832871140507595 -0.28789189120178094 -0.7708067598729273 0.3748821823304092
1.1929117911902756 -0.5903110583921963 0.4159402988609586 -0.8387369381178701 1.0360568785218134 -0.5525096239272275 -0.17833458071467548 -0.8859754694959765
-0.14133902696676884 0.823022379799314 -0.5788382346277023 -0.9950068768752033 -1.0420772163018244 1.2651744026470342 -0.17770525653599298 0.5186201272061978
-0.6578648762315015 0.057279248115090685 -0.004777902562703378 1.665289784626985 -0.05972685815215422 -0.11284255417401312 0.20732550156673168 1.029885732275483
0.4253891316361028 0.29547397059860714 0.24010780440842774 -0.7005846996425933 0.4796305644071911 0.12177430851243308 -0.5536559719398716 0.6977268221149455
-0.04130932871588817 0.2033143982261393 -0.2707866287319671 1.2110918140758018 -0.15298995664525258 -0.48842082397341124 0.6488708609388163 -0.17676064528523852
-0.34162668633381726 0.6901032899695181 -0.43743269374066857 -0.1080982076538057 0.4141008006722955 -0.48634701359319316 -0.34864422878899065 0.8879958454456708
0.38256167265458907 -1.1844984815805988 0.8829076290414167 0.48188518305018374 0.3258704438030847 2.2438459578146475 2.3515562728162047 -2.8454475424864327
0.5917916171106111 0.47545082795377214 0.2967492408893102 -1.398839218141119 -0.6989037090322211 -0.5565432157043348 0.3644849632959791 0.4423289373167252
0.004974007885579465 -0.4776854153057595 0.9996867956034039 -0.9349808968911066 0.936902612019675 0.36556310192673885 -0.028004525108101648 -0.033386761546894364
00000000: 21b1 9c64 f91d b5bf 2b4c 5b5f 767b c4bf
00000010: f9e7 3dbc 1b8e cebf f058 cf88 65b9 cebf
00000020: b155 e4f6 3f6c c2bf 348a 5310 f940 f53f
00000030: 4eda c6f9 b4db 7a3f 9f64 8986 dd74 dc3f
00000040: 0fdf f9ca d3d5 d33f 104b 5324 b3c3 debf
00000050: aaa6 a46b 4389 dabf 9137 209c bba8 e33f
00000060: d49c 606b bd79 c13f 4530 5fc4 b790 eebf
00000070: bc8f 4d22 6152 f53f b143 16d4 b609 df3f
00000080: dd81 18d6 54ba b9bf e053 0411 bed3 fe3f
00000090: 2258 34d4 b468 fd3f 82e5 da47 400c 06c0
000000a0: 78d6 431a a41d ed3f f8d0 2e7b 0238 e03f
000000b0: 6b65 1533 2fea eb3f 138d 5781 a886 ddbf
000000c0: 5596 6c60 7a6d e5bf 5975 5f69 8c32 f7bf
000000d0: dcbd 790c b000 ef3f 56ee 9aee a4c6 9b3f
000000e0: bf6f aa01 4761 ae3f ea3b 425a 1c3e c9bf
000000f0: f47b 48bc 0b65 e33f 5490 d38c 352f f2bf
00000100: e45b faad 1464 b63f 98d5 3af0 d36f c13f
00000110: fa3f 81e0 cb7b d2bf b554 a6f8 29b6 d1bf
00000120: 212c 2a70 6dac d73f b053 dab8 1f2a b0bf
00000130: a7b2 f670 c719 f23f 55f8 e443 e2b4 da3f
00000140: dbae a1da 598a b1bf eb99 f0a6 41f3 dcbf
00000150: 17bf 932f 71b6 df3f f1c9 12c6 4fe9 e6bf
00000160: 465f 080d e2b2 e93f 5fe4 d675 f956 de3f
00000170: a6fc 6920 05ba cabf 9873 25e3 866c bdbf
00000180: eb88 6937 665b f33f 7af6 edbc 1452 03c0
00000190: ec0c d52c 2e52 f23f 26d4 5199 2337 b53f
000001a0: 2795 d51c 6ac5 debf cd86 256d 78e1 f2bf
000001b0: 88eb 99c5 cd17 d93f 9a5f 005c 0597 edbf
000001c0: 1c46 15e0 0be5 e83f ec45 eb30 a635 ea3f
000001d0: d519 9b44 52f6 d93f 1d56 83eb c39c e2bf
000001e0: f9ee 9bbb c113 f63f 00ec 92db a158 cbbf
000001f0: f78d 8538 7b32 f23f 3dcc 945d 8169 e0bf
00000200: 2141 e0b5 f14d f03f aa3d 5ed5 cd0a c7bf
00000210: e4eb be33 6868 bdbf 2736 fcf0 d218 dcbf
00000220: b0a1 a959 ca4a bebf 00b2 5f1c d26c d2bf
00000230: 0e14 26f0 72aa e8bf f594 3dd6 11fe d73f
00000240: dccc a2ac 2a16 f33f 455f 4804 d4e3 e2bf
00000250: e88f 2c0f c49e da3f cd3a e5d8 eed6 eabf
00000260: a6c0 a060 b093 f03f 35c4 afa9 28ae e1bf
00000270: f12b f5e3 aad3 c6bf 1064 513a e959 ecbf
00000280: 0541 3cb1 6517 c2bf 13a7 a307 3356 ea3f
00000290: b8cf ecc2 d785 e2bf cd2b 6fa9 18d7 efbf
000002a0: d4c4 be28 59ac f0bf 81af b183 273e f43f
000002b0: e31e 93bc 0bbf c6bf 3fbc ac3c 8998 e03f
000002c0: 8f3e 13a4 3a0d e5bf 139e c9a2 b453 ad3f
000002d0: 792b 0174 fe91 73bf 5f5f b5e6 06a5 fa3f
000002e0: 87a4 e9cc 8494 aebf 4845 c6e7 3fe3 bcbf
000002f0: 708e 6d5c a489 ca3f e8d7 2b76 697a f03f
00000300: 8edb 1c56 9339 db3f 0094 22a8 0be9 d23f
00000310: 796a b93f dabb ce3f 9c5f a19a 306b e6bf
00000320: 3a9e 1265 44b2 de3f 57cd 8de0 992c bf3f
00000330: 5ff0 96ba 8cb7 e1bf 8ad2 5033 c753 e63f
00000340: e97a b50f 7f26 a5bf cdf5 97c9 3406 ca3f
00000350: e043 a670 9154 d1bf c78a 5ecf a160 f33f
00000360: 5f33 34c6 2c95 c3bf d6ac 696a 4942 dfbf
00000370: 14e8 e1d2 8cc3 e43f 8527 5cc3 17a0 c6bf
00000380: 73a7 4f2d 36dd d5bf a6fe a87e 5315 e63f
00000390: 8d4f 74b2 e5fe dbbf 9e1a a1fa 52ac bbbf
000003a0: 98a2 08a5 a080 da3f 49f6 7839 4f20 dfbf
000003b0: 719f 25e2 2f50 d6bf 6f89 6543 766a ec3f
000003c0: 044a 30f4 e37b d83f 27ce 08ae b4f3 f2bf
000003d0: a9e5 0380 c740 ec3f 2b29 68f3 34d7 de3f
000003e0: 1a81 b7b4 0fdb d43f 0c9b 7082 65f3 0140
000003f0: 1298 33bc fccf 0240 d0b3 4b00 7ac3 06c0
00000400: 572f 31f9 f4ef e23f 88b9 3a4f c96d de3f
00000410: dcdf 2e87 f0fd d23f fb73 643b a561 f6bf
00000420: 7116 ab4f 6b5d e6bf 6858 c8b7 33cf e1bf
00000430: 025c 4fbd b853 d73f 9c62 f607 1e4f dc3f
00000440: 9681 2d13 a05f 743f 2cec 20d9 6592 debf
00000450: 4e82 ab29 6ffd ef3f 9006 d10e 5deb edbf
00000460: d92a c52f 1bfb ed3f ff93 d9c7 6265 d73f
00000470: 92cf eadd 37ad 9cbf a230 edd1 1118 a1bf

lstm.weight_hh_l2 f8 [24, 6]
-0.5622411639852609 0.8666967866544996 0.09245588998001743 -0.12704153633467882 -1.0380225650807535 0.6510097245092837 -0.16780218287953802 0.4695883532315794
-0.24075792266231835 -0.08121255918957432 0.018370686585930506 0.2824099784371916 -0.21394015868638458 1.3421196530168826 -1.2987188463207118 -1.335236601634243
-0.3775760363954782 0.7263950322928318 -1.2978975961795136 1.1046202096614912 0.0028280674674405785 0.3584867601113931 0.2516904156093797 1.7457788534272014
0.5800780885864054 -0.05346900056309384 -0.7149812111258527 -0.018568068333182374 0.05531194989456745 0.8345548620727039 -0.563702582241491 -0.4386146386105385
0.7692719857864203 0.8210067483960004 -0.36924229520790336 -0.14831361560211156 -0.5441393544929282 0.24776070797742908 -0.01801424040538147 -0.0779675318831795
-0.5814165570507197 1.0655564040569163 -0.22364030915184424 1.0882550017780273 -0.27154982149567275 -1.2785084274795178 -0.029459853210566947 0.3583027697094488
0.22907418726527157 1.7749131522973356 -1.6055333999970653 -1.5829899743096196 -1.2746254287133452 0.6076542042734747 -0.1729805344857876 1.4595777931112475
-0.9681642081782293 -0.3596595470663571 0.0013840310253333229 0.9710513630094394 0.26041074336172704 -0.5792390793871552 -0.3946574063423948 0.3139549706143781
0.06930545914947428 0.3560621078031256 -0.09991010889510608 0.33180032025771233 0.9176555982258625 0.8894446646567553 -0.5231654978335789 0.2976249788599987
-0.8218121659620976 0.840699728030011 0.6647333305411715 0.341180935597061 -1.0409516481277188 0.08185048231610097 0.4567876148019505 0.08452370107748264
0.5173583556650379 0.5525237179727088 0.6235213031936918 0.5974646693257627 0.29742859399302785 0.2642538829093213 -0.18044077694985952 0.18697840352025416
0.9879435757793203 -0.12386974144298588 -0.4459209240638635 0.7563918261776525 0.07352965212495814 -0.12053661966523906 -0.05639846904940339 -0.6968333787026343
-0.20817855055677714 0.6456642563762758 0.12068447235479295 -0.006664157356244233 -1.42791105377931 -0.3906310220319323 -0.08128910219184161 -0.29228868837918853
-0.2181573325519707 -1.2927740025646095 0.20642301499938312 0.750681431947067 -0.7085915034283586 0.21197928418819312 -6.598554558540385e-05 0.5128489762014893
-0.4442814555930316 0.8274571915190555 0.5204870758380579 0.1245677675999857 -0.9792422961861222 -0.4176799101282225 -0.39530815556676574 0.11252640505907407
-0.5177711604897096 1.1179378445084815 -1.18866156217643 -1.7122127371750127 -0.6557517410285876 0.8278958997826562 -0.41338777573103264 0.9900265109277754
-0.3978759742021339 -0.6344506127762808 0.18717438692702654 1.1588696861824195 0.2976021179732311 -0.08216570533630752 -0.9895616084278113 -0.1573321191564118
0.09890547771791271 0.41922653417152556 -0.42311535039112697 -0.10104756133231586 0.4429204319810869 -0.6441518064915439 -0.7876440119785976 0.8878548955229981
00000000: 6e03 792e e1fd e1bf f556 47e6 fabb eb3f
00000010: 6168 c96f 30ab b73f d740 e5a5 e542 c0bf
00000020: 8882 988c bd9b f0bf a7a6 8458 12d5 e43f
00000030: 9a1f d5bb 8a7a c5bf 8793 ed4e bc0d de3f
00000040: fd34 0bd6 27d1 cebf 3462 bea5 58ca b4bf
00000050: 33d6 5de8 c3cf 923f 58ea 5c4d 0113 d23f
00000060: 13f6 6d20 6462 cbbf 0c6c 1075 5279 f53f
00000070: 4657 ba69 8dc7 f4bf 600f 070e 215d f5bf
00000080: c299 04ae 342a d8bf 2196 75cb a03e e73f
00000090: 505e 1245 30c4 f4bf c3f2 af3d 86ac f13f
000000a0: 06c0 1229 e32a 673f 398e ae73 72f1 d63f
000000b0: 5f92 f01d b21b d03f 944a 98ce b5ee fb3f
000000c0: 8a5a 73ec ff8f e23f c85d 89f1 4960 abbf
000000d0: c047 e146 20e1 e6bf 83b1 f6f8 8103 93bf
000000e0: b014 c00f d951 ac3f e23d ea65 acb4 ea3f
000000f0: 0abc 6cff d909 e2bf 8843 1822 4312 dcbf
00000100: 18d0 9548 e09d e83f f4fe c4f1 af45 ea3f
00000110: 71f2 8d6f aaa1 d7bf c502 48c8 f0fb c2bf
00000120: 0b70 80ef 9669 e1bf 3f99 ff74 9fb6 cf3f
00000130: a113 9d35 5372 92bf 478d 961f aef5 b3bf
00000140: 2458 3ce5 f69a e2bf 2e7c 37df 840c f13f
00000150: a2ef efe2 3ea0 ccbf 5285 a513 7e69 f13f
00000160: 52bf a380 1261 d1bf 6bf5 ba40 c574 f4bf
00000170: b45e 5648 b92a 9ebf a9f8 7dbd 6eee d63f
00000180: 62c0 548f 4d52 cd3f 99b7 6555 0b66 fc3f
00000190: 25f8 59ca 43b0 f9bf 22e4 984b ed53 f9bf
000001a0: ac94 2fa2 dd64 f4bf 1035 d43a e771 e33f
000001b0: f203 3be5 3924 c6bf 3117 763e 6e5a f73f
000001c0: 3a10 6981 33fb eebf fd06 167a a904 d7bf
000001d0: 6fa1 63ff 0bad 563f 9793 db4e da12 ef3f
000001e0: af00 91d2 91aa d03f 2b0e d164 2089 e2bf
000001f0: 5f58 5723 1142 d9bf 3125 cd96 d617 d43f
00000200: 9833 7ba8 00be b13f f7fd 16b9 b8c9 d63f
00000210: 1789 3e7a b593 b9bf f2c9 1369 373c d53f
00000220: 78e2 eb45 6f5d ed3f aead 49a8 5476 ec3f
00000230: ace7 f291 c5bd e0bf e849 aba3 490c d33f
00000240: 6663 0807 494c eabf c6a3 b41d 03e7 ea3f
00000250: 2189 67d5 7e45 e53f a41d 1a90 e8d5 d53f
00000260: 4ad0 56ea bca7 f0bf 7ba0 b538 27f4 b43f
00000270: c8b3 b21e 023c dd3f e05a dd63 58a3 b53f
00000280: fa98 3c1c 338e e03f a9a0 5e38 46ae e13f
00000290: 4970 b2f2 e2f3 e33f 9ba0 e839 6e1e e33f
000002a0: ab19 06f1 1109 d33f 68f0 3b1e 89e9 d03f
000002b0: 31a7 eef1 ae18 c7bf 97c1 1688 e8ee c73f
000002c0: cd7e 88d8 3b9d ef3f 6e2b 7668 edb5 bfbf
000002d0: 8c35 5dea f789 dcbf aaa1 8ca1 5c34 e83f
000002e0: 3bb7 29db d6d2 b23f 5dbe 6ee7 7cdb bebf
000002f0: f22a 3998 42e0 acbf 773f 8983 754c e6bf
00000300: 7c5d 2f41 98a5 cabf e8a1 2a16 48a9 e43f
00000310: 271b e675 2de5 be3f e14f 681e e04b 7bbf
00000320: b943 d942 b9d8 f6bf 7988 1b42 1900 d9bf
00000330: c166 6fd3 5ccf b4bf 1214 659d dbb4 d2bf
00000340: 65be 5858 94ec cbbf f024 e2ca 33af f4bf
00000350: 6133 48c1 116c ca3f d3aa fd10 9505 e83f
00000360: 3f58 ae16 c8ac e6bf 9846 821e 2322 cb3f
00000370: e090 8b0a 374c 11bf bf51 9241 4269 e03f
00000380: 3b72 7f7c 1b6f dcbf 5f42 0d81 877a ea3f
00000390: 59e2 1683 d4a7 e03f 6248 fa57 ace3 bf3f
000003a0: c256 9ff0 f355 efbf 949a 8c84 44bb dabf
000003b0: f115 0094 ba4c d9bf b848 aacd 87ce bc3f
000003c0: 4bb0 23d3 9491 e0bf 9dfe 11cb 12e3 f13f
000003d0: eaf5 78fc c104 f3bf 9461 df2e 3965 fbbf
000003e0: 3a69 4013 ebfb e4bf 58e3 c18a 1f7e ea3f
000003f0: 932e 5500 f274 dabf f372 d313 4cae ef3f
00000400: cdfc 43ca cc76 d9bf 22a4 195f 6b4d e4bf
00000410: 0e0e 408f 54f5 c73f 1cab a7f0 ba8a f23f
00000420: 4895 fac0 e90b d33f c8af 45c9 cf08 b5bf
00000430: 2f63 321b 7daa efbf 958e 3179 7523 c4bf
00000440: c995 3190 de51 b93f cc74 7887 9bd4 da3f
00000450: e163 1768 5214 dbbf 314a 43c3 40de b9bf
00000460: 88b1 85f0 ce58 dc3f ca4b d13f e49c e4bf
00000470: 6dd3 0a37 6134 e9bf 3aac 7bab 4e69 ec3f

lstm.bias_ih_l2 f8 [24]
0.29681584846972797 -0.32334906960541165 -0.9000234571436836 -0.6352581270926114 -0.40365749051797883 0.31188507801526305 -0.5150600350202619 -0.8064321071424008
-0.7683652394256125 -0.3952133057947741 -0.3620346260463653 0.3740536713997159 0.041823551955228876 0.017996788608504857 -0.07658001282568348 0.2233024615377743
0.022602235991380393 -0.31365892896994874 0.013963085979035214 0.3755395172984615 -0.8628212465898563 -0.7562592917850262 -0.6358137767169644 0.02215201619034731
00000000: 922a 87e6 07ff d23f e26c c94b c0b1 d4bf
00000010: 4e14 42fe fdcc ecbf f830 0cda 0854 e4bf
00000020: 7cd9 233a 86d5 d9bf d3e6 8bd4 ecf5 d33f
00000030: bc6f bc2e 5f7b e0bf 10df d3b4 4ace e9bf
00000040: 3deb d6b2 7296 e8bf 5a49 d5bf 2c4b d9bf
00000050: efe0 b847 932b d7bf 9a12 67cf 7ef0 d73f
00000060: eb55 b387 e569 a53f 04b6 060a c06d 923f
00000070: ff12 9d6a bf9a b3bf 97e4 b5d0 2c95 cc3f
00000080: 300a 9961 0a25 973f 688e 81e6 fc12 d4bf
00000090: 98ae 0cad ad98 8c3f ddc2 49e6 d608 d83f
000000a0: 5fb7 8c4d 3b9c ebbf ee68 b0af 4633 e8bf
000000b0: 390f 2b22 9658 e4bf 56e0 4fa4 04af 963f

lstm.bias_hh_l2 f8 [24]
-0.3881393661052842 -0.032836165395242166 -0.2127226809147439 -0.5768755421843406 -0.5148530133609945 0.4230425763576013 -0.42220701912863884 -0.8637828259869835
-0.6370967494533272 -0.7247669640023637 -0.22450171816462935 -0.27477996496933 0.27902396563197596 0.13579031127624375 -0.2524559715667563 -0.2565083497392876
-0.31099955218491404 -0.557851483225764 -0.18870742376291288 0.22548046451987042 -0.17576871381513423 -0.764790510381981 -0.3443061485165634 -0.1611411807513741
00000000: 6a97 ed7e 46d7 d8bf 134a ffe0 e6cf a0bf
00000010: ecb8 d22e 7f3a cbbf 8a68 71b2 c375 e2bf
00000020: a03d d406 ad79 e0bf ef5f 912b 2113 db3f
00000030: 4725 d396 7005 dbbf dabc 8ee1 1ba4 ebbf
00000040: 3d47 e9b8 1863 e4bf 4690 f37c 4a31 e7bf
00000050: a7d9 b4e8 78bc ccbf 42ea c8b4 fe95 d1bf
00000060: d421 cc55 87db d13f b8c6 05b1 9361 c13f
00000070: b1c8 6317 3d28 d0bf b2fe 51ff a16a d0bf
00000080: 481c 6daa 6ae7 d3bf 1b5a 8f5a ebd9 e1bf
00000090: e67c c99a 9027 c8bf 36f7 7f3a 8bdc cc3f
000000a0: 6f7c bfd6 967f c6bf 5a37 ccf2 2979 e8bf
000000b0: d62e eca7 1c09 d6bf 51d8 ae32 46a0 c4bf

linear.weight f8 [2, 6]
0.10311992606222033 -0.5064333987317925 0.04177966949555905 0.3823980974442126 0.1584266773453963 0.15474278541056782 0.4860733082367497 -0.06578911127091527
-0.2713631709288631 -0.10186486794034429 0.2434852259223477 -0.3050941065875855
00000000: 09d0 0046 1166 ba3f 35f7 a4d0 b334 e0bf
00000010: c702 3e14 2564 a53f 3ad5 a4de 3579 d83f
00000020: 0597 014b 5347 c43f cfae 5091 9cce c33f
00000030: a976 9538 d31b df3f a26b 5721 8ed7 b0bf
00000040: e09c 1ea2 035e d1bf 7546 6ae4 d013 babf
00000050: d1a4 321d 862a cf3f c2be 7f6e a986 d3bf

linear.bias f8 [2]
-0.031295633413713775 -0.07285684846235502
00000000: a0fc 0934 fb05 a0bf 2c79 6f15 bfa6 b2bf
