trained_NNs/lstm_derivative_with_input4.pth (torch, 4000 bytes, 6 tensors)

lstm.weight_ih_l0 f8 [20, 3]
000000 1f a1 b5 e9 a8 12 e2 bf 58 e9 a0 b0 28 5c e9 bf
       -0.5647778095854256 -0.7924998712326596
000010 f4 03 f3 db 16 1a b4 bf 0b 25 6c 79 b5 85 e6 bf
       -0.07852309102874228 -0.7038218852550541
000020 62 68 48 57 46 95 d4 3f 4f 59 da a9 9a c0 d3 bf
       0.32161100887026894 -0.3086306246490453
000030 f1 bb 1b 7f f0 c5 b6 bf d4 e5 8c f1 c5 f2 da 3f
       -0.0889578161547744 0.4210677012339066
000040 a7 9a 79 00 5d 71 d6 bf 05 09 5c 4c e7 dc dd bf
       -0.3506691460264996 -0.46660788018211036
000050 fa 1d 3f 4d 88 32 aa 3f 29 6a d1 d8 d3 79 f3 3f
       0.05116678183508934 1.217243048615851
000060 45 04 37 e3 20 b1 bb bf 0f ea a6 6d d8 8c c6 bf
       -0.1081715159152888 -0.1761732612047386
000070 25 c7 f1 23 f1 56 df 3f 88 86 62 89 ce 1d e8 bf
       0.4896815157909365 -0.7536385234163427
000080 23 57 74 60 66 02 ca 3f 85 b6 b4 e8 41 f4 bc 3f
       0.20319823941888968 0.11310207301422721
000090 0b e3 6f 84 d4 7f da bf 13 10 90 33 8d db b8 bf
       -0.4140521329241415 -0.097100091064988
0000a0 5a 1b e6 0c da d2 d8 bf fd e3 02 dd 3a 4a c9 bf
       -0.38786937007573885 -0.19757781783644637
0000b0 b7 43 92 67 c0 e7 a3 bf 85 8e 5d e9 8e b4 d5 bf
       -0.038877499239908735 -0.33914540090174966
0000c0 9a 03 8d af f2 30 fc bf 74 64 56 36 e4 41 b0 bf
       -1.7619501931623973 -0.06350542379949947
0000d0 a1 3a d7 5c 80 f4 d6 3f e8 5b 35 85 57 80 d2 bf
       0.3586731821678005 -0.2890833664764032
0000e0 76 85 55 04 af 22 e0 3f 02 7b 0c 50 74 b7 a1 3f
       0.5042338452005157 0.03460277058751694
0000f0 44 0e 7f 02 d5 1a d0 bf 52 5d 95 4a 55 21 ec 3f
       -0.2516376995447198 0.8790689903934583
000100 c2 86 17 bd 31 e7 c2 3f c3 ce 4d 68 f3 e1 f5 bf
       0.14768048985484056 -1.3676637720463283
000110 08 c4 92 91 2b 22 d3 3f e4 7b 39 94 38 19 d0 bf
       0.29896058288710536 -0.2515393683915461
000120 0d e8 6b 75 78 03 e5 bf d2 e1 9c 1a d8 16 cc 3f
       -0.6566736501110896 0.21944714831785334
000130 92 1d c1 d0 d3 9a ee 3f 56 9d 32 e9 e3 23 d8 3f
       0.9563998296006722 0.37719056866850076
000140 9b 9a 2b ff 5d 77 c4 bf 20 64 ef 49 f1 ce e4 bf
       -0.15989279708374657 -0.6502615398450224
000150 41 5b 3e ab 86 b3 d9 3f a9 af e4 51 87 b8 bf bf
       0.40158240054136135 -0.12390943288181568
000160 3f 85 60 67 59 47 e9 3f 0b 47 e7 f9 50 eb f0 3f
       0.7899596232493095 1.0574502717831276
000170 c3 a1 d8 e7 b1 38 ae 3f 89 42 8b 2f 8e 16 ae bf
       0.05902629809526474 -0.05876583414431475
000180 ce 29 db 93 4c 8c ee bf bb c4 f4 15 fe ba e6 3f
       -0.9546263587774833 0.7103262356596568
000190 7d ae 78 51 d1 fa aa 3f 19 fa b8 f0 b4 3a aa 3f
       0.05269483680271223 0.0512291473246373
0001a0 51 a8 14 21 eb e7 d6 bf e0 2d cd 8a ac 69 e3 bf
       -0.3579051802686353 -0.6066496573416167
0001b0 35 81 84 be 3b 56 e7 bf 70 fc dd ce 1f 68 e6 3f
       -0.729276535134011 0.7002104797719664
0001c0 df 4f 45 09 51 f1 f3 3f a2 dd b7 67 69 ef 74 3f
       1.246415172780864 0.005111133326401259
0001d0 e3 a0 fb 34 9b 1b e0 bf 53 5f a3 e5 a8 4a d4 3f
       -0.5033699068854073 0.31705686975100383

lstm.weight_hh_l0 f8 [20, 5]
000000 5f f2 81 30 d6 23 c1 3f 2c 41 c0 6e f8 fe e7 bf
       0.13390614861045244 -0.749874321280037
000010 4f 56 9b 1b 4a 6a b2 bf 02 20 7c ef d5 08 93 3f
       -0.07193434881204407 0.018588392965313012
000020 e9 e2 2a 9e b1 45 d8 bf fc 14 0a c6 65 77 e4 bf
       -0.37925377317473746 -0.639574896617574
000030 2d 4f b6 7b 7e 0a db bf 4b 98 66 b5 61 ad cc 3f
       -0.4225155075193808 0.22404118878802345
000040 38 3e c8 3c 21 2d df 3f fe 34 20 c6 0c 55 e5 3f
       0.48712950645219477 0.6666320676464748
000050 27 6f df f3 c2 04 8f bf 52 a9 76 06 65 94 d1 bf
       -0.01514580065479938 -0.2746822894211124
000060 d0 6e 9f a5 ce 80 cb 3f 44 83 79 1d 0d d4 ea 3f
       0.21486838423776655 0.8383851600338876
000070 fe 8e d8 d3 b2 79 e2 3f 69 56 a0 a7 88 1a aa 3f
       0.5773557794204576 0.05098368688792904
000080 8e d9 54 00 63 40 dc bf d7 69 1c 25 37 cf da 3f
       -0.4414298537480129 0.41889742492790333
000090 3d 02 13 47 db 7b e4 3f f7 1a 2a 40 f7 ea d6 bf
       0.6401192081612589 -0.35809117570936116
0000a0 9d ae f6 ff 76 36 d3 3f 46 41 5d 01 51 4f e4 bf
       0.3001992702145147 -0.6346821810384788
0000b0 83 16 ee a4 13 2e cf 3f e2 43 3a c6 de 82 b9 bf
       0.24359365037178202 -0.09965317096272444
0000c0 7d cf 22 e5 17 3a e7 3f 49 b3 d7 a7 32 3a d4 3f
       0.7258414721786576 0.3160521163070383
0000d0 c5 c2 4e 30 3a 23 e7 bf fe df a6 d1 37 02 a3 3f
       -0.7230502074727033 0.037126297323482035
0000e0 da 76 0c 01 81 24 d5 3f d1 fe bc 7d 74 b1 e0 bf
       0.3303530225983714 -0.5216619926286176
0000f0 1b 07 6c aa 46 72 a0 bf 65 b4 6f f5 00 2d e6 bf
       -0.032121856978859685 -0.69299362122332
000100 45 bf 8d e1 c3 f3 ca bf 4b 09 9f 93 99 c5 e1 3f
       -0.2105641223274636 0.5553710826136834
000110 bd 58 19 53 ec aa e3 3f a2 65 38 7b 71 96 cf 3f
       0.6146146414783044 0.24677866474739313
000120 90 98 7d ea 99 5f 98 3f 37 74 66 45 1e 9b bb 3f
       0.0238021897670469 0.10783566660252651
000130 c7 20 53 42 41 47 e4 3f a4 da b9 0b 99 03 b1 3f
       0.6336981101421991 0.0664611486080085
000140 8a c7 cf 91 f6 7a e7 3f 2d d7 99 40 1a 69 9f bf
       0.7337601516612591 -0.03067437190335125
000150 43 a9 87 cc ed c0 be bf 79 bf eb ab 15 23 da 3f
       -0.1201313614216462 0.4083913973727174
000160 5e de 96 92 40 64 ea bf 80 1d b5 7b 8b a2 e7 3f
       -0.8247378218720305 0.7385919014131304
000170 43 ed 04 91 63 8a c0 3f 10 51 32 cb c6 24 b7 3f
       0.129223295030764 0.09040491543629892
000180 e0 df 64 de fb bc c3 bf b1 2b 28 d6 46 c4 c0 3f
       -0.1542048297794727 0.13098988968735406
000190 d3 92 ad c6 13 db d8 bf cd 90 2e aa 60 65 e0 bf
       -0.38837141420507953 -0.5123751949181724
0001a0 55 80 67 23 df f4 c6 bf 5a ab 2b 51 58 e1 bd bf
       -0.17934788922048264 -0.1167197416468019
0001b0 f9 0b 89 ac 2b 37 b1 bf 37 6b 7b 73 f2 18 d5 bf
       -0.06724808656967686 -0.32964764859723367
0001c0 0c e3 27 e9 d8 b4 dd bf 73 85 80 6b e8 f7 c8 3f
       -0.4641630436813535 0.19506554841158738
0001d0 ec d0 89 6e f1 a9 c0 3f 18 dd 52 b7 85 d0 e2 3f
       0.13018625161533437 0.5879543858090157
0001e0 bf ac ce c7 47 0a 92 bf d1 39 27 0d 84 c2 b6 bf
       -0.01761734158541794 -0.08890557595370942
0001f0 06 6f b5 03 86 07 f5 bf e1 c6 e0 41 37 51 be 3f
       -1.314336790549477 0.11842675550795036
000200 08 41 da 27 3d 34 e1 bf ff e5 17 ee 4c ae e0 3f
       -0.5376268175478183 0.5212769174824529
000210 7d b8 b6 2d 85 ef e0 bf db 50 ac 13 bf d5 b3 bf
       -0.5292383091780405 -0.07748026113796717
000220 1f a3 24 57 98 eb d7 bf 6a 3d be b7 db 2a d0 3f
       -0.37375458250112276 0.2526158613554431
000230 c5 e5 2c 92 25 6d b6 bf 88 35 22 2f 01 e9 ef 3f
       -0.08760294741377724 0.9971929474428842
000240 40 5b 17 6e dd 52 e8 bf a7 5b cd 07 7a 52 bf 3f
       -0.7601153516978698 0.12235224428637413
000250 0a 2d 9a 90 50 aa e2 bf 08 f4 69 dc 2a dc cc 3f
       -0.5832903694403353 0.22546897661587217
000260 a0 81 bf e2 43 66 c3 bf 6b 71 c2 d3 35 64 e2 3f
       -0.15155838557894885 0.5747326980522706
000270 95 37 39 b8 ed 8c e1 3f 31 5e 15 83 99 27 b0 bf
       0.5484531972995109 -0.06310424280433648
000280 8a 12 68 2c 2e 47 d2 3f 3a da e9 2a 1b 14 e1 bf
       0.2855945047051952 -0.5337043607858682
000290 8e 46 17 21 da e2 c3 3f a1 06 4a 53 ba 2c d2 3f
       0.15536047569053263 0.2839799702997912
0002a0 84 9e 71 eb 88 b1 71 bf 07 e4 16 a5 52 b1 9e 3f
       -0.00431970104464308 0.02997330792070232
0002b0 65 38 96 9f 2c f1 e0 bf 90 48 19 46 35 b5 b7 3f
       -0.5294402234010361 0.09260876618762581
0002c0 7a 5a a8 b1 b7 7e dc 3f 79 0b 11 08 45 ff da 3f
       0.4452342257440375 0.4218304232382973
0002d0 d7 2c 84 06 25 3e d9 3f 46 5a 66 d1 be 92 e7 bf
       0.3944180072437126 -0.7366632547226082
0002e0 73 bc 2e 44 fb 65 ca bf 60 39 db 23 85 f7 ec 3f
       -0.2062372286722823 0.9052148533171867
0002f0 f7 dd f9 7f 76 1c e9 bf 07 b5 a1 d7 a6 49 ab 3f
       -0.784724473908624 0.05329629308912769
000300 4f bc 9d 3d 30 75 de bf b1 84 ea d9 34 79 ce bf
       -0.4759026147575626 -0.23807392731126734
000310 32 8e 6f bf 2a bf de 3f fa 19 42 33 80 ee c2 bf
       0.4804179067125204 -0.14790346625177603

lstm.bias_ih_l0 f8 [20]
000000 12 99 61 8d bf 7f df 3f 65 25 0c 52 73 57 d2 3f
       0.4921721344639006 0.28658755314298495
000010 d9 47 9a ac 1b e8 da bf 75 4f 6c 6b 9d dd de bf
       -0.42041675430038833 -0.4822763012937153
000020 b5 c8 a4 ca ab 16 e0 bf 55 2d e1 05 34 42 ea bf
       -0.5027674634823344 -0.8205814471088312
000030 af 12 ab dc 40 6b c6 bf c3 30 17 c8 aa 89 ed bf
       -0.1751481130105694 -0.9230550678271573
000040 1b 92 46 e6 d3 d3 e8 bf 60 40 2b 86 68 4f dd bf
       -0.7758578774997348 -0.4579716978305495
000050 57 4a b4 a2 25 d1 ab 3f 09 8b 91 7b e9 09 d1 3f
       0.05433004008422831 0.2662299830173401
000060 11 26 64 1e 42 44 d0 bf 5d fc 35 34 34 92 e0 bf
       -0.2541661545552368 -0.5178471584075727
000070 0f 43 2f ff 44 4f c9 bf 24 bd 1c d7 30 19 d9 bf
       -0.1977316137331617 -0.3921625233369517
000080 d3 92 e1 a8 de 1c e3 bf 65 e7 1b f2 76 31 b9 bf
       -0.5972741411647696 -0.0984110203825402
000090 93 37 56 a8 c1 f9 e5 bf 68 92 b9 23 9f 9c e8 bf
       -0.6867378509357301 -0.7691188524009478

lstm.bias_hh_l0 f8 [20]
000000 a8 c1 ca e1 71 ed ac bf 0f db 55 3c 0c 4a c8 bf
       -0.05649906045198644 -0.18975975938857245
000010 ca 52 f1 8c 28 1e a7 3f 7b 1a fe fd a0 9e e9 bf
       0.04515196533671924 -0.8006138764183811
000020 42 e4 3f 25 6b 75 e0 bf 4a 62 ff f5 7e 42 e5 bf
       -0.5143333175211711 -0.6643671803131579
000030 e2 08 73 ef 76 10 e5 bf 15 f8 15 94 b6 d5 c0 bf
       -0.6582598377938462 -0.13152200918915527
000040 61 20 11 b8 21 42 e7 bf 6d 1e ed 6c e2 50 e4 bf
       -0.7268227191025397 -0.6348735930886967
000050 de 91 b0 92 a8 26 c6 bf 6e 38 3a e4 a2 4e d4 3f
       -0.17305476343712106 0.31729957855066615
000060 91 ad 03 ed ad 99 cd 3f f2 5c ca 48 45 f1 a6 3f
       0.2312524230286326 0.04480949891620324
000070 0f 6e f0 fa 46 6f b6 3f 3e 33 f7 db 79 6e ae bf
       0.08763545633740243 -0.05943661508681551
000080 55 53 cb a2 1e 1d 9f bf 58 a7 f9 14 ed 43 db bf
       -0.030384520231410878 -0.4260208802066834
000090 04 a1 61 28 34 d1 e5 bf 55 2d 90 c3 9e 96 dd bf
       -0.6817875660608768 -0.46231812570541325

linear.weight f8 [2, 5]
000000 94 38 cf a0 c2 48 ae bf d6 ad 50 cb 96 2c d1 bf
       -0.05914886677747791 -0.26834649901385654
000010 71 06 41 b0 21 22 e4 3f 40 c0 ec 99 52 8e db bf
       0.6291664545498873 -0.4305616858646353
000020 c2 35 ab 4b 4c 27 e0 3f 14 6f e3 cc a6 3a e0 bf
       0.5047971227556263 -0.5071596147276716
000030 a6 92 2b b3 00 ad d7 bf 76 b6 23 14 ea eb c5 bf
       -0.36993424889650794 -0.17126203521131672
000040 f8 49 5f 8c 25 21 c8 3f 9c 9c 08 f2 f8 f1 b5 3f
       0.18851155618774817 0.08572345646881491

linear.bias f8 [2]
000000 50 f1 f6 13 6a d9 97 3f f7 63 7c 16 84 c0 9d 3f
       0.023290307491820983 0.02905470263712925
