trained_NNs/lstm_derivative_with_input_ws2_2layers.pth (torch, 7520 bytes, 10 tensors)

lstm.weight_ih_l0 f8 [24, 3]
-0.9134050700889885 1.5433418661039902 -0.008750524648271769 0.48511978314419557 -0.25190448174673746 0.2278639330160756 0.7393643452520731 -0.6579851392573812
1.435285865344954 0.2753776233687119 0.8067505897643588 -0.6059139899920237 -0.3656672710020418 0.75132656523535 -0.9578851418700177 -1.2931752106780456
1.2472554939350415 0.7568983959864587 -2.3994505119041416 -0.048142155419521854 1.8210999835855262 0.534986142655524 0.18272771386698305 1.2979571444813456
-1.4511999224198957 -1.0903095173423114 0.5151810097356558 -1.2810071534685183 -0.13251532048468073 -0.03478522425076392 1.4915474455245035 0.04154774951115289
-1.6513790825347756 -0.33312094296575323 0.40073683575190644 2.793607057819323 1.9207378073585706 -2.1339798915393913 -0.20228782226963724 1.1899292363867282
-1.8215612877326721 -0.10535167912126567 -0.3812810808422401 -0.49657806270584576 1.921861109808964 1.0792809992996568 -0.7205245819613583 0.9729896433351466
-0.5422392464177417 0.1654757078129111 -1.4968819494529888 0.8708283124921762 -0.7290843970787082 -1.3132224980500475 -2.6092025946929858 0.5577448870380874
0.40898860606730036 1.1320509216826882 -0.020272829741962813 0.4084665489661874 1.466535257104688 -0.5658555115481744 1.8562157626552396 -2.789477575889237
-0.14928989797256648 -1.1152887025435392 -1.0184281395644197 0.11098818026275878 -1.041432181521251 -1.962341770267713 1.209587111580742 1.8525412660762977
00000000: a50c 0145 9d3a edbf 906d 973d 87b1 f83f
00000010: 8a52 7f89 cbeb 81bf bccd cfd8 330c df3f
00000020: 335b b4f9 331f d0bf 2ef9 1e36 a52a cd3f
00000030: 96f4 556a dfa8 e73f a4a9 cbd9 360e e5bf
00000040: 0b15 c14f eef6 f63f ffcd 9a77 c99f d13f
00000050: dc21 e29c e6d0 e93f 318c 66bc a563 e3bf
00000060: 37f7 8ab2 1767 d7bf aaa8 4902 de0a e83f
00000070: 55fe b4bd fea6 eebf 09c3 5d7d d8b0 f4bf
00000080: 3951 432d c2f4 f33f ab03 25fc 8238 e83f
00000090: 6ffd 271c 1332 03c0 64ed 2bae 16a6 a8bf
000000a0: 80ef 83bc 3923 fd3f ea98 5042 9b1e e13f
000000b0: 3cd6 9029 9f63 c73f c582 f2b5 6ec4 f43f
000000c0: df04 ec68 1d38 f7bf 5b0b 7864 e871 f1bf
000000d0: 7fb7 8ae2 5c7c e03f ef6d 615b 017f f4bf
000000e0: 50af d913 43f6 c0bf 7105 1571 5ecf a1bf
000000f0: 815c afda 60dd f73f dcdf be22 bf45 a53f
00000100: c790 0c79 0c6c fabf 4aa3 e980 da51 d5bf
00000110: 76d8 f61c aca5 d93f 91ab 39a8 4e59 0640
00000120: a2bb 2c91 57bb fe3f d3dd a30c 6412 01c0
00000130: bb79 833e 91e4 c9bf 305d 2d3d f309 f33f
00000140: 278b e772 1d25 fdbf c28e 67e0 53f8 babf
00000150: d242 33c3 e866 d8bf a7e3 ce5a efc7 dfbf
00000160: 1a57 616f f1bf fe3f c7fa 3227 bc44 f13f
00000170: 8f9e 6f91 890e e7bf bc13 2f2d bb22 ef3f
00000180: b019 bf1e 065a e1bf 3c61 abd8 4e2e c53f
00000190: 16f9 ad7c 3af3 f7bf 65b6 5256 d3dd eb3f
000001a0: 0243 2fcd a854 e7bf 2af1 1798 f502 f5bf
000001b0: fbc1 269c a5df 04c0 a4df 2ace 0bd9 e13f
000001c0: 42b9 df8b de2c da3f 758a 606d e11c f23f
000001d0: 4fd8 f492 66c2 94bf e876 54e1 5024 da3f
000001e0: 1f21 7bac ed76 f73f 578b 8b04 7d1b e2bf
000001f0: 82c8 ae4c 0fb3 fd3f 01f5 8a9e d950 06c0
00000200: 2e2a b56e ee1b c3bf 475d 70f7 38d8 f1bf
00000210: bc15 0c4e 7b4b f0bf 1e9a 78ac b869 bc3f
00000220: dd2b 8aca b4a9 f0bf 40fe ed7b c065 ffbf
00000230: 3070 de03 785a f33f 319c 844f 02a4 fd3f

lstm.weight_hh_l0 f8 [24, 6]
1.4623415832144444 1.8856369249721008 -2.3104591631589577 -0.21177784249407633 1.3486190985532407 1.5245633058756087 -1.6517308430763584 -1.0087582095426424
-0.2795010714541711 0.2754580797760899 0.46184770719944057 0.22827188290418227 -1.2958721288798003 -0.6314469911205767 -0.8000482907807643 -1.7824149194175622
-0.5664075411275384 -0.8782426990532177 -0.08270358815860429 0.5082995320976285 -1.0707003007077498 -0.293404482064014 -0.012408423437245564 0.33318245767606497
0.6295130123580688 0.7653264622727269 0.3925239514183884 0.12417842728414846 0.1361290778296717 0.6049350246432954 -0.37659329137977393 0.1321675276863202
-0.49256458650419566 0.1674217499376554 -0.03415109635571337 -0.3744450221536315 -0.09915853160553767 -0.05841992868236195 0.5577250175364631 -0.23447758493218127
-0.9590696021230429 -0.8922895039932746 1.4196177189184407 0.27437074744361284 0.30870072771172774 1.3272991996931947 0.18969802025220003 -0.07238285279858472
-0.5109511039291541 -0.28481726883610936 -0.340545087589069 -1.4716859982758965 0.5864943177709875 -0.7310123273292114 -0.18667507836079728 0.6772417917435374
-0.7863844251936984 0.3800679685635753 -0.9933700448189926 0.35145274067416865 0.5167444909439005 0.21220690858596883 -0.09068538108986558 -0.2706532699474426
-0.025764662432485725 0.5371723992175834 0.5607395047978859 0.2804180102753071 -0.2722556471092027 -0.11519182562521382 0.1618844018569726 0.3346380354482961
-1.281405905440066 -1.3642073611740777 0.3568729218411495 0.26308293213345235 -1.0704903325515829 -0.5858053488762422 -1.202005130668031 -1.814987351457142
0.39737172385021974 -0.18849293253046448 -0.9664300933429772 -0.831096503696741 -1.2728661986309622 -0.6348646922411497 -0.7823440464666712 -1.044647856278523
0.6165905617395725 -0.3885197419795446 0.21046866360574834 0.01612776358797644 -0.9126596839823146 -1.3391553686909368 0.17892297821114628 0.41068494209088785
0.28187130998610155 0.26982385408432585 0.783919301774855 0.882106062788185 -0.7559574840809757 -0.548255944745284 1.0501281989432425 0.14308654540487184
1.7826732116581758 1.4365472695531072 -1.3909926232622907 -1.4600496998957846 0.2117847894318633 0.6758597003639933 -0.9208768097463311 -0.09770022307642959
-0.4330496975190682 0.13324749135315164 -0.69049861036766 -0.5343213127994042 -0.27395184207906426 0.4627696027763861 0.24451435740518143 -0.7674485595319895
-0.6379822920180819 -0.869982574254194 -0.7887720568365582 -1.0490407345219825 0.8357118293434465 -0.1948257561507764 0.11135504407547467 0.9812994144534434
-0.1436067388076787 -0.10030690343571254 -0.5300772710599638 -0.17423370838103808 0.7001725354461732 0.27177587903356026 -0.2650187218694949 -0.31511902582422346
0.09267150290024655 0.9727607965544083 -0.05141586883075617 -0.2630145604560777 -0.4316248611349947 0.1481102487123075 -0.17919015401621807 0.3907179478053073
00000000: 59ca b749 c065 f73f b129 ce9f 912b fe3f
00000010: 0b17 8403 d27b 02c0 8ec6 c34d 891b cbbf
00000020: 35c1 b09e f193 f53f 9bad 367e 9c64 f83f
00000030: 63eb 0c52 7d6d fabf 25ea f8a5 df23 f0bf
00000040: 8ded 4576 58e3 d1bf 3baa 03ed 1aa1 d13f
00000050: 1ade 89af e98e dd3f 26bc d557 0338 cd3f
00000060: e062 d569 e4bb f4bf c4a7 0052 d034 e4bf
00000070: 79f8 83df fe99 e9bf 82d0 ac81 c584 fcbf
00000080: ba37 2bb5 0220 e2bf 844c cc6e 901a ecbf
00000090: d42e 67f6 0f2c b5bf 2ace 5d61 fd43 e03f
000000a0: e4b6 75a3 9621 f1bf 9bbe bd97 23c7 d2bf
000000b0: 3af5 dc66 9669 89bf 6174 d483 dc52 d53f
000000c0: ca7f 0f79 f824 e43f 1231 c7eb 8d7d e83f
000000d0: 6346 8fc7 1c1f d93f 94db 0d4c 28ca bf3f
000000e0: f612 a878 ad6c c13f 7688 61b2 a05b e33f
000000f0: ca9f 97bf 1a1a d8bf fbc1 8094 ddea c03f
00000100: 9802 8d9d 2d86 dfbf 6a87 4f6e 136e c53f
00000110: 94cf f0a3 407c a1bf a030 1341 e8f6 d7bf
00000120: 907b 5d1a 7462 b9bf 0734 4086 37e9 adbf
00000130: 455d cf22 e2d8 e13f 4be2 768b 5c03 cebf
00000140: 3499 f6bb b2b0 eebf b8e2 c6b7 a28d ecbf
00000150: ab3a b911 c1b6 f63f 0df6 cf52 4a8f d13f
00000160: 487d 71b2 c0c1 d33f 2507 eb15 9e3c f53f
00000170: c7b0 8c54 0648 c83f 7aa4 8fc1 ae87 b2bf
00000180: d462 2721 b659 e0bf 222d bf35 723a d2bf
00000190: 608b 809f 7dcb d5bf a837 099e 068c f7bf
000001a0: 19b8 43bb 8fc4 e23f 0742 dbf6 7364 e7bf
000001b0: a6d8 440e f8e4 c7bf e4bb 60fa f6ab e53f
000001c0: 5c4d 89ab 0f2a e9bf ac36 cf99 0853 d83f
000001d0: 285b eaf9 afc9 efbf 763f d2a2 337e d63f
000001e0: 46c0 1fbe 2b89 e03f f155 2e92 9829 cb3f
000001f0: e19a 013a 2837 b7bf d3b3 be17 6252 d1bf
00000200: 55f7 283a 0d62 9abf 1082 de2b 8430 e13f
00000210: 37d4 55f9 93f1 e13f a4e0 d561 5ef2 d13f
00000220: da0f 1ff3 a26c d1bf 02ab d323 367d bdbf
00000230: eba6 dac9 a0b8 c43f 35e1 8fa6 b56a d53f
00000240: fa42 8c7a a380 f4bf 3048 1319 cbd3 f5bf
00000250: 54af 0886 01d7 d63f a688 69cb 59d6 d03f
00000260: 33e4 8f78 ba20 f1bf c0d9 e7db eabe e2bf
00000270: 917e 5dbb 693b f3bf e497 522d 300a fdbf
00000280: 75ad 92cf 896e d93f df6b 5f52 8920 c8bf
00000290: f4e7 98cd feec eebf 7a51 e6b1 5798 eabf
000002a0: 75dc 74f2 a85d f4bf 6df2 51c2 cf50 e4bf
000002b0: d56d b961 f608 e9bf 20d8 a8ab e0b6 f0bf
000002c0: 0f33 3621 1cbb e33f 99c2 69e8 81dd d8bf
000002d0: 747f 821d a3f0 ca3f 8a02 ace4 cb83 903f
000002e0: 959d e214 8234 edbf 76a5 0c2e 2e6d f5bf
000002f0: cebb f5b9 f2e6 c63f 715c cf7e a948 da3f
00000300: 028b 84f6 2d0a d23f 4443 3e45 cb44 d13f
00000310: e16f 7aee dd15 e93f 1bea 687e 363a ec3f
00000320: 586a e9bf cd30 e8bf 3198 100d 508b e1bf
00000330: 0519 f139 53cd f03f 437a 81f0 a850 c23f
00000340: 366f 7858 d485 fc3f 1538 5efd 18fc f63f
00000350: 7938 1e7b 8141 f6bf 6464 f912 5d5c f7bf
00000360: 7436 3394 c31b cb3f 3fed b785 a4a0 e53f
00000370: 782b b0a4 d277 edbf ead7 ecbe e102 b9bf
00000380: 16c6 1814 16b7 dbbf d962 d1f8 400e c13f
00000390: 2ecd ae8a 9018 e6bf 6eef 8002 2919 e1bf
000003a0: 7b25 9a4e 6d88 d1bf b47a 6065 049e dd3f
000003b0: 3b96 3a18 3f4c cf3f a8ab 1148 f08e e8bf
000003c0: 11a2 f4d6 596a e4bf 7a5f 10b2 e5d6 ebbf
000003d0: ce92 83e5 9e3d e9bf 8819 efef dec8 f0bf
000003e0: 4a22 fdbb 26be ea3f de03 8be5 0cf0 c8bf
000003f0: 4e7e 8ca0 c381 bc3f eb2a 9507 ce66 ef3f
00000400: 5004 55a3 b461 c2bf 35c5 d195 b6ad b9bf
00000410: 6dc6 f19b 64f6 e0bf f6bd ad47 4a4d c6bf
00000420: 128f a93b d067 e63f 5c9c 12a8 c664 d13f
00000430: f975 d015 11f6 d0bf 7acb 90fd e82a d4bf
00000440: 634c 3ad2 51b9 b73f e806 0140 db20 ef3f
00000450: 793e 3f46 2e53 aabf 79f6 e105 3bd5 d0bf
00000460: 31c8 ade1 bd9f dbbf 1cfd 35d1 46f5 c23f
00000470: ece6 a1f5 b3ef c6bf 8b2d f2d9 8501 d93f

lstm.bias_ih_l0 f8 [24]
-0.5628235214506649 -0.257565022381245 -0.44320656907837475 -0.784743076242343 -0.5378409875063747 0.31821202178901414 0.05055019206562375 -0.2456660935484403
-0.18515904845996206 -1.1672892750977741 -0.12904659545300612 -0.47183438253519294 0.15125161752326072 -0.08268200665734006 0.029357832944819785 -0.1067709919902265
-0.016234306453600664 -1.143937288113667 0.1643506061535478 0.5888049257639306 -0.22653916739063673 0.17879116304061243 -0.07839282983109076 -0.03909296379739533
00000000: ea9a 4179 a602 e2bf 2224 ee00 f27b d0bf
00000010: 5218 e415 7f5d dcbf 4125 0783 9d1c e9bf
00000020: 2139 794d fe35 e1bf 61c8 b1f4 955d d43f
00000030: 44ed 74fb b6e1 a93f 8968 c38e fc71 cfbf
00000040: 86d5 d8ac 4ab3 c7bf 8843 d884 37ad f2bf
00000050: 2cbe 904d 9984 c0bf 0c7d 87d6 8832 debf
00000060: 6e60 5d87 365c c33f 1999 8fe2 a52a b5bf
00000070: ea89 84d1 fa0f 9e3f a46e c2fe 5755 bbbf
00000080: 9973 2add b99f 90bf 56f8 912f 914d f2bf
00000090: 08ee 40cf 7009 c53f 3d27 7c6d 7dd7 e23f
000000a0: 7059 9a45 3cff ccbf be5f 09fb a0e2 c63f
000000b0: b18c 5d70 8d11 b4bf bdec 0632 fe03 a4bf

lstm.bias_hh_l0 f8 [24]
-0.4804899287167384 0.1936555702781017 -0.21270011629155824 -0.25447294543138543 -0.035932043838980104 0.20562023420303155 -0.10213030762311691 0.11285865828742081
0.3334545222986694 -1.898654400767603 -0.14066258964218176 -0.08827182053172182 0.18548937205492114 -0.297355324731774 0.340516662594416 0.14321943383079383
-0.0337222226348512 -1.1476826767769641 -0.39357332541834833 -0.12629039102023112 -0.8004060725537715 0.3220043838745487 0.20920357886842045 -0.3057544617038856
00000000: 2d54 79d4 58c0 debf be2e 84aa b4c9 c83f
00000010: 17f0 a9e5 c139 cbbf d00d 96e4 4849 d0bf
00000020: 646e 5552 af65 a2bf f820 a68a c351 ca3f
00000030: f7f4 2b3b 3625 babf a837 6a16 4ee4 bc3f
00000040: 3978 fea2 5157 d53f d940 db6f e360 febf
00000050: d654 2453 3b01 c2bf 9b95 5766 fb98 b6bf
00000060: 91a0 5da1 1dbe c73f 69ec c0a0 de07 d3bf
00000070: 6382 6566 06cb d53f 043a 3ab0 0355 c23f
00000080: 99f0 ba06 0a44 a1bf b515 af82 e85c f2bf
00000090: 42fc 4f2c 4e30 d9bf 998f 9d95 482a c0bf
000000a0: 8f6c 2432 ed9c e9bf 6f3a 7a46 b89b d43f
000000b0: 4417 b9d0 2ec7 ca3f 17f4 6729 7b91 d3bf

lstm.weight_ih_l1 f8 [24, 6]
-0.29324306053099286 0.4054846975686764 0.03723530113894767 -1.1400680101997376 1.4039605919216516 2.533068660821424 -1.7652760854175686 -1.2864199182521252
2.196484916875993 0.6664133514067248 -1.4135403519147742 0.8537149450801792 -0.3706871795708076 0.18146105394447457 1.4861211852869531 0.7548796298120204
-0.9684704077917022 -1.016448836220886 -1.8575522431481688 1.8854499149437296 -0.16368867883419078 2.67208317214448 -1.11397432253825 1.7427387138149575
-1.3773636732194463 0.5781837243684368 0.3002954754488051 -0.04253157016002231 -0.034203282546792925 0.5815808661135833 0.22187860829805883 1.097987322457362
-1.0890038080699564 -0.27030168999235177 1.2028877012644845 4.781644616075405 1.6299473034850591 1.7828901597493465 -0.9753038295737697 2.4379159329089757
-1.337508804929895 3.5041827012398077 -0.4278211646434966 0.7842305904136012 -1.7832036300096314 -0.1898276240303833 0.20848211288768045 1.7386219923303463
1.1147050556860514 0.18858933631478633 -0.0766051818277649 -0.1409706299040764 -0.10616925348174162 0.607631623288121 -1.0663194221915557 -0.2200525354915985
-2.215076278243674 -0.42436012765944264 -0.8004425182288449 1.8577790390647748 0.6482961476285329 0.2578848846354854 -1.4812100303043556 0.1996966510197143
0.08284543106360105 0.424758656192462 0.04405420477097686 -0.7040278800844623 -1.0315600163975447 0.89487172676824 -0.534219429887167 0.5219358464032012
0.9750124864975984 0.06931245000759312 -0.4719079341429695 -0.9644233984011228 1.3989787317428852 2.156909508032176 0.8089301277940714 -0.4829778758141814
-1.6065671563912478 0.30683835507616264 -0.40517152706045445 -0.20521592841737202 0.7006824576774902 -0.10654597525796476 -0.8367718950299403 -0.9902780613948122
1.751603316086566 1.8735024915545333 0.7784006229426236 -0.9587559655217068 -0.8746430593240879 -3.112548625673588 0.7605900932898171 -0.4290364982763174
-1.1270150031722712 -1.5457543243103513 -1.2454658684638407 -1.6334193049032708 0.4110467690119864 -1.1303015677619503 -0.2639230452612465 -0.3240160978593546
-1.6822986965068407 0.8863443638390958 -3.0605855238587987 -3.3507624482641507 -0.21894986763278704 0.5091349465903684 0.030885955702961005 -1.294161008062186
1.424659644512602 2.3069917507902153 -1.6269291212743826 -1.2379409940722441 1.621675716606324 0.5477585167307408 -1.7950382366041797 0.13560242800197425
-0.22489023227023175 -0.4707605639544448 1.3265448124639896 0.34789453929800074 -0.7171734240686068 -0.6413339595492907 -2.0275911543817338 1.9425675259392854
-0.47984505591280185 2.7320313706936736 -1.3272722361081468 2.2986913354965863 -1.7137403631972274 0.6409878979723578 1.2706137523817904 -0.04962910952532509
0.12233315010125309 -0.21713894077181992 0.5764942906818656 1.739904646055898 -1.3933601231457668 -0.425937446830049 0.7599853547703941 5.437426623020148
00000000: ad9c b08a 7ec4 d2bf a57f c516 76f3 d93f
00000010: 1e07 4c61 8110 a33f f160 30f4 b73d f2bf
00000020: 1bd2 b261 9f76 f63f 1701 8680 b943 0440
00000030: 4278 f422 923e fcbf cf0d 5d0d 2d95 f4bf
00000040: 0a1e 21af 6692 0140 c21b bd17 4253 e53f
00000050: f9cd f07c dc9d f6bf cd39 2701 a251 eb3f
00000060: f565 53b8 56b9 d7bf 0938 18a6 1d3a c73f
00000070: 1a34 0b02 27c7 f73f e2b1 4e53 f927 e83f
00000080: 1d7e 13a7 b5fd eebf f503 dada 5f43 f0bf
00000090: daec 6eb3 88b8 fdbf 6ade ae87 cd2a fe3f
000000a0: f3bd 2829 c0f3 c4bf 7b6b 6424 6d60 0540
000000b0: 2b2b 3ebd d6d2 f1bf fcee 54fd 41e2 fb3f
000000c0: b4d0 b27d ae09 f6bf c3bd 6727 7b80 e23f
000000d0: f21e 8c83 0a38 d33f d307 c5ad b2c6 a5bf
000000e0: 0d9d e8b7 1783 a1bf 80fd fd79 4f9c e23f
000000f0: 703c 29ab 8466 cc3f 1808 9627 5b91 f13f
00000100: 2b14 ce41 8f6c f1bf 0b86 a475 9f4c d1bf
00000110: b510 9b2c 073f f33f a98d 3c72 6720 1340
00000120: 59bf aa9f 4314 fa3f 11bd 07d5 b786 fc3f
00000130: 4eda 7560 b035 efbf 59ee 9111 da80 0340
00000140: 3993 f4a1 6f66 f5bf 7445 a8f0 9008 0c40
00000150: 7c8c ab05 6c61 dbbf 8d2c 4bc0 6a18 e93f
00000160: 64ff 8f87 0088 fcbf a73f 8b86 454c c8bf
00000170: 1ba8 53b8 8aaf ca3f a9a4 524b 65d1 fb3f
00000180: 1db8 edf7 d4d5 f13f 4755 ec03 b223 c83f
00000190: b285 a7ae 659c b3bf 3538 915a 530b c2bf
000001a0: f578 8b7f e82d bbbf 3f36 c1df b771 e33f
000001b0: 0570 56f4 a40f f1bf 3f4d ab75 ae2a ccbf
000001c0: a69d 69e9 79b8 01c0 2884 8161 b728 dbbf
000001d0: 5fdd c3a0 399d e9bf e6a3 7f83 76b9 fd3f
000001e0: aafe 0590 d7be e43f de18 699a 2f81 d03f
000001f0: 49a1 ea49 09b3 f7bf 0a0d a0ec a88f c93f
00000200: 5d8b 0ab1 5b35 b53f b287 42ee 3e2f db3f
00000210: 5d3a 7cd1 458e a63f 51eb 0d7a 6587 e6bf
00000220: 6d9e 6413 4581 f0bf 5cb5 1208 caa2 ec3f
00000230: c819 8858 5318 e1bf b32d ddcd b2b3 e03f
00000240: ca5c d662 4d33 ef3f c8fd fcf1 75be b13f
00000250: 887c f755 bd33 debf f828 7475 8edc eebf
00000260: fb29 ca85 3762 f63f ea6f abc5 5941 0140
00000270: 07fd 736f c1e2 e93f b40f 5409 1ce9 debf
00000280: 3573 38c3 7fb4 f9bf b879 0d57 3da3 d33f
00000290: 96ae 7f8e 54ee d9bf b8df 95fa 8344 cabf
000002a0: 1862 139e fd6b e63f c3dd 40d7 9846 bbbf
000002b0: 7eb2 6bda d5c6 eabf 4b62 f49d 5bb0 efbf
000002c0: e082 e232 9106 fc3f 4438 a3bf ddf9 fd3f
000002d0: e32f 576c a8e8 e83f 1e57 98fd 20ae eebf
000002e0: 120d ef70 13fd ebbf 8cd2 d3e4 7fe6 08c0
000002f0: 5eec 0a09 c156 e83f f6c6 3880 5575 dbbf
00000300: af9e 4be2 4008 f2bf 3f04 e9e2 68bb f8bf
00000310: 0862 559e 6ded f3bf 016f f347 7c22 fabf
00000320: d11b 821b 974e da3f 4f7b c218 b715 f2bf
00000330: b1b2 037c 1de4 d0bf debd eb03 aebc d4bf
00000340: df9a b909 b2ea fabf d6d9 f5da ee5c ec3f
00000350: 32ad 5c43 147c 08c0 e4ac df8a 5cce 0ac0
00000360: f921 799c 8c06 ccbf 2167 1b5f d54a e03f
00000370: 3585 9966 91a0 9f3f ee2a 562c e2b4 f4bf
00000380: 42cd 51e9 67cb f63f 3b49 4e17 b874 0240
00000390: 2e89 8cd4 e607 fabf 34b0 3e37 9bce f3bf
000003a0: 17aa 783c 62f2 f93f 18d9 6ede 3c87 e13f
000003b0: 288d 9403 7ab8 fcbf 0e6a c39c 6b5b c13f
000003c0: c02e 6500 34c9 ccbf 2993 9bea f020 debf
000003d0: 7061 a30d 8739 f53f 4a7b 2f75 e743 d63f
000003e0: 91eb 3dae 15f3 e6bf 2d82 c2cb ce85 e4bf
000003f0: d5d3 0db6 8138 00c0 d0e4 a2af c114 ff3f
00000400: d5bc 9209 c8b5 debf fb33 6643 33db 0540
00000410: 8f92 efcf 813c f5bf 8373 6c48 b863 0240
00000420: ac46 dc03 7b6b fbbf b889 5d0d f982 e43f
00000430: fb3d 0516 6f54 f43f f386 ae94 fc68 a9bf
00000440: 66cb e6ae 3951 bf3f 43ca a674 35cb cbbf
00000450: 09e6 9927 a472 e23f 217f 0f41 a6d6 fb3f
00000460: b862 07fc 334b f6bf 15b7 1123 8f42 dbbf
00000470: 8ab0 85ce cc51 e83f c415 c1c3 ecbf 1540

lstm.weight_hh_l1 f8 [24, 6]
-2.2112877246294045 1.920979908986817 0.6974235036371274 -0.05709861619336255 -1.2868381293472384 2.0307365430352493 0.17815344107008302 0.7437590753150217
3.6277882887232336 1.8717553351232756 0.9982039014834643 0.20494919095202827 0.30200177672074086 1.4364306351334573 0.681060165044485 0.3009741334333814
-1.208640759137286 1.5497776899738411 -1.132007757061622 1.0136274821106044 2.0272444052508374 2.9913332140813518 2.4024804611326207 2.0566163829870843
-0.8960902335372268 0.2790149606504287 0.4725513368409677 2.3150956792515456 0.06567709926222258 -0.48976086603965363 -1.7236796767282758 1.6744899555104011
0.015599750963315256 2.1623487068215366 1.6360613707961198 0.20703276472195517 -1.6033817639032635 1.2690895673959606 0.7407717594402659 0.43536847078055685
-0.17779251793882705 1.591602591730224 0.34360244623686803 1.2814003323539436 1.353770381788832 1.537201948800326 1.0962028169638236 0.0062952126758958685
1.3729242514551672 1.9848300716491631 2.018771117931198 1.6528134693306367 0.13984205069112074 1.4185140918806887 0.09229440082798174 0.9551826471820706
1.8337483575595588 1.737721652074244 1.7320219976897209 1.0176924522404338 -0.3718257185181134 0.8207911849767544 0.8531957570972425 1.8056331292705656
0.0780712819472113 0.10417957013935843 -0.936502842935236 0.7747000781344713 -0.7212827756256396 0.8206073570245568 0.6938691068094753 0.2374889055168477
-3.10910457503643 -1.3076692895690065 -1.4310161762094329 -1.1234987378397772 -0.31447339071349706 1.4252332365844336 -3.0870807762481043 -2.7698601906584526
-2.2123717077827623 -0.8063612036024265 -0.7279474146989193 1.659494741941752 -1.2512956866446245 -0.7948467773392819 -1.086255210242367 -0.06230304037348171
0.5574251927379799 1.0166793361427866 -2.434370785573134 -1.7690622735744714 -0.9102174853941618 -2.515639495491533 -0.7189649927713725 0.35600678916102013
-1.0738782394445967 -2.9113840096643946 -0.7004888000332434 -1.0094362792290166 -1.5628295204599956 0.7058181855842207 -0.8727623488355192 0.08133784070369765
0.9118023784060251 -0.8983931706308915 0.19345889666221475 -1.0538286024467387 -2.2098130934445646 1.7586155162285058 1.2308357544581583 -0.13329806498940575
-1.2187255721005312 1.6143852181423473 0.865679828650348 1.1128507991772394 3.5898082916921483 1.765722671420226 0.6779560132106821 -0.07320926385094853
1.0769126336624695 1.0202941920769157 1.4393075854748896 0.9494543806761067 -0.3629258246893679 1.4925658350790685 -1.2431330941895589 1.429258889915483
2.222422448072645 2.6224082281198022 2.367443604921197 1.8654913487742126 -1.1887266042496538 -0.7362288544172587 -0.5358214755137112 1.6041433808561882
-0.2298262821078294 -0.4484876156204054 -1.664225435691423 1.645784709067709 -0.2502331346944906 1.327821178309481 1.455088761868472 0.5058836057152895
00000000: e9a2 5a9e b7b0 01c0 66f1 d56d 55bc fe3f
00000010: 91a9 7218 4b51 e63f d20a 65a2 073c adbf
00000020: e1ac 0c94 e396 f4bf 2707 f9cc f23e 0040
00000030: 6c6e 8861 bbcd c63f 5999 12d5 dfcc e73f
00000040: 5606 c7dd b505 0d40 e27c e7b8 b5f2 fd3f
00000050: 028e f34e 49f1 ef3f f984 3d6c c63b ca3f
00000060: d15d 9642 ff53 d33f 6bee 8db0 9efb f63f
00000070: 7e2e efaf 3ecb e53f ba73 0203 2943 d33f
00000080: 53b7 51b1 9756 f3bf 1321 e8b0 e3cb f83f
00000090: 205e 762a b41c f2bf b4de 5f73 d137 f03f
000000a0: 1969 2cea cb37 0040 0258 af1b 40ee 0740
000000b0: b4bf 0ead 4738 0340 59c7 4a4a f373 0040
000000c0: 27d6 e96c c5ac ecbf 01a7 c590 61db d13f
000000d0: 2f6f 5af6 473e de3f 69f8 2be2 5085 0240
000000e0: 8b69 6de1 36d0 b03f 8e0f a0f5 3d58 dfbf
000000f0: a83e 0524 3194 fbbf d95c c6fa b5ca fa3f
00000100: 9099 b421 c3f2 8f3f 69c5 927a 7d4c 0140
00000110: 9c17 1db0 4e2d fa3f 8733 d7b4 0c80 ca3f
00000120: 1a7a efa2 73a7 f9bf 2891 badc 304e f43f
00000130: 1015 13fa 66b4 e73f ca91 edb7 13dd db3f
00000140: 1ea8 02bd e7c1 c6bf c85c 7b47 3477 f93f
00000150: b76d 5a1d 95fd d53f 12b3 88a2 9d80 f43f
00000160: 3639 c121 0ba9 f53f 2c1e 1712 6198 f83f
00000170: 7c48 0af7 0b8a f13f a886 0749 02c9 793f
00000180: e029 7e6b 7ff7 f53f 9e9b 5d2d ddc1 ff3f
00000190: a7fd cc78 7126 0040 389d 5289 ec71 fa3f
000001a0: cb76 2925 58e6 c13f e3ae 18d5 3bb2 f63f
000001b0: 1cfc 2819 9ba0 b73f 8251 eb32 db90 ee3f
000001c0: 08fe 8c84 0857 fd3f 085c 1338 b5cd fb3f
000001d0: a17a c0b2 5cb6 fb3f a823 7ce1 7748 f03f
000001e0: 3a35 3619 fecb d7bf 763f 0ae0 eb43 ea3f
000001f0: 1b32 3a30 614d eb3f d6a8 6c90 dfe3 fc3f
00000200: 5c56 b8c2 7afc b33f 11ee a826 83ab ba3f
00000210: 5692 60cf d4f7 edbf 767a 79d1 57ca e83f
00000220: 075e 8f9d bf14 e7bf 03e1 285c 6a42 ea3f
00000230: 1872 2efc 2c34 e63f f2c8 2d55 0966 ce3f
00000240: e900 2d38 72df 08c0 43eb 0aa2 36ec f4bf
00000250: 22dd cd37 71e5 f6bf ebe7 01d0 d9f9 f1bf
00000260: a7e8 2400 5520 d4bf 85d6 c45d c1cd f63f
00000270: 68c4 f067 57b2 08c0 89f6 aa75 ac28 06c0
00000280: 5a2e 1cf0 efb2 01c0 318a c702 b6cd e9bf
00000290: 12de 6a60 584b e7bf 6c61 c85b 4a8d fa3f
000002a0: 803b 3ca0 4e05 f4bf 4b1a 4082 626f e9bf
000002b0: f09b b124 4d61 f1bf a6e1 b021 2fe6 afbf
000002c0: fad5 985b 6dd6 e13f 4109 348d 5144 f03f
000002d0: dafe f263 9779 03c0 a86f 193e 144e fcbf
000002e0: 327d 806b 8020 edbf ed4b 8d99 0720 04c0
000002f0: 6180 5ddf c201 e7bf 646f 26b3 d0c8 d63f
00000300: 42cf e4f2 9a2e f1bf eed8 1cb3 834a 07c0
00000310: 126d eb7c 676a e6bf ebf3 eaa7 a626 f0bf
00000320: af95 f986 5901 f9bf 8033 0005 1096 e63f
00000330: e6b7 2d4e abed ebbf 58e8 bf85 8ed2 b43f
00000340: 9567 752e 7c2d ed3f d3e6 d908 a3bf ecbf
00000350: 0d69 24d9 42c3 c83f ef91 7161 7bdc f0bf
00000360: 9cef b47c b2ad 01c0 8f08 0706 4a23 fc3f
00000370: 0d53 02d5 80b1 f33f 3ff2 df36 e90f c1bf
00000380: df87 af62 e67f f3bf 4813 3198 85d4 f93f
00000390: 2c86 1b2f a6b3 eb3f 06b3 bca3 3cce f13f
000003a0: bad1 dd68 edb7 0c40 d7e3 786a 6640 fc3f
000003b0: beb9 1bcf d0b1 e53f 020a 01a2 d7bd b2bf
000003c0: 2dac e3bd 083b f13f 374e b400 2053 f03f
000003d0: 71fd 0764 6707 f73f ae87 4127 ee61 ee3f
000003e0: dd89 fa3c 2d3a d7bf 1aaa 8cb6 8ce1 f73f
000003f0: 3de9 0187 dfe3 f3bf aa44 db91 3ede f63f
00000400: 37f2 a26b 85c7 0140 7049 442a b1fa 0440
00000410: 4b16 d245 86f0 0240 7c4c df74 0dd9 fd3f
00000420: c832 1230 0605 f3bf 5bff 82d0 2f8f e7bf
00000430: 666d 3a14 7325 e1bf 89f4 ed3f 92aa f93f
00000440: f80a b596 f26a cdbf d00a 7066 05b4 dcbf
00000450: ca74 b7d9 aaa0 fabf 323e db58 2255 fa3f
00000460: 8cdb 78d6 d103 d0bf 1068 7c6b c13e f53f
00000470: 1709 5027 0b48 f73f b926 c4d0 3230 e03f

lstm.bias_ih_l1 f8 [24]
-1.3923373550611489 -1.3125373984697075 -0.6292655279803039 -0.7179778793041209 -0.726244025347169 -0.7087659621938815 -2.3276070835678624 -2.819207850066108
-1.8604222101556571 -2.4057920683197627 -0.2336866757528109 -1.8463434981594293 0.09319410765104229 0.08373007277779937 -0.16311679703506662 -0.11015435467404276
-0.03203279358310636 -1.2995534441040786 -0.8354708965768265 -1.5289840749831771 -0.2580881043181479 -1.1021154916963156 0.5593859840831789 -1.0338459470410752
00000000: d4c9 cf88 0347 f6bf df44 1337 2700 f5bf
00000010: 569e e575 f122 e4bf b49a dbbe acf9 e6bf
00000020: ef01 391c 643d e7bf 9080 84f4 35ae e6bf
00000030: 30e5 6e76 f09e 02c0 8348 65d8 bc8d 06c0
00000040: eced 5514 4ac4 fdbf d146 73e9 0f3f 03c0
00000050: 8944 efea 71e9 cdbf 886e dc7a 9f8a fdbf
00000060: 7f87 8aac 91db b73f 9cb8 4584 556f b53f
00000070: 17d1 58de 02e1 c4bf 8745 d666 1333 bcbf
00000080: 3a8c ad31 9a66 a0bf 854c 5d8d f8ca f4bf
00000090: 24d5 3176 2dbc eabf 5b85 6201 b876 f8bf
000000a0: 021e e2f7 8384 d0bf 9a02 94da 43a2 f1bf
000000b0: 054c 6f6f 7de6 e13f 0c4c 3a0c a28a f0bf

lstm.bias_hh_l1 f8 [24]
-1.2462498487052955 -1.7111952425326233 -0.5927683729009076 -0.9520183079494052 -0.7592260331289371 -0.7393353429892842 -2.8566344207965546 -2.5073915133463105
-1.1962701189829232 -2.363099832445248 -0.4475475435658838 -1.793135941854856 0.1367233268177568 0.1444345370513586 -0.18583513513487093 -0.38853773871843905
-0.4863790849814313 -1.269016664052611 -0.8495837416177486 -1.9037829672331554 -0.6285247713036066 -0.9862740119047558 0.4557836394005933 -0.8110013728580975
00000000: da58 6dae a3f0 f3bf 78f9 3b43 0e61 fbbf
00000010: 0dcd f660 f5f7 e2bf 1fc0 3a19 ef76 eebf
00000020: 6af0 d164 944b e8bf 344f dd97 a2a8 e7bf
00000030: c497 af25 63da 06c0 0ab9 2048 230f 04c0
00000040: 406b e322 ec23 f3bf 8a48 8ce2 a0e7 02c0
00000050: 9c51 c173 9ea4 dcbf bdc7 3850 afb0 fcbf
00000060: c12b a464 2680 c13f c634 86b6 d47c c23f
00000070: b40e ed19 72c9 c7bf e5ad 4364 cddd d8bf
00000080: a308 ddbd d520 dfbf b1f5 e26a e44d f4bf
00000090: f9c4 2e3e ca2f ebbf 002c ef20 e575 febf
000000a0: 2232 2ffb df1c e4bf 0dd2 4084 8e8f efbf
000000b0: 02c1 5124 8f2b dd3f e1f8 ad26 b9f3 e9bf

linear.weight f8 [2, 6]
-0.7432803195572415 -0.15383010389206042 -0.9212358778112419 -0.3542237806393671 -0.3728374530620101 1.0349354011945262 -0.08630549958322654 -0.27192923407731795
0.20530826384796844 -0.4094826414653988 -0.8356909945880115 -0.7807063377041115
00000000: f047 08cf f3c8 e7bf c0a7 ad70 b4b0 c3bf
00000010: 823c e3a9 c37a edbf 98f0 5338 9aab d6bf
00000020: 6604 e89e 91dc d7bf 6ba6 596c 188f f03f
00000030: 39c6 2c02 1e18 b6bf e60e ccdf 4967 d1bf
00000040: 11ac 698b 8a47 ca3f c2e8 57ae f634 dabf
00000050: b026 6a0a fbbd eabf ca02 87db 8bfb e8bf

linear.bias f8 [2]
-0.061685958566926886 -0.004649967617904451
00000000: 79b0 554d 4d95 afbf 5caf 8a2d d80b 73bf
