trained_NNs/lstm_ws4_final_.pth (torch, 6158 bytes, 6 tensors)

lstm.weight_ih_l0 f8 [32, 3]
3.789069014871685 -4.505806794606097 0.6125705473493207 0.8045299232007668 -1.6826174735603785 -0.18678170799901403 -1.1858729611187504 0.5896011689336382
-0.4023649051027452 0.21736414356720452 2.2222408971626475 0.007384933786059334 0.1842412003420427 2.4753819464785676 0.8167176628299854 1.4271247906887632
1.2729843173272983 -0.8075920667843282 -0.33756876056922736 0.3183884088279055 0.750224195097538 0.5315420419433501 -0.38928698782561705 -0.9166291778629471
-3.620754044535401 5.334836516320644 1.9031197880389996 -0.9736221946574283 2.062113960157589 0.7034727902778505 -1.2444266239702222 -2.407741023619585
1.436033581117582 1.9924557861356142 -1.887289317267277 0.39302930082801907 1.7429340486461766 -1.9171608230600798 3.626315037071587 2.101265272360846
-0.6992204738310914 -0.46682580856541533 -0.7528223216951452 0.5713181122445414 1.0159592997651528 0.26344197582779233 -0.448145515970502 -0.31134935451747636
2.410245272328547 -4.779383416214618 0.8003919640314182 -2.0781640944749005 1.768499915555035 3.173970815127225 -1.227512305453492 -2.261139007055855
-4.88723702240918 2.9217997133836513 -2.539305546018834 0.4374863300954551 1.9353065599549444 -4.257280438995517 3.4592323492716366 4.699825597136049
3.06912058353642 0.8614304999568673 3.0524670306072954 -2.0233227485008163 -4.229104300359116 1.089710173960769 -0.8043339436326868 -1.8937615714164346
0.9005495284649914 -0.777608801557201 0.19613773593287293 -1.6142140441796444 -3.558456350527736 0.20686687030050174 -1.3096895930431758 -0.10551154182162586
-0.16708386988925503 -1.7354381036754205 -0.6818214972764837 -0.32991078744205177 -1.4881302781994679 0.3297510790083974 -1.0378346661201954 1.4310753680329793
0.9732368006368746 0.08644686302487818 -0.7975818787079477 1.327659142110288 3.6383459172635026 -0.5222636424248781 -0.593632486451123 -2.396646064313255
00000000: 5e49 696a 0350 0e40 0bb6 6337 f205 12c0
00000010: fb75 6b8c 2d9a e33f 369f 9989 b5be e93f
00000020: 66eb c94c 00ec fabf 8363 ac87 76e8 c7bf
00000030: 8f73 13ed 55f9 f2bf 6c1b 4845 03de e23f
00000040: 215d 1ebb 58c0 d9bf 4adb f897 96d2 cb3f
00000050: 9c2d 493c 26c7 0140 9a0c 8211 aa3f 7e3f
00000060: e3bd 0535 3795 c73f c9df c90c 95cd 0340
00000070: 7173 7d14 8d22 ea3f f71a f5cd 80d5 f63f
00000080: badd b3cd 245e f43f aa20 6b51 cbd7 e9bf
00000090: 12f3 b200 ba9a d5bf 61d8 d5c6 7960 d43f
000000a0: 4594 d32b d601 e83f 6010 d374 6402 e13f
000000b0: 3f0a 5ef8 13ea d8bf 1962 afb6 0655 edbf
000000c0: 3c1d 81e5 4df7 0cc0 3a6a 3c62 df56 1540
000000d0: a0f7 1fbc 2d73 fe3f 2dd4 96bb e927 efbf
000000e0: e003 9c9a 357f 0040 c5d0 7b5e d982 e63f
000000f0: a994 43e4 2be9 f3bf 2e78 cdb9 0d43 03c0
00000100: 75b9 2d59 fef9 f63f ddda 8251 19e1 ff3f
00000110: ca0c 7c48 5632 febf 0545 5b5e 6427 d93f
00000120: bf52 20d0 0ee3 fb3f a172 c3d3 b0ac febf
00000130: 55b9 4975 b102 0d40 3b15 c82a 64cf 0040
00000140: 8a8a 799d 0360 e6bf dce6 2d5b 79e0 ddbf
00000150: 5f24 6cd6 1e17 e8bf 087d f6eb 3c48 e23f
00000160: 2cef e889 5e41 f03f 43bc a4bb 3bdc d03f
00000170: 7e4f bc87 6aae dcbf 1c21 d2d7 25ed d3bf
00000180: f4ea 5fac 2e48 0340 04bf aeaf 161e 13c0
00000190: 75e0 af9b cf9c e93f e1ed 2b7f 14a0 00c0
000001a0: 299a 4491 c64b fc3f 6c70 8bcf 4a64 0940
000001b0: d5c3 75f1 e3a3 f3bf 551e 380c d016 02c0
000001c0: ff30 acdc 878c 13c0 458f 3387 d85f 0740
000001d0: 579e 156d 7f50 04c0 2640 0daa c6ff db3f
000001e0: 1cda eb02 04f7 fe3f 8a8b fd85 7407 11c0
000001f0: 6e18 8b02 82ac 0b40 7969 d214 9fcc 1240
00000200: a627 ae17 8f8d 0840 ffee 22b2 d690 eb3f
00000210: ce9c a4d5 736b 0840 be82 50d6 c32f 00c0
00000220: 55a9 5551 9aea 10c0 c67a 74ef 736f f13f
00000230: 14e2 de89 1abd e9bf 847b faee d84c febf
00000240: 76ee a53e 4dd1 ec3f 49a3 78da 2be2 e8bf
00000250: 1aed ab94 0a1b c93f 74ed 071b d2d3 f9bf
00000260: c314 8ef6 b777 0cc0 0384 4815 9d7a ca3f
00000270: 0783 2013 7df4 f4bf 8c73 79ed cd02 bbbf
00000280: 2b86 6e16 0163 c5bf 804a b8be 5ac4 fbbf
00000290: 5b64 1051 7bd1 e5bf 6d51 aa22 421d d5bf
000002a0: 94dd d0b1 61cf f7bf 965a 0a45 a41a d53f
000002b0: d742 da85 f89a f0bf 4501 fd48 afe5 f63f
000002c0: 34f8 bf80 c124 ef3f db9c 88b1 6121 b63f
000002d0: 1bda 9d6e ca85 e9bf ed95 3983 173e f53f
000002e0: 7674 b11a 551b 0d40 9e59 033e 62b6 e0bf
000002f0: d5d2 648e 09ff e2bf 1780 92c5 542c 03c0

lstm.weight_hh_l0 f8 [32, 8]
-3.879899437457297 -1.5955960599775871 2.277229781911938 -2.3047018759008333 -3.180567425669646 1.9758924753951506 0.14276821488490504 0.30901094922653805
-0.5946915562614854 1.180365376264307 0.07869316204056251 1.2551553097912658 -0.20371708676979078 0.4230196211678343 2.448840589699643 0.36600159939188226
4.676315516833144 1.301743599875614 0.4185703132846164 2.3586630153572026 0.6420947594678705 -1.4617094565922901 0.5255011129880435 -1.2150012160557386
2.7393039076606795 -1.495121861402309 0.03739514579964395 -0.7105778886164709 -2.4333274886791934 0.3321097014703636 1.6469383860701157 -0.4747513035769345
-3.2087009794456924 -0.010054903843444455 -0.42645358315209536 -3.298970419056472 3.660284034573645 -1.3204775807656588 3.6267925134985277 -2.713176596231108
-0.5984010957510626 -0.7191963226418565 0.7487938869852558 1.6603427634732322 1.6777154297667634 -0.855886266492241 3.7703333551744813 -4.227571324709826
0.13315683138649076 -1.5387146151338709 4.140620715156815 1.4301150343480027 0.29633799748402095 -6.676559504734407 1.5232769788357825 1.9185133687438962
-1.3783822574891316 0.7977135668095485 1.5601469948665203 -0.8805659028691631 0.7368980992632101 2.2520070399451644 0.15856509011907813 -2.1724473557493003
-2.845016851177146 1.1088484794843994 -0.2645559229388484 -4.407260248212657 0.7383874866868831 1.1080311336617528 1.8103196481278252 -3.5082513753793267
-0.9075431761749743 0.4259386235220457 -1.0170840527404008 0.3532932980524571 0.5548460954999128 -0.3334864623367226 0.7512648984904339 -0.59844513274836
3.991458126273381 0.7523940496171491 -0.8066655641789031 2.4833529043345193 1.1379554486664227 -1.2241059651458888 2.257850006703996 -2.601373034691723
-1.781983080528819 -0.401887481309541 -0.8949598574753271 1.288017170336906 1.4613174277014425 -2.0998090934751867 3.4885721025755716 -5.19481341047533
-0.18629591154797548 -0.25200420542936414 -2.2224278073882817 0.5841689799048325 0.9285266372460532 -1.1204870211310178 2.4213260042026605 -1.7525494066839802
-0.6001922114029626 -0.3393567385646655 0.08529597870990693 2.7828570668015424 2.1687613663048153 -1.278830765777337 2.931573476780723 -4.766511399928324
-1.184389108006655 -0.3450029021536057 1.9616013560386536 -0.9523857545755322 -4.102880840453837 0.8552269442086095 6.598322445312022 3.611780529883402
-0.7300234689132159 -0.33945506083576205 -2.9737053725460516 3.5319570599583052 3.078631274346551 -2.0747066760047104 2.9731838093965997 -7.436610998503964
-1.855802239621391 0.019023314599800896 1.2901860947123214 -6.565962712679882 -2.6415021938009637 0.6611417138488935 -0.47151478591716556 3.3017423006743822
-1.293800811957684 -2.1024534855834793 1.7986660917268558 -1.7992518757780873 -2.1329443524677654 1.0605826672107215 -0.05658571795187391 0.6444639034541683
-1.9646215293958027 -1.3352627978608649 -2.1892712581764853 -2.125942907510874 -2.393229227187075 1.6804686499287296 -2.275360329118991 -2.145237390834152
-3.3524948773157 -0.027292669345928406 2.268018814435764 -3.718803355182665 1.1007049890169645 6.054516713223312 0.5769043195015798 -0.8367284819653229
-3.6721752591216186 -0.8635483116135129 2.1069208876795105 0.8461978245935897 -3.5822850732984235 4.423876324388616 1.4713395438622985 0.04446292094103332
4.366203089955528 -0.03588323385691748 -1.568171782739956 1.2117111034635668 4.011209607816987 -9.444196486933556 -0.22410465913501565 -1.7453679626905876
0.6694389954409597 -2.200508449410102 -0.05609758719841543 12.974908788565374 1.3216143720030642 -1.8609399913958404 -1.0921138126079033 0.11523201685021942
-0.059537934193720485 3.1011870898069267 -5.328390642121079 0.2525803139978422 -0.2841114561605575 1.1271773894621215 -1.3212102670345325 -6.605560379512251
-0.37991161332765294 0.5272392523996811 2.1613317325106247 -4.450250427993693 -1.3562089440984513 0.4021639628908376 -0.43916073366984576 -0.17640918109973747
-1.28467090236321 1.6063487797421485 -0.07843036236650214 -0.041537574077546685 -0.41532251685557026 0.93939281138689 2.192641326517121 1.0193910339815595
4.343686939719969 0.9612707580175641 0.646477715183993 1.9526785430290161 0.8294083161585452 -1.9055242819155456 -0.21202565934730108 -0.93409641622571
3.8703440675670007 -4.174805314512148 0.8407639274026217 0.8020727824896865 -0.7265195824806212 0.6489341738181862 -0.5735000401835298 0.22815684776566106
0.2763606517434719 0.05926491533910116 -0.797807538354575 -1.7160310285838938 4.538199507890615 -1.9427266857380698 2.5621390228884295 -2.7847307687423344
-0.3978045564289341 -0.8997535947761697 1.3475140932383882 1.0903007852190636 2.161377790610166 -0.7568366441169159 3.167928270585584 -3.5743207735571283
-1.0020095928423902 -3.822303077767489 4.594856884640841 -3.6439035670644695 -0.25704295088795437 -0.1957273045594681 0.3077925004724288 5.387844987201767
-0.04165799734869546 -3.279535672003175 2.146477794022438 3.797740825889068 -0.10667445427502655 -0.8615920418353504 -2.6483392857162906 0.8907325655637359
00000000: e02e 5db7 080a 0fc0 ddae f3bb 8f87 f9bf
00000010: d84f 763f c437 0240 0231 8089 0770 02c0
00000020: d6ca 9f55 cd71 09c0 27c1 a36d 419d ff3f
00000030: 4a63 eb96 3a46 c23f 602b 42dc d5c6 d33f
00000040: ac36 2b96 b607 e3bf c82c 06ce c6e2 f23f
00000050: 360f 622d 3c25 b43f 8c44 efbb 1d15 f43f
00000060: c604 a8c8 6613 cabf acdb 9ee3 c012 db3f
00000070: c104 2fbc 3997 0340 3aff eaf8 916c d73f
00000080: 824d 0a0e 8cb4 1240 9fe3 d318 f1d3 f43f
00000090: d991 a823 dbc9 da3f 92f3 09b7 8ade 0240
000000a0: a41e 1b4f 0a8c e43f c815 8574 2963 f7bf
000000b0: ab72 c9b5 e7d0 e03f 3cf4 781d a570 f3bf
000000c0: 36a9 c92a 18ea 0540 f91e a4e6 04ec f7bf
000000d0: bc2c 7ae0 7425 a33f 88ca 1bd7 0dbd e6bf
000000e0: f8ad 0267 7477 03c0 61f8 9f0c 4941 d53f
000000f0: b32b ab10 dc59 fa3f ce29 a64a 5362 debf
00000100: 3be6 4a6b 6bab 09c0 4f4b 6059 aa97 84bf
00000110: f69d 39f8 034b dbbf 3c8d 629a 4a64 0ac0
00000120: 9684 f4fe 4248 0d40 d3d5 8719 ad20 f5bf
00000130: 9dd4 16cb ab03 0d40 80ae 68ee 95b4 05c0
00000140: 2c86 040e 1a26 e3bf c0ce a401 a803 e7bf
00000150: 0f7c 0199 1ef6 e73f e448 d492 c390 fa3f
00000160: 3f7c 6d22 ecd7 fa3f 3bc0 7598 6b63 ebbf
00000170: 55f0 bb88 a429 0e40 5e8b 1475 08e9 10c0
00000180: 9ea0 0576 480b c13f 0509 5e37 939e f8bf
00000190: 61f4 72e0 fe8f 1040 71ae 604d c0e1 f63f
000001a0: 4f62 f0a5 33f7 d23f 6987 ca03 ccb4 1ac0
000001b0: 0597 6dae 575f f83f e619 fb12 3bb2 fe3f
000001c0: ecd6 d48d da0d f6bf 80b8 209a de86 e93f
000001d0: 5c78 feb1 5cf6 f83f ef76 598b 982d ecbf
000001e0: d83d 9a52 ab94 e73f f468 5744 1c04 0240
000001f0: 4ba3 2c62 dc4b c43f a4cc 4914 2c61 01c0
00000200: 78ff e231 98c2 06c0 5aad 39e7 d7bd f13f
00000210: 9d11 3ff7 7bee d0bf 0623 9cd4 08a1 11c0
00000220: c810 63cb dea0 e73f ba6e a0da 7eba f13f
00000230: 693e 40bc 11f7 fc3f b735 db18 e610 0cc0
00000240: b524 acfc 970a edbf 2c59 8812 9442 db3f
00000250: bfd9 7ced f945 f0bf 8e00 427e 5b9c d63f
00000260: 8c88 4f99 4cc1 e13f 0347 599a d757 d5bf
00000270: 07c6 34af 5c0a e83f c258 3368 7626 e3bf
00000280: b494 1d99 81ee 0f40 e6f0 99af 9c13 e83f
00000290: 1ea6 1e4d 34d0 e9bf d658 a420 e8dd 0340
000002a0: 973c c5c5 1035 f23f e23d f222 f095 f3bf
000002b0: 4e89 10aa 1310 0240 ea93 65aa 9ccf 04c0
000002c0: 8658 ceb0 0083 fcbf d05c 3945 86b8 d9bf
000002d0: f7db e2da 82a3 ecbf 1b89 74e4 b79b f43f
000002e0: 34d7 1062 8e61 f73f ff8d c2b5 68cc 00c0
000002f0: 7a66 927d 98e8 0b40 4c41 ab2a 7dc7 14c0
00000300: 6a10 bd5f 8bd8 c7bf 6982 313f d620 d0bf
00000310: 17a1 f33a 88c7 01c0 0ded 0025 83b1 e23f
00000320: 12f9 8d7e 7db6 ed3f 599a 75cc 83ed f1bf
00000330: cd09 082b e05e 0340 754f 253f 710a fcbf
00000340: c144 e94b c634 e3bf 5aff 7353 05b8 d5bf
00000350: aa13 0a0f f5d5 b53f 45d7 da90 4a43 0640
00000360: 13dc 288f 9f59 0140 e51d c23f 1776 f4bf
00000370: f7c0 84cb dc73 0740 35d0 4a5d e810 13c0
00000380: fe08 4afe 41f3 f2bf b996 710d 8714 d6bf
00000390: b49a 7f1a b862 ff3f 8f80 a2b0 f179 eebf
000003a0: 7289 5498 5969 10c0 7b16 81e5 045e eb3f
000003b0: c14f 9ca3 ae64 1a40 1b6e c130 ede4 0c40
000003c0: 786e 892d 5a5c e7bf 1c15 30b8 a1b9 d5bf
000003d0: c432 d80a 26ca 07c0 882d fbb3 7241 0c40
000003e0: 0517 fe6e 09a1 0840 63dd 51d0 ff98 00c0
000003f0: 3bd7 d297 14c9 0740 fe97 1ef4 16bf 1dc0
00000400: 6447 70b0 5db1 fdbf c249 4508 d97a 933f
00000410: aeb1 a82c 9aa4 f43f b6dc b6ba 8b43 1ac0
00000420: c87f f5e6 cb21 05c0 9013 e0aa 1228 e53f
00000430: 080f 465a 4c2d debf ecba 09de f769 0a40
00000440: 0f58 ee7a 68b3 f4bf bb89 0f22 d3d1 00c0
00000450: 7641 8618 56c7 fc3f 94bc bb55 bcc9 fcbf
00000460: ac4b f020 4510 01c0 f4fd e587 25f8 f03f
00000470: ea46 0ca0 cdf8 acbf 8f38 99c3 729f e43f
00000480: 0f5c 1cfc 166f ffbf c50b 0686 3c5d f5bf
00000490: b686 3fa6 a083 01c0 fc60 e75a ee01 01c0
000004a0: 7acc 745d 5525 03c0 cb5a 5618 33e3 fa3f
000004b0: 7574 c11d f033 02c0 fb4f 9e38 7229 01c0
000004c0: b2a0 90d5 e8d1 0ac0 5593 0b09 9cf2 9bbf
000004d0: e2b6 550c e724 0240 f01d 36f9 1bc0 0dc0
000004e0: 4ff3 a5d5 7c9c f13f a584 b13a d337 1840
000004f0: 01c6 250c 0076 e23f 7a87 35cf 7ac6 eabf
00000500: 86dc 186c 9d60 0dc0 7bac 9c11 30a2 ebbf
00000510: 07be 9e56 f9da 0040 0e6d d275 0d14 eb3f
00000520: 2320 9613 85a8 0cc0 f130 9ba2 0cb2 1140
00000530: bb33 6355 9b8a f73f 2f1a a70e d8c3 a63f
00000540: 6a36 5cf1 fd76 1140 bec5 c787 495f a2bf
00000550: d00c 964b 3b17 f9bf ac37 992e 2b63 f33f
00000560: 58e6 0b88 7a0b 1040 64c1 d0b8 6de3 22c0
00000570: 04dd ee22 76af ccbf 24e0 f3f4 06ed fbbf
00000580: a3c0 0254 0b6c e53f f24d 862c a49a 01c0
00000590: f4ab cdac d2b8 acbf 49f1 a63e 27f3 2940
000005a0: ecd3 9a1c 5525 f53f 89d1 2d03 69c6 fdbf
000005b0: b592 4a55 4c79 f1bf 6ee5 d26f d87f bd3f
000005c0: 1684 7790 c17b aebf 3efc 4b2d 3bcf 0840
000005d0: d0e3 f0a2 4550 15c0 34fc 0e9f 462a d03f
000005e0: df39 28d1 e12e d2bf cb7c 8828 eb08 f23f
000005f0: 0ad8 8060 ad23 f5bf ab08 2705 186c 1ac0
00000600: 3739 a7cc 7850 d8bf fd2b 47da 24df e03f
00000610: 6f85 974a 684a 0140 bff8 bc72 0ecd 11c0
00000620: ef20 5726 08b3 f5bf e9bc 0feb 0dbd d93f
00000630: 9c28 339f 351b dcbf 40cd c477 9394 c6bf
00000640: 5f5d 7c13 038e f4bf 7f64 2fc7 9ab3 f93f
00000650: 80a7 6021 0314 b4bf 34bd 6fb4 6944 a5bf
00000660: 2bf9 cbe4 a494 dabf 5122 6083 810f ee3f
00000670: 24fe 2989 878a 0140 3095 0cf9 6c4f f03f
00000680: 6ca3 1878 ef5f 1140 902b 89e4 bac2 ee3f
00000690: 91db 8908 f2af e43f a091 1edb 2b3e ff3f
000006a0: ddcd 1d4f 838a ea3f 7bfa 8807 077d febf
000006b0: 879d 6724 a823 cbbf df01 e02a 1ee4 edbf
000006c0: 39be 53f3 76f6 0e40 97fc 132a 00b3 10c0
000006d0: 9439 7bc0 89e7 ea3f f2c1 398a 94aa e93f
000006e0: 0c0d d5fe a53f e7bf d8c9 b999 11c4 e43f
000006f0: 6bf9 9ac1 1c5a e2bf 1188 c15b 3e34 cd3f
00000700: deec 4896 e4af d13f ff00 5d92 f857 ae3f
00000710: 7986 b7ac a387 e9bf 6906 abf3 dc74 fbbf
00000720: 3674 94c5 1d27 1240 d2fb c493 6815 ffbf
00000730: bde3 78be 427f 0440 5e4e dfec 2047 06c0
00000740: c4f8 033e a175 d9bf ecb4 000d c8ca ecbf
00000750: 41ba 15f0 6a8f f53f 9e1a 753c df71 f13f
00000760: 6dc5 6770 804a 0140 7eb0 5c7b 0138 e8bf
00000770: 50e9 f1c6 ea57 0940 f5ba 5e7d 3598 0cc0
00000780: db94 f835 3b08 f0bf c64a d3a2 1394 0ec0
00000790: d854 c529 2261 1240 9f8e d2e9 b626 0dc0
000007a0: 50ca ee46 6473 d0bf e131 02a2 970d c9bf
000007b0: deeb de50 dfb2 d33f e8cb 7f3c 278d 1540
000007c0: 3f81 7570 3254 a5bf 5a8d ca32 7d3c 0ac0
000007d0: 3055 b78c fc2b 0140 4705 2ff1 c561 0e40
000007e0: 090d 6e5c 044f bbbf 7aa7 4579 2992 ebbf
000007f0: 62e8 e681 cc2f 05c0 6e82 d294 e180 ec3f

lstm.bias_ih_l0 f8 [32]
-1.0548854048035001 -2.5442952113335005 -1.7564478488954618 -1.066115991220003 -3.4597131958076277 -2.0735613791287943 -1.6802796857989033 -1.8080170552417905
-2.3647426082179552 -3.5841782160625297 -1.7638172362398574 -1.1037597206899377 -1.6976829353933727 -0.5532858866709471 -1.932853107178734 -1.0337739994329602
0.25214340423118997 -1.0758054429671962 -1.489685657194241 0.2868354074501076 0.11115310276613458 -1.0182555132045248 -1.5205111669469202 0.2096682086746557
-1.5536526468738006 -2.772926427616423 -2.2637077642354946 -0.7974528826291846 -0.7228878576517793 -1.9938207749667485 -0.5300087172194075 0.4095039388086375
00000000: 428a aa84 cfe0 f0bf d55f a072 b75a 04c0
00000010: 3f2b 420f 691a fcbf 4485 40a4 cf0e f1bf
00000020: 6a44 ac1c 7ead 0bc0 c9da 2c59 a796 00c0
00000030: 2b3b aaf3 6ce2 fabf bdfa ad4a a3ed fcbf
00000040: e707 2e2c feea 02c0 8931 e8a0 65ac 0cc0
00000050: 3857 1c6c 9838 fcbf 0616 f0f3 ffa8 f1bf
00000060: 7bde e794 b529 fbbf f0e1 929a 84b4 e1bf
00000070: d4df 3461 f7ec febf a350 f09a 568a f0bf
00000080: eecd c416 1e23 d03f 4872 a6c4 7f36 f1bf
00000090: 3483 afa0 c0d5 f7bf a450 95e5 825b d23f
000000a0: e2be 3a9d 8774 bc3f 4bf6 024b c64a f0bf
000000b0: 4cd6 7384 0354 f8bf d65f a269 68d6 ca3f
000000c0: 41ab bae0 c2db f8bf fa9c 060d f42e 06c0
000000d0: e8bd f8d0 121c 02c0 e7c8 5fe8 bb84 e9bf
000000e0: d346 69b7 e521 e7bf ba14 e99c b0e6 ffbf
000000f0: 2cac 61d7 d4f5 e0bf c90a 3102 5035 da3f

lstm.bias_hh_l0 f8 [32]
-0.5852434221137375 -2.7396034489572205 -2.000809417941009 -1.251274163104525 -2.9359298454342233 -2.3174675964842018 -1.814323696815301 -1.7991933078960423
-2.075224148267115 -3.352325386599422 -1.9999047872382727 -0.7811990550912311 -1.6084232709137851 -0.7602964176300293 -1.3032511454834783 -0.6680187905487971
0.5534342346100795 -0.7405667403544747 -1.3651118184525615 0.1010247742042621 0.30876354800502187 -0.9287519738742663 -1.2974267108493838 0.07875981908956478
-1.2928826381631826 -2.382419857070303 -1.6796263208606534 -0.6106219695463423 -0.8108107085260612 -2.1939809557842938 -0.7418616155615844 0.06205163018484771
00000000: 1caf c569 50ba e2bf 943d 8a36 b5ea 05c0
00000010: f6ae 3c5e a801 00c0 bcd1 8d0e 3805 f4bf
00000020: 2fec 6bc9 c87c 07c0 d583 8373 2c8a 02c0
00000030: 62df e248 7807 fdbf 6a87 09ec 7ec9 fcbf
00000040: e969 451e 0f9a 00c0 e9f5 e7f8 8fd1 0ac0
00000050: e4d5 8429 9cff ffbf d80d 2929 95ff e8bf
00000060: 6d33 2b0a 1abc f9bf f694 1f27 5954 e8bf
00000070: 9d37 85df 1dda f4bf 68a8 50f1 6860 e5bf
00000080: fb62 44b6 bbb5 e13f 467d 4a05 b9b2 e7bf
00000090: 8030 7a7d 7fd7 f5bf f507 4b75 c2dc b93f
000000a0: 4339 382f c8c2 d33f 5d55 3c0f 56b8 edbf
000000b0: 15e1 c082 42c2 f4bf ba82 3a7f 9a29 b43f
000000c0: 15a2 87b4 a5af f4bf dfa9 5b24 320f 03c0
000000d0: 948e 59d9 bfdf fabf f375 ad15 378a e3bf
000000e0: 72b6 8b4c 29f2 e9bf 771f 29e3 458d 01c0
000000f0: d3d4 1f92 54bd e7bf 7f64 9d34 3bc5 af3f

linear.weight f8 [2, 8]
0.8129651053289043 -0.1428843549561176 -1.6368165674482618 0.8674828848624854 1.785789309736461 -1.5239903962837305 -2.5266173571582384 -2.1716195914507104
1.4926475736278662 1.7236335348225567 1.0392631322167714 1.6988112690338826 0.4360870505302203 -1.479145782091706 0.9612065169644644 0.7951252123428837
00000000: aba8 8565 cf03 ea3f 27c3 d2d7 084a c2bf
00000010: 36dc ab91 6630 fabf 185f 8a77 6bc2 eb3f
00000020: 0dd5 adcf 9792 fc3f a74e f7c0 4362 f8bf
00000030: 3301 3429 8336 04c0 c811 a517 7a5f 01c0
00000040: 8df7 126c e2e1 f73f cda0 e5c1 0094 fb3f
00000050: f2f3 cc60 d2a0 f03f 813a a9b9 542e fb3f
00000060: 1b21 0fa9 d9e8 db3f 809a 81c4 94aa f7bf
00000070: ec0f 622b 34c2 ee3f 939b e76d aa71 e93f

linear.bias f8 [2]
-0.01736003378431099 -0.015613182062556363
00000000: 8dbc 7125 d4c6 91bf 46ea c2d2 cdf9 8fbf
