trained_NNs/lstm_derivative_with_input_ws4.pth (torch, 4000 bytes, 6 tensors)

lstm.weight_ih_l0 f8 [20, 3]
000000 ce 2e cf 65 32 e6 f3 bf 15 25 c0 91 bb 87 e0 3f
       -1.2437004067350474 0.5165689322176684
000010 79 1f 49 c8 74 b2 a5 bf a3 09 f3 5c 0f 08 d8 3f
       -0.0423771376122763 0.3754919440945292
000020 08 72 7e 32 fb bf d9 bf b3 73 42 8f f3 e8 dd 3f
       -0.40234260493323903 0.46734322538560064
000030 15 bf 2e 07 1e cd be bf 29 2c 9e 6c 3d 4b d6 bf
       -0.12031734156948588 -0.34834228141034146
000040 04 fa 9f 30 fe 37 d4 bf 22 f1 09 6f ca 90 ec bf
       -0.31591753719831694 -0.8926746529319056
000050 fb c8 cc e3 f0 36 e6 3f 2c 66 66 ff 93 97 e1 3f
       0.6942066621034252 0.5497531879693205
000060 1e 1b 74 82 0b 44 dd 3f e8 a2 40 20 26 12 c6 3f
       0.4572781347236957 0.17242886137798696
000070 64 de 54 68 9c 3e b8 3f 24 d3 65 c9 2b 5d 5d bf
       0.09470536753803455 -0.001792233238657911
000080 99 1a 6c 3c 12 1e d3 bf 34 df cb a9 b7 55 cb bf
       -0.298710402494558 -0.21355338850821115
000090 b3 52 23 a7 14 ef d0 bf 15 55 97 c0 d3 94 dd bf
       -0.2645923263747065 -0.46220868880966864
0000a0 6c 1d 8a a2 9d 22 90 bf ad f6 ad ed 73 cb d9 3f
       -0.01575704865038345 0.40304277621167267
0000b0 b9 3c 42 44 6f 80 cd 3f cf b7 a8 93 d2 c5 b3 3f
       0.23048201401659243 0.07723728280026808
0000c0 c3 1b 80 0c 44 be d0 3f 3b b7 d5 fc 82 bf d4 3f
       0.2616129037928056 0.32418894472981535
0000d0 b9 be 8b fc cd 90 bb 3f 32 37 51 bc 03 a2 c0 3f
       0.1076782933775985 0.129944292976171
0000e0 31 5a 45 62 a9 ee c1 bf cd 5d f3 ed f6 6d a1 bf
       -0.14009587572464136 -0.034042088076315126
0000f0 8f 91 db 3a 7b 39 ee 3f 21 cf 56 88 de 38 b0 bf
       0.9445167684139494 -0.06336775616256009
000100 53 6a 00 d5 26 d5 de 3f f6 c5 db 86 92 2b c1 3f
       0.4817597465604752 0.1341422232140272
000110 6f d1 04 13 ef 04 a6 bf be a0 d4 20 59 42 db 3f
       -0.04300639254725779 0.4259245701418982
000120 77 1d f4 39 8e c2 da 3f cf 51 73 77 fe af d0 bf
       0.4181247297242047 -0.2607418219097583
000130 be 82 76 11 a0 19 e5 bf b5 85 9b 27 7a 91 ef 3f
       -0.659378084285059 0.9865084432205352
000140 7c 67 87 5f 30 be d4 3f 63 74 9f 9d 71 16 d3 bf
       0.3241082127475392 -0.2982448615346753
000150 39 5b d7 56 c9 82 e5 bf 26 f3 dd 44 a3 7d e8 3f
       -0.6722151466482053 0.7653366417940546
000160 15 4c 81 3d e2 99 c5 3f 6a 23 42 b9 f7 b5 e9 bf
       0.16875865939309223 -0.8034628504111485
000170 c9 7c 7a 0e 11 93 c7 3f ab 9b 8b 15 5c 71 e0 bf
       0.18417561728435874 -0.5138378544623853
000180 da a3 46 17 b5 2a b5 3f 3a 50 ec 8f 25 f0 e1 bf
       0.0826829130006809 -0.560564786052516
000190 d2 33 73 c6 64 5b da 3f 37 fc ae b7 f4 fe c3 3f
       0.4118282258976339 0.15621813744471222
0001a0 4b 4b ca e9 d1 31 d0 3f f1 6f 59 95 89 d8 c4 bf
       0.2530407698733838 -0.16285819809388571
0001b0 89 5f 6e 66 6f 19 e2 bf ff b7 eb 5d 0a 75 ea 3f
       -0.5656048775299364 0.8267871698751604
0001c0 4a 1d a2 c8 69 11 c1 bf dd 7f 03 b7 37 98 c0 3f
       -0.1333439092306697 0.12964531360830636
0001d0 a6 df 6d 05 89 d4 95 3f b5 3f eb 5b 87 77 b1 bf
       0.021318570095416732 -0.06823011392702834

lstm.weight_hh_l0 f8 [20, 5]
000000 1f 0a d5 b0 da 55 b2 3f cc 09 1d c6 f8 72 c1 3f
       0.07162253205482515 0.13632116006381378
000010 5e 1e 08 44 82 80 dc bf 9a 0e 3c 8b 1c b5 d4 3f
       -0.44534355777475365 0.32355416867378894
000020 22 cf 1d 41 f7 04 e0 bf 19 4c bf 6c f6 29 d7 bf
       -0.5006061813169007 -0.3619361936554824
000030 05 da 69 a2 bd cc e0 bf 09 72 d0 86 e7 b3 ad 3f
       -0.5249927684915866 0.05801318665200845
000040 ea 55 aa 87 76 30 e2 3f fe 90 50 ee 16 6b b2 3f
       0.5684158944811177 0.07194655721884044
000050 6b dc b5 d4 f5 51 ce 3f 82 1e 46 92 02 bb cc bf
       0.2368762291550611 -0.22445709364204808
000060 ff 1d 2c 0f 81 f1 aa bf ad 31 51 6b 62 e4 9e bf
       -0.05262378034791126 -0.030168092537040603
000070 3c 6b 0f 33 ee d5 d4 bf f0 c0 b3 c8 04 9a d3 3f
       -0.32555727945662105 0.30627555465527134
000080 b9 c8 74 74 fd bf dc bf 3c 42 6a a1 40 aa c5 3f
       -0.44921814320253933 0.169258192840532
000090 ac d9 e2 3d 46 96 74 bf bf a4 bd 23 65 ed d5 3f
       -0.005026125318343604 0.34261444559394855
0000a0 f8 9f 67 7a 7b 40 c5 bf 89 4e d8 6d 1d 1a df bf
       -0.16603034474178435 -0.48596893050237405
0000b0 de de 5f a6 07 77 77 3f 28 06 89 93 5b cb d3 bf
       0.005728750116751972 -0.3092869702123573
0000c0 44 79 14 86 49 f8 d3 3f c1 e2 32 15 dc 05 e7 3f
       0.3120292481779823 0.7194652952230954
0000d0 e5 33 22 aa 85 a0 cf 3f d5 7d 8d 3f 22 bb e2 bf
       0.24708624656014347 -0.5853434792770097
0000e0 73 4b be 56 8f 99 e2 3f 79 16 4b 83 e5 45 b2 3f
       0.5812451070981822 0.07137903647807232
0000f0 59 83 44 c5 62 9f c9 3f f3 58 e5 ce c5 a4 ea bf
       0.20017656929214914 -0.8326138535437891
000100 4e 89 ab b2 e8 3f d0 bf 7e 4f 3a 95 b6 77 dc 3f
       -0.25390069435356544 0.4448067147543425
000110 f2 ba 50 3f a9 4b e2 3f 07 6e 30 8c 7d fe d5 3f
       0.5717359768512706 0.3436578625712347
000120 6d a1 94 7a b7 df d7 3f 34 8e e6 94 f6 4d cd 3f
       0.37302958460579455 0.228941748338103
000130 00 b9 f4 bb 22 2c d0 3f 5c 1f f6 82 1c 9b a9 bf
       0.25269382815430674 -0.050011530863286
000140 b6 dc 4c e7 1e 6e d5 3f a8 b3 17 e8 91 77 e6 bf
       0.33484623516001066 -0.7020959408815672
000150 b0 f9 3f ac 66 69 ac bf 5d 9c 28 bd 62 0d b5 bf
       -0.055491646315192766 -0.08223549955492744
000160 8e cf 99 04 ed b7 d7 bf 34 7c cb 39 48 ff e3 3f
       -0.37060094308184766 0.6249123696142136
000170 29 b4 de 26 1a c4 e9 bf 3b 35 44 52 eb 9b c3 bf
       -0.805188251417012 -0.1531957771007145
000180 35 c0 d1 68 07 56 d1 bf 7d 58 56 f5 89 2e db 3f
       -0.27087578998817047 0.42471550902099137
000190 ae 98 58 36 fe a5 e5 bf 97 d9 37 5e 4e cd ae 3f
       -0.6765128194281453 0.060160111428490363
0001a0 be 17 ec 90 4d db d5 3f 58 d5 a8 38 82 3f dd 3f
       0.34151019241869196 0.4570012620273096
0001b0 a6 91 f8 9a 35 23 d2 3f 47 f2 18 a8 7f 6b b8 bf
       0.2833990109814074 -0.09539029935781072
0001c0 0b a4 bb e2 43 4f dd bf aa 07 8b d7 ce fe de 3f
       -0.4579629625500849 0.48430224465493643
0001d0 97 7c 85 f2 b0 9b d7 3f 4a 5f fd 53 04 38 d9 3f
       0.36887763675435664 0.3940440006458529
0001e0 60 f1 2f eb 68 7b 9d 3f 8e 5d 32 46 ba 03 ac bf
       0.028791083674137297 -0.05471593958753394
0001f0 6c 9c ad 94 27 4b e8 bf 41 65 20 2d 7d b1 c1 bf
       -0.7591741470213385 -0.1382290335030039
000200 82 b2 69 77 09 e4 cb 3f 2f 7d b3 d3 ef 21 d1 bf
       0.2178966363020614 -0.2676963393586957
000210 f7 0b 33 ef 33 7b c1 bf 86 42 5e 61 68 75 d2 bf
       -0.13657235316904323 -0.28841599949468166
000220 35 30 e6 a7 d7 fe db bf aa 00 84 78 b6 a3 d0 3f
       -0.437429346050297 0.2599922348890781
000230 cb ae 9d 12 93 db 99 bf 13 29 56 21 01 65 b2 3f
       -0.02525167275545818 0.07185370506173099
000240 fe 38 8c 27 b5 b0 ce 3f 5c 8a 5a 27 8a 41 db 3f
       0.23976768904726237 0.4258752235711307
000250 92 8d 70 aa 24 50 db bf 42 46 33 4e 69 d6 e5 3f
       -0.4267665543031508 0.6824232604360037
000260 b2 bf 41 08 c6 56 ba 3f f9 bd c2 5d 25 33 a1 3f
       0.10288655950148387 0.03359333772220547
000270 dc bf d1 bc 69 bd b3 bf 42 cd 9b 4c bb 3d c4 bf
       -0.07710896358344094 -0.15813390007643063
000280 b1 72 72 87 95 46 b1 3f c7 cb 17 45 44 67 d1 bf
       0.06748327786267329 -0.2719278979049559
000290 04 17 7f bd 39 1f 95 bf 63 91 ca b0 91 71 e1 3f
       -0.020626928511567236 0.5451134159998613
0002a0 e4 c2 e7 41 40 af da 3f c5 35 e5 a3 be 9f df 3f
       0.4169464725119225 0.4941250420132202
0002b0 a3 78 6c e1 c1 d8 70 3f 7f 57 42 d5 0c 6d e4 bf
       0.0041129659137181555 -0.6383117833345152
0002c0 78 c9 74 88 fa f4 a6 3f d0 45 42 db 05 cf ca 3f
       0.044837788731814265 0.20944283681869402
0002d0 2a c7 bb 59 f8 d0 d2 3f 6a 91 b7 63 d5 ab ee bf
       0.29400452387845866 -0.9584757754897002
0002e0 c2 dc 2b cc 9c 47 b0 bf 8b 6a ad ff 11 90 d6 3f
       -0.06359271988536633 0.35254335373398565
0002f0 db 4d 23 a7 0c c8 d9 3f 08 2d 57 72 62 86 ca 3f
       0.40283504793225483 0.20722609122308477
000300 2d fe 18 1a 86 33 e1 bf 68 9a 28 11 72 bb d0 bf
       -0.5375395307273202 -0.26144076991696474
000310 8d 89 58 dd 30 f1 d1 bf 45 00 9b 9a 0c 67 be bf
       -0.2803461228924327 -0.11875990652606656

lstm.bias_ih_l0 f8 [20]
000000 f8 b6 8c fe fe 64 bd 3f 77 ef c6 fc 51 d0 a2 3f
       0.11482232775298573 0.036745607477739854
000010 1d f4 4f 8b bd 81 c9 3f d8 76 3f 2f 21 16 e9 bf
       0.19927186300620373 -0.7839513705073058
000020 43 0c 66 60 75 cf c3 3f d7 04 c9 33 9d f3 cc bf
       0.15476863104786007 -0.22618451145721138
000030 83 bc 5c 5b 7b 1e e7 bf 2b 00 04 5b bb d7 db bf
       -0.7224709305209135 -0.4350422276329506
000040 78 2a 81 7f 12 31 e9 bf cb 2e 72 06 38 e6 dc bf
       -0.7872402658770872 -0.4515514433812597
000050 75 a3 5c 5e 4f a1 b1 bf f3 44 7b b1 20 b3 d8 3f
       -0.06886764577633449 0.3859330876558282
000060 64 4b c3 ea 5a ee c6 3f e7 a7 d4 db a5 11 d0 bf
       0.17914902174978942 -0.25107714145508314
000070 bb 3d 69 ed 78 94 76 3f 63 e1 6f 42 14 bd c1 3f
       0.0055126880384501155 0.13858273738857027
000080 b8 72 dd e7 d1 95 de bf 09 de f2 e3 77 ec ad bf
       -0.47789428370542053 -0.05844473512246046
000090 4c 5e 18 a2 c1 ea d9 bf 48 e8 f8 ac 5f 19 d0 3f
       -0.4049533923111752 0.25154868976426714

lstm.bias_hh_l0 f8 [20]
000000 9a 07 87 41 fb af e0 bf d1 a6 28 bc 3f fc d0 bf
       -0.521482112868614 -0.2653960549820172
000010 f2 b6 0e c1 94 83 cc 3f 0d f2 81 76 ab bf d9 bf
       0.22276553560862272 -0.4023235947895792
000020 e0 47 e8 78 f8 6a e0 3f 71 b7 79 89 f1 7f e4 bf
       0.5130579339477173 -0.640618103510617
000030 71 4a 8a a6 fa 1b db bf eb f5 05 a4 76 e2 c0 bf
       -0.42358270896617173 -0.1319111157317104
000040 e2 62 8f f9 86 54 f2 bf 48 bb aa 6c 58 53 eb bf
       -1.1456365345422275 -0.8539240000153336
000050 92 ca 69 d3 8f 8e cc bf 0f f1 5d 72 94 93 a8 bf
       -0.22310064146912062 -0.04800094505387353
000060 f3 56 58 69 c0 52 bd bf 65 f5 16 1d d9 29 d5 bf
       -0.1145439393224839 -0.3306792053297925
000070 1e 96 b8 bb 58 c4 b2 3f 30 14 9b 28 f4 5b d3 bf
       0.07330851157220095 -0.30248741116912736
000080 66 36 8f 4c 6d f4 c1 bf 56 a4 12 37 cb 09 bc 3f
       -0.14027181852582088 0.10952444166709205
000090 bb 26 b8 08 d8 e1 dc bf 5a 23 91 32 12 73 d5 3f
       -0.45128441668985503 0.33514838159731186

linear.weight f8 [2, 5]
000000 fe e8 bb 3c 11 ea d6 3f 63 86 91 20 f6 ce d7 3f
       0.35803633624131226 0.37200692348969805
000010 eb 5a 1a 71 f7 3d dd bf c3 8e 3a ec 20 85 c0 bf
       -0.4569071392556185 -0.1290627625904702
000020 dc b6 1d 2c 05 88 b5 bf 9e df 76 1c a6 ac c4 3f
       -0.08410675360729719 0.16151882543431112
000030 8d 22 17 e4 8f e9 ae 3f ba 13 11 31 84 cf bc 3f
       0.06037568721109663 0.11254144857328088
000040 9c 44 99 4c 93 8a c5 3f 1a ec 92 a9 12 5d d9 bf
       0.16829148521586468 -0.39630571899368905

linear.bias f8 [2]
000000 56 32 4e c3 e4 25 6c 3f 13 4e e1 3f c6 41 95 3f
       0.003436037828981757 0.020758721970493065
