trained_NNs/lstm_wsize_2.pth (torch, 7287 bytes, 10 tensors)

lstm.weight_ih_l0 f8 [24, 3]
0	0x3ffec148b5fc5711	1.922188483125357
1	0x3fc533f1caf4fbf5	0.16564772043236045
2	0x3ff73a91cd4bfa97	1.4517992038160281
3	0x40010d3b1c0eeedc	2.1314603988702014
4	0x3fb14910a4c717d0	0.06752113364117851
5	0xbff36617b5beb0f1	-1.2124249553117432
6	0xc000c6f677b1694f	-2.097149787046113
7	0x3fcf679227124b40	0.2453482332972161
8	0xbff7bbf82975eb94	-1.4833909625583361
9	0xbfefa826b91955b3	-0.989276277085699
10	0x3fee34580c3ab552	0.9438896406988226
11	0x3fe56d3041ea3bd8	0.6695786750223034
12	0xbfd91f6838bea9d4	-0.3925419382236701
13	0x3fb373fd223421f4	0.07598859868097191
14	0xbfe10289a9c915bd	-0.5315597835657894
15	0xc0024d7e5928354b	-2.2878386464496194
16	0x3fdc8ca6011aba77	0.4460845003876907
17	0x3fe2406d19fbacaf	0.5703645236475462
18	0x3fe2d54d970a5bba	0.5885379743584658
19	0xbfccfb0616c736a3	-0.22641063797202773
20	0x3fe3d763dc68d6ca	0.6200427346108992
21	0x3fd3df3ed64177b7	0.31050082133685514
22	0x3fc9468594df60d1	0.19746465462845333
23	0x3ffa34f5f7ad433c	1.6379298853755264
24	0xc000b87bf2bdc99e	-2.0900801624458856
25	0x3fc85bd64a16780f	0.19030264489714496
26	0xbfe2eb9edd175372	-0.5912622755227928
27	0x3ff57ec0839d1f6f	1.3434453145182166
28	0x3fe56aa49bff42a2	0.6692679449862065
29	0x3fb992c2ef8b080d	0.09989565227718362
30	0x3ffaec4ae651ca45	1.6826886174063855
31	0xbfec0b6a301e011a	-0.8763934078015467
32	0x3fed1ab4f0befcd6	0.9095101072379304
33	0xbff2687f65a1a1a8	-1.1505121202445512
34	0x3fd38a33ecedbd9c	0.3053102315670573
35	0x3fec1bcf0894d008	0.8783946197131636
36	0xbfe5d7a72c18cb32	-0.6825748311297046
37	0x3fe868ecd9b48659	0.7628082515768241
38	0xbff1f3d87e418935	-1.1220326358675952
39	0x4000092042500ba0	2.0044560604741974
40	0xbffaf59782dd2a6d	-1.684958945452901
41	0xbff567df2db4d640	-1.3378593240171455
42	0x3ff41c1f801c76d0	1.2568659786551741
43	0xbff21299f064f84c	-1.1295413389593874
44	0x3ffc4a712550487a	1.768174310451768
45	0xbff31306f4acf3cc	-1.192145305408519
46	0x3fe7042c0a40a076	0.7192592811816343
47	0x3ff8d224c058c12f	1.5513045800726777
48	0x3fce1421ab7c43a6	0.23498936532317066
49	0x3fd86a71254feeb1	0.38149670261166607
50	0x3ffa3f44c6a6556e	1.6404464492564688
51	0x3ffb15abfdcff0f1	1.6927909769574934
52	0xbffacc149ca71e9c	-1.6748243445635245
53	0xbff1895806e11e5a	-1.0960312145924918
54	0xc00050d85415e13a	-2.0394751137902434
55	0xbfeb75154fba8627	-0.85804238864893
56	0x3fea15ef53d29a80	0.8151775967752002
57	0x3fffa2e979321591	1.9772734388546704
58	0xc0065e3306cdc2b9	-2.7959957629721797
59	0xbff13bcf5a007c11	-1.0771020427416753
60	0xbfe7a304feeb9f67	-0.7386498431123812
61	0x3ff88c5a5ee86bf1	1.5342658717479447
62	0xbff212795fc339f5	-1.1295102825857815
63	0xbfd76c3d81ddd1e4	-0.36598146135591336
64	0x3fee800a163718cb	0.9531298097506576
65	0x3ff36313ff6a3a1d	1.2116889931818442
66	0xbfe8039315b765d5	-0.7504363464496985
67	0x3fac90dc749d1631	0.05579270289903738
68	0xbfe0b5b709269531	-0.5221820048069842
69	0x3fe535fa4e45ed38	0.6628390816471557
70	0x3ff74ae3c6ed26cf	1.4557836313783132
71	0x3fd21913ce45c490	0.28278060096551716

lstm.weight_hh_l0 f8 [24, 6]
0	0x3fcbd5451feaa01b	0.21744598444388505
1	0xbff00667b79e6a61	-1.001563756237964
2	0x3fc9592a44b5fdbb	0.19803360323929362
3	0x3fea735c0f6a82bb	0.826581983670699
4	0x3fedc89d07bb5cff	0.9307389403356011
5	0xbfeb7d7c5c288cad	-0.8590680885285075
6	0x3fe5d351addb383a	0.682045783579958
7	0xbfa297df3891ad08	-0.03631494107761496
8	0xbfe6f02e599c09af	-0.7168189764200202
9	0x3fe659850e54addb	0.6984277038476948
10	0xbfeb0e5cfe6d8392	-0.8455033273022414
11	0xbfe65d812be1f1ec	-0.6989141327936159
12	0xbfe209f635d91c51	-0.5637160350532985
13	0xbfc1967e01b3e02f	-0.1374051578820867
14	0x3fbde3b62d4cbbcc	0.11675585370970437
15	0xc00099736ccc3ea8	-2.0749271869497825
16	0x3fd76d0c8024ac05	0.36603081239690055
17	0x3fdaabc2b1580f78	0.41673343008755337
18	0x3feaac1d640fc160	0.8335101084067382
19	0x3fe6af617458526d	0.70890877460131
20	0xbfedd6b038e41e01	-0.9324570761827432
21	0xbfd95d4a83bf6453	-0.39631903520564044
22	0xbfe2330d3144865f	-0.5687318765887531
23	0xbfc023fa4c69866e	-0.1260979531389696
24	0xbff78974689295b8	-1.4710582814089843
25	0x3f77db186b64236b	0.0058241800200072675
26	0x3ff055e7cf031a91	1.0209730230723475
27	0x3f8d0d62a2d87799	0.014185686678555064
28	0xbfd72598d37824ed	-0.3616697373514189
29	0xbfcfa16b4b4764c4	-0.2471136205265677
30	0xbff08a14da92fa0f	-1.033711293988407
31	0x3fd07e9e29300afb	0.25772813818200263
32	0x3fdf86ff28844e17	0.4926145454093968
33	0xbfd17cfc7e8053e3	-0.2732535586704314
34	0x3fd636869f535f77	0.34707799491069785
35	0x3fe484edd71eaab6	0.6412266923483319
36	0x3fd9fe6b15e66c39	0.406153460871511
37	0xbff44565c19bd64c	-1.2669427454797129
38	0x3f9e1fea63aabe33	0.02941862328833462
39	0xbfc30a8b627fdf03	-0.14875929173989996
40	0x3fdb0fc2b0aaf748	0.4228369450828393
41	0xbfed382082bd833c	-0.9131014398118178
42	0xbfcec18b490daa41	-0.24028149668750312
43	0xbfeb4324c59a80a8	-0.8519462451404438
44	0x3ff335fedd391380	1.2006825105210908
45	0x3fe9856ac82491ac	0.7975362690963741
46	0x3fdd9668a606da9c	0.46230522359420845
47	0xbff85c8ffecfee19	-1.5225982621767626
48	0xbfe7341f005abd73	-0.725112438862125
49	0x3fd244a22c010f5e	0.2854390554168641
50	0xbf945ebfcd38fb10	-0.019892689610283176
51	0xbff38598ae998812	-1.2201163120557834
52	0x3fad8ea13c8a7839	0.05772880424522992
53	0x3fc27ffd210b2a02	0.1445309077592612
54	0x3fe5af3d0c7aef75	0.6776414150003648
55	0x3fe5e2f34b26fc97	0.683953902036495
56	0x3fd33c474b66bd61	0.3005541073170744
57	0xbff04ec8fe4c0384	-1.0192346509431625
58	0xbff09119999894ac	-1.035424804672668
59	0x3fd27280ea7e49e6	0.28823874377954295
60	0xbfec62a531688790	-0.8870416607862683
61	0x3ff32a79d4f90d62	1.197870094228016
62	0x3fda2ee977d8ab96	0.40911328033205885
63	0x3fc83f4b62164d73	0.18943159379396554
64	0xbfd6a0de2e7d224f	-0.3535685972206339
65	0xbfdae25281f8acb6	-0.42006361668127157
66	0xbfc7a4a7635bc9ae	-0.18471233703128348
67	0xbfe68d3cac2747db	-0.7047408449527625
68	0xbfe6d9a84c8a0f48	-0.7140695090206259
69	0x3fda044134a5b6b2	0.40650968686427824
70	0x3fee99a9edaa6000	0.956257785978778
71	0x3fb97d85d7d2cc7c	0.09957157630087637
72	0xbfe927566db61877	-0.7860519545363464
73	0xbfd70aceaa294b11	-0.3600346242648565
74	0x3fbe890f499796f9	0.11927886530574118
75	0xbfc3a3820593aece	-0.15342736503895654
76	0x3fcf2612d50d683e	0.24334941294620366
77	0x3fdf2ca57a4ebf5f	0.48709999984838775
78	0xbfa90cea4d4f3049	-0.048926660477804314
79	0xbfd4691ac83ea2b6	-0.3189150767816885
80	0x3fdbe0e48da55382	0.4356013663539714
81	0x3fd206767fe05c4e	0.28164446342401994
82	0x3fb6aaf723b4e845	0.08854622480149128
83	0xbfa0f8b042eba3f1	-0.03314734284305832
84	0x3fe440551aba7cc8	0.6328530809440958
85	0xbfeda08cdf94fe6f	-0.9258484236560899
86	0xbfed987c5c39c014	-0.9248639870911597
87	0x3fd63c3e291546c2	0.34742692958853294
88	0xbfd7b7d3dc3db2b0	-0.37059494502936285
89	0xbfe240dda8ca9401	-0.5704181954102979
90	0x3fcb538f0d9816de	0.21348751224302637
91	0x3ff001edc1f39783	1.0004708839637437
92	0xbfd73b00f75d0492	-0.3629763045938229
93	0xbff13dbd13739bb6	-1.0775728950336378
94	0xbfe3b883ee5f9d6d	-0.6162738471729604
95	0x3fcfdb2b53c81e25	0.2488760146227246
96	0x3feffc79dc85ef94	0.999569826802587
97	0xbfc7cbedd0c8b067	-0.1859109181835976
98	0x3fccf5dfd904d0bc	0.22625349136945327
99	0x3fcfd2f2502f769a	0.2486250773935595
100	0xbffbc3d46563c810	-1.7353099785364101
101	0xbfb4b5d398be6d5d	-0.08089945296381047
102	0xbfca6a1f5842217c	-0.20636359986771058
103	0xbfe46a5522560d37	-0.6379800482394903
104	0x3fc2b32bef584a14	0.14609288393747077
105	0x3fe6bb1b059f4eef	0.7103400335131179
106	0x3fe8fc59288ad7d4	0.7808042327731024
107	0xbff30eb698e0c6dd	-1.1910921069906444
108	0x3fd5058703eb1797	0.3284623659386567
109	0xbfe7720e56b97257	-0.7326728528819996
110	0xbfd6eb9f95fceeec	-0.3581313099600567
111	0x3fd1bc0cf7d91fe9	0.27710270122452
112	0x3ff737314e3ca14c	1.4509747558714308
113	0xbfe3ace49881ec3a	-0.6148550966894455
114	0xbfef52a314ed8f67	-0.9788375290631678
115	0xbfc21c26c16581a7	-0.14148411219777055
116	0x3fc55179fa9f3625	0.1665489648570865
117	0x3ff201aa6dd16bb4	1.125406674362904
118	0xbfc2cd426a141658	-0.14688902072537036
119	0x3fdb1232109a5348	0.4229855692040485
120	0xbfdd7b6deb5f4237	-0.46065853105122606
121	0x3fe1b49d6e56d6c4	0.5532977252066407
122	0x3fb66bf086a21fd9	0.08758452689119113
123	0xbfe8339781832334	-0.7562978295837639
124	0xbfd0b6f1eabb7186	-0.26116607592646124
125	0xbfde1e2d8ce5e9ec	-0.4705919147451414
126	0x3fe7dd858dda5189	0.7457912226259832
127	0x3ff330ecb0e6152f	1.199444476137909
128	0x3fd4abd9d14374a2	0.32298894344223517
129	0xbfe1a2d9e9a3dff8	-0.5511292994769965
130	0xbfebd65547d221e8	-0.8699137118101676
131	0x3fe46d478bc8d445	0.6383397798696328
132	0xbfefcc1d566ff112	-0.9936663330295537
133	0x3fc48795ab7b76bd	0.16038771508367758
134	0x3febb2f8726b6b29	0.8655969843633545
135	0x3fe515a43965c54f	0.6588917847676984
136	0x3fdcfa595457f049	0.4527800868670551
137	0xbfc236269c70da4d	-0.14227755202019168
138	0x3fe579c2f56097ee	0.671113471272063
139	0x3fe5978b9e0f3f45	0.6747491919613614
140	0xbfdd94905bde7aa5	-0.4621926209601191
141	0x3fd73f7b0d3558e7	0.3632495526302492
142	0x3fe44fc5b1ee9345	0.634737823031721
143	0xbfc6f267db869ca3	-0.1792726346877532

lstm.bias_ih_l0 f8 [24]
0	0x3fb28ab855a5040d	0.0724292000859494
1	0x3fd28ce62196ded5	0.2898497894307018
2	0x3fd176ece6d9d41a	0.2728836302188157
3	0xbf9fbbf2368bc3b3	-0.030990395144673232
4	0xbfde0d5d983b38f8	-0.4695657717355881
5	0xbfb479773d312f64	-0.07997842067669364
6	0xbfda4556fd2ff242	-0.4104821655780918
7	0xbfebfc925021b84f	-0.8745814862320546
8	0xbff43bad09988242	-1.2645693182786464
9	0xbff4a992eba864ae	-1.2913998799688602
10	0xbfde50e04a857e7a	-0.4736862876652378
11	0x3fd447e86cba6e37	0.3168889104651699
12	0x3fd933cee1d4ac0c	0.39378711751732065
13	0x3fab5ad9a269113a	0.05342750651883184
14	0xbfd404c4b62359bd	-0.312791040295817
15	0xbfc99214363f8e7b	-0.19977047585335925
16	0xbf980d1f30121089	-0.02348755579852527
17	0x3fd0b1cccdcd83ef	0.26085205171517506
18	0x3fc3199c2568927a	0.14921905352197823
19	0xbfc43fe8f5afc51d	-0.1582003783837899
20	0xbfda6b3db0c30a05	-0.4127954698743966
21	0xbfe658df0019f578	-0.6983485223751549
22	0xbfc463814d4e8661	-0.15928665423148217
23	0x3fe882aa540ead47	0.7659503595108753

lstm.bias_hh_l0 f8 [24]
0	0xbfd42c23bf11a51d	-0.31519406947207235
1	0x3fddaae54f91851e	0.4635556485209963
2	0x3f99723270c7bfdd	0.024849689611016735
3	0x3fa3c70b131d646a	0.038627954562522174
4	0xbfd6b8e92927a320	-0.35503605860735554
5	0xbfce79250d1c8ff2	-0.2380720438023896
6	0xbfcf16b0cf632def	-0.24287996412600374
7	0xbff2e3091d9deb7b	-1.1804286152753025
8	0xbff3f2d2d473f239	-1.2467830943052276
9	0xbff611f4cf08ac2e	-1.3793838584194975
10	0x3fc0136e86edc851	0.1255930098373619
11	0x3fd701f965b8fffb	0.3594954961190521
12	0x3f9b3d78af8bc708	0.026601682390668763
13	0x3fc66001cb3149d4	0.17480490132818594
14	0xbfcf570398d296fc	-0.2448429580883199
15	0xbfb6a6801283eaff	-0.08847809268983652
16	0x3fe34459ff1f0d25	0.6020936949575214
17	0xbfa70377b5d4cdb5	-0.044948330827902984
18	0x3fe85259534bf0f7	0.7600523592841729
19	0xbfe3064ce2a34af6	-0.5945190836449388
20	0xbfdbcb46f51fafc6	-0.4342820543085931
21	0xbfec19c93714b547	-0.8781477046774534
22	0xbfb05647b0134ea0	-0.06381652878490707
23	0x3f8a82944a0a10e4	0.012944372663021793

lstm.weight_ih_l1 f8 [24, 6]
0	0x3fe13a6a08936c1e	0.5383806388375694
1	0x40060f41f70792d4	2.7574500369249595
2	0x4007db5a2f6908fe	2.9821056083611657
3	0x40037349ca029a84	2.43129308529325
4	0xbff26eeee7a8135c	-1.1520833062251858
5	0xbff97b658f6b6b21	-1.5926261522606142
6	0x3fe231d24b6a728f	0.5685817215886163
7	0x3ff152380456151d	1.0825729531655448
8	0x3fab24003b32c856	0.05300904009472222
9	0x3fdf82a58c82e48e	0.4923490402393974
10	0xbfe564257dd31873	-0.6684749085914191
11	0xbfed8ea080730da9	-0.923660517576015
12	0xbfddfec9ac92fe62	-0.46867601254414215
13	0x3ff53da46d1f8c87	1.3275493872286306
14	0x3fb6ebf4a0fecb0a	0.08953789644764867
15	0x3fe29522185fece2	0.5807047344273111
16	0x3fcf3c3e8011b360	0.24402600530029428
17	0xbff122bf67209454	-1.070983317223427
18	0xbfeec3e3a515817e	-0.9614122604653372
19	0xbfb142a799bae669	-0.06742331984687557
20	0xbff14031610a7b54	-1.0781720915471924
21	0x3fdd75f018053f92	0.46032335611106945
22	0xbfd93b69299f5d34	-0.39425114693354435
23	0x3fd2d1f43be09be5	0.29406457755470533
24	0x3fc836fa8ae7f21c	0.1891778162243022
25	0x3fff397d10fbe8ad	1.9515352881849524
26	0xbfd0c8994f326ef8	-0.26224358305056183
27	0x3ff5940ce3478555	1.3486451032734597
28	0xbff89e89f8475adc	-1.5387057970416924
29	0xbfb95e80706ece6e	-0.09909823174421614
30	0x3ff6a70a804ac0c1	1.4157814990431208
31	0x3fef962dd61f53e2	0.9870824033811199
32	0x3ff08fa94c31a1ac	1.0350735641787692
33	0x3ff93121ce5dbbd9	1.574495130651249
34	0xbff0dc63d5c24818	-1.0538061475713274
35	0xc0071c42b9255634	-2.888799139453818
36	0x3fd413f2a097dfc7	0.3137175148290194
37	0xbfeaa8155a86d5c2	-0.8330179946994394
38	0x3ffb039afc51cc94	1.6883802276832158
39	0xbfb6ebc03b7730a6	-0.08953477336689505
40	0x3fb829325ec5822c	0.09437861264951469
41	0xbfeee6db4d2544be	-0.9656807429074872
42	0x3fc792ddbb5d86cd	0.18416949890802528
43	0x3fb719d20aa15e7a	0.09023773917703606
44	0x3fe17f5e28d0a347	0.5467978284042169
45	0xbfd98a5719230a7c	-0.39906861738942445
46	0x3fe0ea3c304ed71c	0.5285931533350978
47	0xbfc8b5d56b12bedf	-0.1930491230791551
48	0x3fd6b65aa4ca6ae0	0.3548800095829119
49	0xbfe412119fed4f0e	-0.627205669743917
50	0x3fe3e08f40026e99	0.6211620569406079
51	0xbfd55f8d06591815	-0.3339569627754611
52	0x3fdc159722a1cb37	0.4388177717402643
53	0x3fb963f4ac87537e	0.09918145382046181
54	0x3fd7f203e7fc6a0e	0.37414643912202983
55	0xbfe986a3c5a16434	-0.7976855144471586
56	0x3fee3ef23d98d711	0.9451838687006974
57	0xbfd832a7e198c673	-0.37809178381858216
58	0x3fc81beb51e72892	0.18835202693145853
59	0xbfe7e2a993b856b7	-0.746418751254814
60	0xbfb3c1048237d180	-0.07716396502639178
61	0xbff26618ed225da3	-1.1499261153274822
62	0x3ffe4e07ea0d541d	1.8940505163821009
63	0x3ff44c36b5bbd643	1.2686068629240175
64	0x3fff12fed81a78af	1.9421375695742815
65	0xc00181a27c81ebf4	-2.1882981993817285
66	0xbfce130c995c5cbf	-0.2349563359100326
67	0x3feb2b5c07cd272d	0.8490429069872555
68	0x3ffaf986e40bc568	1.6859196575208788
69	0xbff230efdd7aeabe	-1.1369475032394543
70	0xbfc2d9a97d1b1328	-0.14726751907996882
71	0xbf97de5a3c6ca17d	-0.02330914491463564
72	0x3fd7c4ab99076b7d	0.37137880272137364
73	0xbfecfd365f2f7996	-0.9059097155657578
74	0x3fc53b0f51f6f1f8	0.16586486341647322
75	0x3fd2570706913eec	0.28656173364014026
76	0x3fecc21c27c006f2	0.8986950661057718
77	0xbfe9a98133224adb	-0.8019414900503209
78	0xbfc4f2cba2a00f64	-0.16365952912030501
79	0x3fc16c3a42987186	0.13611534358723193
80	0xbfe1d18fef577894	-0.5568313288347491
81	0x3fc284fd3e0451d0	0.14468350914161343
82	0x3fd4003f96454ab5	0.3125151603209518
83	0x3fa341bf9880c68c	0.03761099564179657
84	0x3fe037c3a0073d0e	0.5068071485092405
85	0xc00047696f6c7aca	-2.0348690705280648
86	0xbfed4e3ecec23b31	-0.9158014333969274
87	0x3ff22a7c0723bc13	1.1353721884622743
88	0x3fd873dc6ff86082	0.38207159933654833
89	0xc000df51d3a43c0a	-2.1090427908416176
90	0xbff9d066a6225fa7	-1.6133791436786653
91	0xbfdcc53e94e7d2ee	-0.44953884641226594
92	0x4000c0945decdaa7	2.0940329873950136
93	0x3ffb813827e7db4a	1.719047695046998
94	0x3ff8a480a75d397c	1.5401617562925756
95	0xbfcb929ffa10114a	-0.21541213712783708
96	0xbfedcd372b044a6a	-0.9313007202311614
97	0xbff49911bc3bbb15	-1.2873704293121524
98	0x4000f7ca3f45f761	2.1209912245966938
99	0x3fe945a08fdc2d83	0.789749413468073
100	0x4002a481f81a0c92	2.3303260214757495
101	0xbfd5fe26c5e79448	-0.34363717390653337
102	0x3fee61e51f994c3b	0.9494500748791163
103	0x3fef6a71fde87f59	0.9817438086647413
104	0xbfde760692cfb3e1	-0.47595371567768835
105	0xbfdf7fe985853d88	-0.4921821407233087
106	0x3ff5700131343267	1.3398448869731057
107	0x3fee8000b68ecdf9	0.9531253400404572
108	0x3feca17074e149e7	0.894706943780247
109	0x4008b2fc38b81886	3.087395136945875
110	0x400a3b5107d97f7d	3.278963147473347
111	0x4005cf73b9b42845	2.7262949474434515
112	0xbff03846d31acfb9	-1.0137394186285589
113	0xbffad7df5bfe9f05	-1.6777032464542014
114	0x3fd31a8b313670a4	0.29849510007785285
115	0x3ff350b6b535e3e7	1.2072054937873362
116	0xbfb5039dfc26d068	-0.08208644300504064
117	0x3fd06b900633e9bb	0.2565650997709345
118	0xbfe226d9e68db663	-0.5672425749778082
119	0xbff2c9dc484aa5d7	-1.1742823432817795
120	0x3fcd2796ce9b175f	0.22777066314864222
121	0x3ff415fced138840	1.2553681622307664
122	0xbfd0a4ff307151f0	-0.2600706074784105
123	0x3fe70e7fd8221885	0.7205199452735235
124	0xbfc8cbc56d44b9d7	-0.19371860347150857
125	0xbfedd37d66a006a1	-0.9320666317364222
126	0xbff1b9305253340e	-1.10771209867676
127	0x3fb3a53c88af7780	0.07674005829855268
128	0xbfeacf607a23c746	-0.8378145585577179
129	0x3fdbef8cb2438019	0.43649594696580746
130	0xbfe08e56978bb915	-0.5173752746466415
131	0x3fb94ea33edc221a	0.09885616573968328
132	0x3fe4165e4a01b976	0.6277305074161592
133	0x4002169cfcb252d2	2.2610416166229266
134	0xbfcb7cc3b07363d8	-0.21474500766524218
135	0x3ff0b68537c414f5	1.044560640178415
136	0xbff2dd3bf5af2292	-1.1790122601543414
137	0xbfd7c7764a408760	-0.37154919863870894
138	0x3ff0b35a95dab372	1.0437875608142488
139	0x3ff1ae8c53eea61b	1.1051142958261895
140	0x3fe44691c00caa27	0.6336144209829556
141	0x3ffa3a79306d4765	1.6392757312464366
142	0xbfeedfb1a6754ea4	-0.9648063899171189
143	0xc0078ff080553aca	-2.9452829385767005

lstm.weight_hh_l1 f8 [24, 6]
0	0x3fd2c681dde854d4	0.29336592360170965
1	0xbfec2744ace1a33c	-0.8797934891309533
2	0x3fd46261a4a6aff3	0.31850472525797996
3	0x3fe44b5cddfddbfe	0.6341995559477025
4	0x400e5082c985b20f	3.789311956780018
5	0x400049a6e9bfe88f	2.0359628926935964
6	0xbfe2c7959129960a	-0.5868633113101975
7	0xbfbc466ba3485ff8	-0.11044953094858545
8	0xbff24109dd6682c9	-1.1408785484747332
9	0xbfab3716c32eb070	-0.05315467007253083
10	0x3ff766cd3d6e717c	1.462598075834733
11	0x3fea5949fa8d1bc4	0.8233995336130353
12	0x3fd7c59060504023	0.37143334775555753
13	0xbfd5df0c96654730	-0.3417388409335329
14	0xbfef61f19469e563	-0.9807060145096042
15	0x3fe4fb6ff72b4f2b	0.6556930377505287
16	0x3fd0a9feccd358cb	0.26037569048402237
17	0x3feba620f9f2e896	0.8640293962300969
18	0xbfd933e36ea57fd1	-0.39379201703377215
19	0x3fcf0ac866029489	0.24251656514130485
20	0x3fc6f70648cfd89f	0.17941359095829498
21	0xbf87d1241b0b88da	-0.011629373622274054
22	0x4001f6d94446779a	2.245531590843666
23	0x3ff20018b4c7c8ea	1.1250235616430992
24	0x3fc2447ba3dced61	0.14271493435976892
25	0xbff3e1d74b8402d9	-1.2426369619208144
26	0x3fec85e9308a4780	0.8913465450334428
27	0x40060e68dac0ad0d	2.7570359315919917
28	0x4010035c6368a6a5	4.003282120954883
29	0xbfd58083a1f45e74	-0.3359688836658059
30	0xbfe77c409c9c4a92	-0.7339175280379371
31	0xbfdfa6932465c79f	-0.49454191736651326
32	0xc012019f497c8968	-4.501584194398994
33	0xbff0a8f21ce310cb	-1.041246521796938
34	0x3ffbb9dde4e6b0ae	1.7328776303720974
35	0x3ff5ee8b5f943794	1.3707383855394015
36	0xbff4d682148451f7	-1.3023701478424508
37	0xbfe1184f3bd70db7	-0.5342174690962825
38	0xbff3387f25b65b60	-1.2012931321275673
39	0xbff48d59cca901a8	-1.2845094675577489
40	0x3ff2539f08cc2eb6	1.145415338864877
41	0x3ff670d2b79b7736	1.4025447055968931
42	0xbfe6bd1e79f91391	-0.7105858213695787
43	0xbfd706fd01944b91	-0.35980153230883
44	0xbfe6feb8de77cc79	-0.7185940117909829
45	0xbfdb4b8ae9a54f12	-0.42648575608221606
46	0x3fe21a20fcdb371a	0.5656895578956409
47	0x3fd7a4273d162498	0.3693941208408176
48	0x3fb21ecae4d229ee	0.07078235708664923
49	0xbfa9b5b4ca73af9e	-0.05021443339668895
50	0xbfefd86045c4eea0	-0.9951630938225726
51	0xbfe176bb6ce57e01	-0.5457436682590356
52	0x3fd4c7081bb40949	0.32464792924306046
53	0x3febcdba7c0908f1	0.868863336807662
54	0xbfe0bf7176d0d4de	-0.5233695335979538
55	0xbfbd1c2227f98884	-0.11371053195901665
56	0xbfd665bcecccf33c	-0.34995959401185295
57	0xbfe2b45c55efdb97	-0.5845166853385874
58	0x4001a850ebd6b442	2.207185595025778
59	0x3ff7fe1aa34b7894	1.499537122602793
60	0xbfe82575884a4dbf	-0.7545726453703806
61	0xbfde37b9b4e147d1	-0.472151209488513
62	0xbfd45061061b4cfc	-0.31740594478942774
63	0x4000a954a01599ab	2.0826809412567022
64	0x40060ff5fd054ea1	2.7577934043163883
65	0x3fe05f6fdfae5106	0.5116500252502483
66	0xbffa269f1a57b536	-1.6344290761001736
67	0xbfdad2052343b4b3	-0.4190686077479981
68	0xbff9b6b3d332abc5	-1.6071050882262494
69	0xbff06a575522fc95	-1.0259621930743255
70	0x3fed6bb377086535	0.9193970990046753
71	0x3ff6a523b7b18f6b	1.4153172660380402
72	0xc01276ab0a431e63	-4.615886841150856
73	0xbfe7115c6e52e752	-0.7208692698252241
74	0xc00869ff74c71b94	-3.051756775213514
75	0x4000dfbb4156275e	2.1092438797394797
76	0x3fcbd56ade9cfafd	0.2174504839876689
77	0x400d236744611ce2	3.6422868101250154
78	0xbff050f62a9f69ae	-1.0197660126637902
79	0xbff34bd2a1c870e3	-1.2060114211699833
80	0xbfdb4b84edd15aec	-0.42648432945627124
81	0x3ff51de97a55ef99	1.3198027399766714
82	0x3febb6329634c8cd	0.8659909185137394
83	0x3fed661af8f5f8ac	0.9187140333667876
84	0xc009bfa4c043395f	-3.218575956393735
85	0xbfec4d6be0f89ff0	-0.8844508546799243
86	0xbff4b15ce8e0a776	-1.2933014961986067
87	0x3ff9f8f684789e2e	1.6232819723753766
88	0x3fe6477aa81ddabb	0.6962254794624053
89	0x3fe59ec5fa2940eb	0.6756315122566127
90	0xbfe97fe5f835ccd1	-0.7968625877241725
91	0x3fd499b8ab564efd	0.3218824074949536
92	0xbfdba335527b5d82	-0.4318364434706937
93	0xbfdae234a3795f51	-0.4200564953257429
94	0xbff1987dd5ae07e6	-1.0997293803088666
95	0x3ff40265cae3d222	1.2505853581798267
96	0xbfc88786807cbe07	-0.1916359069232245
97	0x3ff5d0ad93265f09	1.363446783832787
98	0xbfca2173cb165cb7	-0.2041458837163412
99	0xbfe5cf8f5a2cc3c2	-0.6815869103648924
100	0xbff63e2f481bdf8f	-1.3901818100693821
101	0x3fe7406cf6dd7dcd	0.7266144582353548
102	0x401053f90bd855a3	4.08200472362424
103	0x3fedbdd5cba4f41c	0.9294232346943576
104	0x40009a77db81a325	2.075423922437397
105	0xbfd65474b3896505	-0.3489047768867553
106	0xbff6f432e0a8a20d	-1.4346188331347804
107	0xc00f33c90e5df1c4	-3.9002858278674655
108	0xbfd1a8d5b457ded6	-0.2759298573650829
109	0xbfe88ca7bd64cff8	-0.7671698283288597
110	0x3f9e012ea1dfd969	0.029301384573011378
111	0x3fc038adf21ab307	0.1267297203206896
112	0x400ce1be2083f29f	3.610225919748998
113	0x3ffa0a9bebebd200	1.6275901046439003
114	0xbfec777f7d84adba	-0.8895871593025995
115	0xbfe6893aa0f56950	-0.7042515891765024
116	0xbfed837fbb0ad9bc	-0.9223021176501827
117	0xbf80c557d6517442	-0.008188902118655975
118	0x3ff6ee0f9d434e68	1.4331203597147582
119	0x3fe3817f847d2db7	0.6095578754115455
120	0x3fc25ff075ccf44f	0.14355283500654756
121	0xbfe23cbe8dd135ba	-0.5699150819652268
122	0xbfe4056f5d8b03b3	-0.6256634547245227
123	0xbf863de25bd2096e	-0.010860222270143462
124	0x3fd8a0b9b2e9bbbe	0.3848098990628691
125	0x3fe736d8c80ed750	0.7254451663381847
126	0x3fc2568f11a5e273	0.14326656686513992
127	0xbfca2a7e1b136831	-0.20442177125988928
128	0xbfd212c19b8b83bb	-0.2823947924608167
129	0xbfd6c87ea928b4d1	-0.3559872295325706
130	0x4001fcf193bad367	2.2485076466932017
131	0x3fe342e13026bc83	0.6019140186744071
132	0x3fd690e5999eb1d5	0.35259380342429597
133	0xbff182f885c3b633	-1.0944752907920587
134	0x3fe3333a0ea81ae1	0.6000032697928327
135	0x4002e6efe098cfaa	2.362762217200687
136	0x400fb8a985148c68	3.9651670834442037
137	0x3fce80fd15b9b6be	0.23831142006695488
138	0xbfe12fcad9409983	-0.5370840304574788
139	0xbfeb1982e76fc2b4	-0.846864177727261
140	0xc0142670b7ac3d86	-5.037539358031955
141	0xbff50b570955739e	-1.315268551311625
142	0x400182e830fd2d24	2.188919432379082
143	0x3ffd94e114f7a584	1.848847467330729

lstm.bias_ih_l1 f8 [24]
0	0xbff7064edaa226fd	-1.4390400448195912
1	0xc003d9e95f4d5f38	-2.481402153538422
2	0xbfd1bc59a08311ae	-0.27712097811697844
3	0xbfccd43842c02b14	-0.22522643336591186
4	0xbff833116158b1ba	-1.512467746982209
5	0xbfffe55a6b10e4ac	-1.9934944326653676
6	0xc00b6335d2d0bbca	-3.4234425039244103
7	0xbff985c2b9e953a7	-1.5951564085164394
8	0xbff5779dec121613	-1.3417033406743755
9	0xbffcb1027b7f5202	-1.7932152580370944
10	0xc005974f59bad0de	-2.6988818178307232
11	0xc00c23f65f7bf8ab	-3.51755976292687
12	0x3fd80190d8273073	0.3750955687398864
13	0xbfc875927a73bc43	-0.19108801821809793
14	0x3fb3968bb481900b	0.0765158954323512
15	0xbfa24b0ed1f3d64c	-0.035728896264043714
16	0x3f9304d3b92873f5	0.01857310121168961
17	0x3f657fc57d5b3296	0.002624402734772889
18	0xbffc3474d8f6c219	-1.762806746974212
19	0xc003a32d95057617	-2.45467678473393
20	0xbfd265c57f6d5666	-0.28746163791706747
21	0xbfe0cf3388132a4e	-0.5252931268417542
22	0xbff990ad006b00ef	-1.5978212372138463
23	0xbffb657c73d19635	-1.7122768901985073

lstm.bias_hh_l1 f8 [24]
0	0xbff38907f7b8ed10	-1.2209548641829464
1	0xc00787bfba0ada30	-2.9412836584627016
2	0xbfe3977cdfa348db	-0.6122421615530372
3	0xbfd2f3638406b811	-0.2961052693671045
4	0xbffbbfd67f4885a0	-1.7343354198459124
5	0xbff96163379ad2da	-1.586276261526271
6	0xc0100d062536b63e	-4.012718755211209
7	0xbffad14c0aa7a89f	-1.6760979095657047
8	0xbff493f66095a4dd	-1.2861236355623114
9	0xbff33f8fa79cfae9	-1.2030178592100873
10	0xc001c89472abf8c1	-2.2229393919688794
11	0xc0080e618cfa960b	-3.007022000691682
12	0xbfa19a38f70fae93	-0.03437974944958202
13	0x3f66dd89288281d6	0.0027911833640958767
14	0xbf93ba02b5a33701	-0.019264261566426025
15	0x3fd262e2b8c478a4	0.28728549998948893
16	0xbfd01e080a7c10c1	-0.251832971800706
17	0xbfcae88d91acd3bb	-0.21022195447008393
18	0xbff4f8e20e6c4777	-1.3107624591252411
19	0xc008179be584c629	-3.0115278178352765
20	0xbfd982d5e627efa6	-0.3986105678193276
21	0xbfdde9195aa856e6	-0.4673522363021746
22	0xbff7aacefe9490aa	-1.4792013115448222
23	0xbffed1ff928a5429	-1.9262691234810154

linear.weight f8 [2, 6]
0	0x3fe0aeaa16122df0	0.5213213378023607
1	0xbf9184f5c599e6d5	-0.017108764825457385
2	0x3fb8d83f2ea0666c	0.09704966438621349
3	0x3ff09d2195ef8a7f	1.0383621079314762
4	0x3fe73b89f2a9abcf	0.7260179271228199
5	0xbfd4a74fb0aff5b2	-0.32271187071441
6	0xbfdca69cd52e85c2	-0.4476692277767961
7	0xbfa977f60a503087	-0.04974335552114533
8	0xbfe8e2ce8f7e2894	-0.7776863863557701
9	0x3fd07a366d56023b	0.25745926549283
10	0xbfcdcbe61ab9aa49	-0.23278499894088814
11	0x3fc692d3134e9c39	0.17635572855690088

linear.bias f8 [2]
0	0x3f868a9403914a8e	0.011006504401085661
1	0xbf3311cc147dd4af	-0.00029097778723692185
