trained_NNs/lstm_ws4.pth (torch, 4178 bytes, 6 tensors)

lstm.weight_ih_l0 f8 [20, 3]
0.08126668112648115 -0.05907488544678015 0.3360380470570951 -0.9998381839156758 0.6111270601784088 1.282514444263793 -0.5264976825709035 -0.763301002692479
-0.5232956121586515 0.5686929474731366 0.08803591205712218 -0.6116986289126163 0.4243890118961319 0.5351515243166135 -0.20788775506925794 1.1909203210466013
-0.5201473292115779 0.7383325789724511 0.8426757620618864 -0.005299804731868821 0.46586938668368866 0.2901308282642062 -0.3470188521227108 0.8915353456192713
0.7628501775390667 0.4189141398667211 0.9259461817725408 -0.35688045127902285 0.5065353163420224 -1.1862078921532457 -0.735811210865455 -0.1120014625638775
-1.1637245910997263 2.7869034535531076 0.8986409289246037 -0.5018916732641285 -0.21111333823930103 0.29559682677897087 -0.38998235933564657 -0.8986410900858138
0.6469291933357068 1.0531769062948368 -0.08005141083319398 -1.6563378092589462 -0.3276952699224419 -0.7128039335367522 0.1841420187475935 0.7405573465222973
-1.065768490559087 0.7457126188432751 0.8544279113384549 0.7477858576961847 -0.007499073667399273 0.17950821612962087 1.3061086659016692 -0.49786257830708325
-0.1019823231211124 -0.37154984838466865 -0.3391920266715529 -0.001174893552343837
00000000: 9754 b1a9 e4cd b43f 3a8a 043a 103f aebf
00000010: 8b9a 94b9 a581 d53f 2eb7 a6a5 acfe efbf
00000020: 2957 2556 5a8e e33f 712b acdd 2d85 f43f
00000030: 6dfa 01ab 11d9 e0bf bd2e 7239 f66c e8bf
00000040: 1d93 8b70 d6be e0bf 6e9d 5b8d bb32 e23f
00000050: d3ab 2883 8589 b63f dc01 c600 0993 e3bf
00000060: 820a b887 3029 db3f 5b05 eb16 f61f e13f
00000070: f872 a1e2 109c cabf 7197 7077 020e f33f
00000080: 5a18 0203 0ca5 e0bf a841 08a5 6ba0 e73f
00000090: 7901 e628 33f7 ea3f d01c fa7f 3fb5 75bf
000000a0: b7e5 00d5 cdd0 dd3f b231 bde4 8091 d23f
000000b0: a699 3d8f 8e35 d6bf e135 1522 7587 ec3f
000000c0: 13e6 88c6 4469 e83f 74cf a340 7dcf da3f
000000d0: 5936 12e3 59a1 ed3f d7ce b41a 21d7 d6bf
000000e0: f1a7 3e8d 8935 e03f 73e2 7020 b5fa f2bf
000000f0: 3150 d6f3 c38b e7bf d4e6 d0ba 20ac bcbf
00000100: 5230 45ad 9d9e f2bf def5 b009 944b 0640
00000110: e380 129f aac1 ec3f 98bb 5920 7f0f e0bf
00000120: 0d5c be09 c305 cbbf a94a f4f3 0eeb d23f
00000130: f343 d791 78f5 d8bf df54 98f5 aac1 ecbf
00000140: 718b 06da a4b3 e43f 3f05 1707 d0d9 f03f
00000150: 6ef8 86cf 3f7e b4bf ce53 1e13 5c80 fabf
00000160: deba d794 f5f8 d4bf 2a04 e031 4acf e6bf
00000170: 0890 2b36 f791 c73f 9b06 0452 a5b2 e73f
00000180: e0ef c042 630d f1bf 25af c4b5 e0dc e73f
00000190: c19f ff33 7957 eb3f f0ec 669b dced e73f
000001a0: 44ab 6d42 59b7 7ebf 38ec d10e 20fa c63f
000001b0: 251e 5133 d2e5 f43f 5acb ee00 fbdc dfbf
000001c0: b545 9376 831b babf 9856 e903 79c7 d7bf
000001d0: e491 6779 52b5 d5bf d0de 8c58 dc3f 53bf

lstm.weight_hh_l0 f8 [20, 5]
0.6607247642574973 0.8718477611545618 2.5495496921866856 -1.2638017230487135 -1.1901071804756531 -0.20007876005149314 0.19008187186467598 -0.1365911825943836
0.5616682939899704 0.30652595824747847 -0.14004104103026965 0.7680717302011507 0.7488232667131843 -0.2066537287159508 -0.2601275378542178 0.0802038290009258
1.9376544865030352 0.8754471789705353 -1.2437989075206144 0.23473590908045897 -2.046030832602853 -0.4939208107494796 0.11932185242088077 0.524245322992273
-0.4418458910049562 0.4305004438247709 0.45907380780133894 0.4432317385187568 -1.7857162040678378 -0.14163004750741376 0.27558792199611687 0.8097880727454511
1.1855401646827877 -0.48973305645277815 -0.438606043190254 -0.07591131618708385 0.520218940689157 1.5975941785427492 0.02885723654693805 -1.3309108685257407
-0.17610402507997094 1.1240252411402607 0.46087239418681497 -0.3506229533789868 -0.28015650154489946 1.235562382099442 1.3150386474066824 0.1992991031495209
-1.7995267428133193 0.29315160554246533 -1.650287251627331 -0.4299874911167383 -0.09216535023610828 0.6139690146213858 0.49982643820667105 -0.2934845043267811
-0.7641736239230438 3.7850540363037193 0.6953892954430654 -2.176082081340732 0.9095424347800046 -0.07248442202507434 -0.07423886967241017 -0.02952421273889157
0.16220080278541327 0.519613323067493 1.3185222125069078 0.33712541209884345 -1.1042831253280765 -0.30423925258476847 0.34485597899298365 -0.14872267125283006
0.6515500806393715 1.6940206061407406 -0.8980256006525101 1.0497819325009716 0.7110702843762248 1.7022257765073139 -1.4062876066303658 -1.4912590652742297
0.5071727935940246 0.5651403537326922 -0.03273877837825431 0.00484003045881039 -0.7184039274365921 -0.5669990088959762 0.23195946624339847 0.674805979501658
0.14003596107927954 0.8560896945154118 -0.15720676153004234 0.7541612426869883 -0.08958155426901858 -0.25831413113335466 0.05771562484906644 -0.3129804206894244
0.6447371675775869 0.565019147371606 -0.8666359704623504 0.18418987313953727
00000000: 9795 c442 a824 e53f 3bfd a746 2de6 eb3f
00000010: dcbf 1b4f 7a65 0440 79f6 d127 8838 f4bf
00000020: 0f0b aed3 ad0a f3bf 7bcf 8549 2e9c c9bf
00000030: c951 9c4f 9a54 c83f 8b19 15e3 d17b c1bf
00000040: 9a62 3cc9 2ff9 e13f 2112 830d 1f9e d33f
00000050: 9651 a965 ddec c1bf 4546 462a 0b94 e83f
00000060: 5d8b 2036 5cf6 e73f 3d3a 371f a173 cabf
00000070: 10dd f7f8 eda5 d0bf 07ad 92f6 3c88 b43f
00000080: bfa6 a7fd a100 ff3f 9db9 61cd a903 ec3f
00000090: 05a0 e9ae 99e6 f3bf 6d44 5986 d30b ce3f
000000a0: 6118 c569 455e 00c0 86e6 3e08 669c dfbf
000000b0: bf87 d87d e08b be3f 0ca6 aa20 9ec6 e03f
000000c0: c63f effc 3347 dcbf 1d04 c9bb 518d db3f
000000d0: 833e bd1b 7761 dd3f a92f 5fa7 e85d dc3f
000000e0: bb89 8627 4b92 fcbf 326f 16f3 ee20 c2bf
000000f0: c556 0986 3ba3 d13f 1b3e 24ad c8e9 e93f
00000100: 2f83 b6f6 f8f7 f23f 0707 4f51 c957 dfbf
00000110: 6e20 d514 1f12 dcbf ac7a 6b8c ec6e b3bf
00000120: 53a1 2031 a2a5 e03f ffef d1e9 be8f f93f
00000130: 1d5d e35c c08c 9d3f 1d58 e331 694b f5bf
00000140: cdca 34a2 938a c6bf 0637 29e4 01fc f13f
00000150: 8157 2aed ee7e dd3f ef56 7f41 9b70 d6bf
00000160: 5c6a f988 15ee d1bf 318f 740f ddc4 f33f
00000170: 8867 f9f6 650a f53f 031d 130d a282 c93f
00000180: db91 ca8d dcca fcbf 36c9 a4f3 fec2 d23f
00000190: f8eb eb9a 9367 fabf 5445 0241 ea84 dbbf
000001a0: 08a6 16fd 2598 b7bf 5fcc d158 a2a5 e33f
000001b0: 3886 7107 28fd df3f c8d7 fd3a 73c8 d2bf
000001c0: 8be3 663e 1c74 e8bf 5f23 1c69 ca47 0e40
000001d0: 8a53 3d0d a140 e63f 1329 e6b8 9d68 01c0
000001e0: e589 76bc f81a ed3f 2931 11ce 568e b2bf
000001f0: 14c3 558d 5101 b3bf d55f 9d60 983b 9ebf
00000200: f494 acf3 fec2 c43f 2581 a41e aca0 e03f
00000210: 8844 5cbf aa18 f53f 115d e776 7693 d53f
00000220: acf0 4cc8 24ab f1bf 46b5 00ea a778 d3bf
00000230: 23b7 e6cf 1e12 d63f 7232 9a30 5809 c3bf
00000240: 24ac 018e 7fd9 e43f 45fe e159 b51a fb3f
00000250: c5be 382f a0bc ecbf a75f c023 e8cb f03f
00000260: adb4 1178 16c1 e63f 281d 8818 513c fb3f
00000270: e6f5 f36e 2780 f6bf 2776 3377 32dc f7bf
00000280: 8d08 3d70 c23a e03f 2ed1 1d39 a115 e23f
00000290: ec24 e41c 23c3 a0bf 5308 84c8 23d3 733f
000002a0: 520f b53b 2afd e6bf fe52 021b db24 e2bf
000002b0: 64aa c108 d9b0 cd3f 135b a3b5 0298 e53f
000002c0: 45ba 8cc8 b2ec c13f c55c 0c37 1665 eb3f
000002d0: 29a5 bde5 591f c4bf ed0a 28c2 1622 e83f
000002e0: 5f08 e915 d1ee b6bf 96fe 53fe 3788 d0bf
000002f0: dfcf 6302 e78c ad3f c38f c907 df07 d4bf
00000300: 735d 28d7 afa1 e43f 3065 f208 a314 e23f
00000310: 5b89 d55b 7bbb ebbf f8c0 b1a4 8893 c73f

lstm.bias_ih_l0 f8 [20]
-0.9315191267655757 -0.8979768000226767 0.08956398334387256 0.12519513489622375 -0.19070654296123396 -0.8094857967686488 -0.9772548638055425 -0.7143493709814324
-0.7667531657609119 -2.3281050746946175 -0.2645209147828914 -1.1043485168852025 -0.025469735319390868 -0.014387714573779136 0.3885696686317468 -0.730238459585094
-0.8103716494712989 0.01932202995437944 -0.22667310934913418 -0.6904791062586798
00000000: e1cf 2133 01cf edbf 8a40 95d7 39bc ecbf
00000010: 1c86 5c4b aaed b63f 02b1 ffe8 6406 c03f
00000020: 866b 936e 1269 c8bf c854 f6c1 4ee7 e9bf
00000030: 0cdb fcfd ab45 efbf ce11 4936 f3db e6bf
00000040: ce85 61ef 3d89 e8bf 5cb8 ab8d f59f 02c0
00000050: f26e 8621 e9ed d0bf 5e87 b659 69ab f1bf
00000060: 7830 f000 bd14 9abf 63f0 775c 4e77 8dbf
00000070: 106b bf50 53de d83f 7561 c60b 1d5e e7bf
00000080: b8b6 8286 90ee e9bf 344e fc7a 27c9 933f
00000090: c3c1 c4db 9f03 cdbf 8f79 7ea3 6718 e6bf

lstm.bias_hh_l0 f8 [20]
-0.18633877462437923 -0.8099427192701407 0.5724174830326547 -0.4812345337399916 -0.3960155782863368 -0.8661724943901647 -0.5838196479066821 -0.9924154942811876
-0.6231661334739185 -1.6138316480186388 0.3545087022750079 -1.2549257522102677 -0.4340019603218872 0.04470471964415584 -0.3651198887758456 -0.23858405016789144
-0.8486217070923906 -0.46539692014616424 -0.04372975877425935 -0.5254627586404561
00000000: a984 7eef f2d9 c7bf 08c1 5cfe 0ceb e9bf
00000010: 9a15 2978 3e51 e23f e29e 07ee 8bcc debf
00000020: e890 5cb9 5158 d9bf 4e37 0361 afb7 ebbf
00000030: 97af d08a a6ae e2bf 6e67 7f23 dec1 efbf
00000040: 18d9 671a faf0 e3bf 5fd6 5722 41d2 f9bf
00000050: afc9 9a44 45b0 d63f b96b 8a06 2d14 f4bf
00000060: 90df 7e28 b0c6 dbbf 576e b279 89e3 a63f
00000070: 9d54 5acf 1f5e d7bf 9dbe 6812 ec89 cebf
00000080: 7966 d4b5 e827 ebbf 27f6 eb29 10c9 ddbf
00000090: 8346 9837 bf63 a6bf ee0d 7446 97d0 e0bf

linear.weight f8 [2, 5]
-0.4581976839606409 -0.537345785807984 -0.7263170080159667 0.24113299781600167 -0.04476471005462971 -0.5733572116330731 0.6701540982554038 -0.5435338501646405
-0.4257661925896592 0.35621806146317664
00000000: 7bb0 ed60 1c53 ddbf ee09 16ca ef31 e1bf
00000010: f2a0 7e2a fd3d e7bf de96 cd31 72dd ce3f
00000020: 552c 666b 66eb a6bf 3d79 1c39 f158 e2bf
00000030: cf31 e901 e771 e53f 2c3c d719 a164 e1bf
00000040: c08f 3ad8 c03f dbbf aba5 0ed7 46cc d63f

linear.bias f8 [2]
-0.09044665025286953 -0.03899307971226397
00000000: 4d6b defc 8227 b7bf 82dc 44a4 e6f6 a3bf
