trained_NNs/lstm_derivative_with_input3.pth (torch, 4432 bytes, 6 tensors)

lstm.weight_ih_l0 f8 [20, 3]
0	0x3ffdefebdd55ee9f	1.8710745473789883
1	0x3fc81dfa5811887c	0.18841485309809858
2	0x3fd8a28c1bd5f723	0.38492109983768524
3	0x3fe0895d1ec24ab3	0.5167680359612262
4	0x3ff757067523f2db	1.4587463928029851
5	0x3fc858dea454b888	0.19021208785983768
6	0x3fbd2126f576d89d	0.1137871121671616
7	0xbfca19339d7c76e2	-0.2038940924621136
8	0xbfec9c0f45494bcd	-0.8940502503631876
9	0xbff57cf44c8cf8e5	-1.343006419206682
10	0x3ff0a2353db1e319	1.0396015558200757
11	0xbfc82da25dc711b0	-0.18889264658913651
12	0xbfdb47edf26b60c7	-0.42626522706769915
13	0x3fc455af265b1172	0.1588648736270773
14	0x3feec4083f555147	0.9614297139146765
15	0xc003563b9a181116	-2.4171058691591822
16	0xbff9d3563109e3d5	-1.6140958705493536
17	0x3fe05e6e9eaaff33	0.5115273570045019
18	0x3fd56014033561de	0.3339891463597534
19	0x3fc569675baf0d20	0.16727916695354228
20	0x3fe4906fd348445c	0.6426314474684989
21	0x3fcbe7afc7bad91a	0.2180080151790172
22	0xbfc6aecb2dcd13f5	-0.17720927940732137
23	0xbfbf173be764039e	-0.12144827269732025
24	0x3fea860415f5050c	0.828859370121934
25	0xbffad2a0a42c301e	-1.6764227307312534
26	0xbf9515cb315cc813	-0.02059094895157194
27	0xbffe8793a5bd0163	-1.9080997919228018
28	0x3febaa3278bd51a8	0.8645260198778049
29	0x3fca0fdd8ff7855a	0.2036091759646677
30	0xbfc1c342332d08b4	-0.13877131937812737
31	0x3fe9ef2ca38b4c21	0.8104460901471421
32	0xbff5c12d94c5d517	-1.3596626101910425
33	0x3ff963ced3e17888	1.586867168101465
34	0xbff9c04a73f60395	-1.6094460038877731
35	0x3fa337163345223e	0.037529653318931086
36	0xbfd7934dd57b0c32	-0.3683657250186939
37	0x3fdf366fbdb42f94	0.4876975395752592
38	0x4003593dc20bfebe	2.4185748252783403
39	0x400c9311a0a37439	3.5718109655267907
40	0xc00cd38a92564db7	-3.60329164815786
41	0xbf9123f42c64e214	-0.01673871537170342
42	0xbff53d6e3fccd4e2	-1.3274977199737852
43	0x3fd6c3744aef32fd	0.3556795818119978
44	0x40069b08e6ce0565	2.825700572168602
45	0xbffbf82412e006fe	-1.7480812775906425
46	0xbffd8105499cf8b8	-1.8439991832270106
47	0xbff80f870b7a71a0	-1.5037908981677006
48	0x3fe7876e125ffa9e	0.735281978500854
49	0xbff27c141ac6e9c9	-1.1552926107384442
50	0xbf74fa5dfc3869f5	-0.005121581201388716
51	0xbfb4b95e43a5ff95	-0.08095349456379915
52	0xbfafa49b5ea017c5	-0.061802726078937144
53	0xbff8610505790e8f	-1.5236864293846428
54	0xbffbeca727f36548	-1.745276599939034
55	0x3fe3324b73808a58	0.5998894935513119
56	0x3fb4fba7ffbae085	0.08196496957214279
57	0x3fdc152d8da2a69d	0.4387925990255129
58	0x3fe932992d66ac3e	0.7874265562762799
59	0x40113a68554426a1	4.307038624081231

lstm.weight_hh_l0 f8 [20, 5]
0	0xbfcaf7beddcfcc11	-0.21068559485101493
1	0x3ffa7a6400f0263f	1.6548805271762743
2	0xbffd0fa933608bdb	-1.8163234717292116
3	0xbffdb05619361b2a	-1.855550859910816
4	0xc0044a040e0affb0	-2.536140546522766
5	0x3ffe1c51867b6e10	1.8819136861046708
6	0xbfe4179f808b76b6	-0.6278836737289655
7	0xbfe2f5bbf752027b	-0.5924968557811349
8	0xbff86d3fcfef0b1d	-1.5266721842205648
9	0xbfedd74f199d89a0	-0.9325328350353637
10	0xbfe35c41274ef272	-0.6050115363828594
11	0xbfe0f7a8108a38b0	-0.5302315066380938
12	0x3ff3811bfc3f07de	1.219020829521916
13	0x3fbdc41dbfe289ea	0.1162737458676372
14	0x3fe2e55bc631bf58	0.5904978629095963
15	0x40063f06f435167e	2.7807749823285226
16	0x3fd2ce9aa551da48	0.2938601126146847
17	0x3fe0374140a49fb0	0.5067449820098684
18	0x40062f0f2be59786	2.7729781560364613
19	0xbffad8d81230e52f	-1.6779404364190886
20	0xbfe67984858f1666	-0.7023336990902862
21	0x3fd4c57ac9561e65	0.324553200357036
22	0xbfc4aa7998da4e2a	-0.1614524837828964
23	0x4009dcfc168c5d81	3.2329026948534083
24	0xbfefa6ce57f13e94	-0.9891120641350022
25	0x3ff758da2f0d4759	1.4591924512828511
26	0xbffbc2ec56d74c68	-1.7350886718966425
27	0x3fda56526a6bd5c2	0.41151867287348065
28	0x3ff0f38c209f6584	1.0594598078081114
29	0xc00370305f0c707b	-2.429779760901565
30	0x400091952d9e3071	2.0710853160763283
31	0xc011add50567db49	-4.419757923568633
32	0xbfc1e9134f3dcf5d	-0.13992539757929992
33	0xc017b08d3d3c4c45	-5.922413784795087
34	0xbffb9d3781f1819e	-1.7258830142892303
35	0xbffddb64b8c10413	-1.8660628525688068
36	0xbffe2f468f4b9cbd	-1.8865419003939643
37	0x4000f3d4a6857d54	2.119057942341593
38	0x40102d842100e562	4.0444493443295375
39	0x3fe2c4ad72ea5b07	0.5865084881250774
40	0x4009e746e104a0f6	3.2379281596696456
41	0x3fe29ab8f53cb799	0.5813870229519466
42	0xbfd6bea9cd1d7b54	-0.35538716345574994
43	0x4009c6a3c7727610	3.221992071323946
44	0xc007ad3c12049ab9	-2.9595872314124247
45	0x4006f73e3d9b520b	2.8707241833710717
46	0x3ff8f70456c08590	1.5603068722487912
47	0xc00a0025173e70ed	-3.2500707450800435
48	0xbff5210986dc11ec	-1.3205657260851877
49	0xc01076c2d2f7738e	-4.115977569916948
50	0xc018633874782d47	-6.096895046076788
51	0x3ff8e1203859220e	1.554962368116438
52	0x3fef23ac05a1dc6b	0.9731044874196305
53	0x3fd8125924bf0bb0	0.37611988628867277
54	0x400ca02b626c7835	3.578207749304989
55	0x3fea8cc1d4dbee72	0.8296822698025166
56	0xc00739fbaddc117b	-2.903312071112109
57	0x3fb250c03fb46e90	0.07154466204922927
58	0xbffda0c0cefb895f	-1.8517463765388908
59	0xbfca05008659589e	-0.20327765045175722
60	0x400369045bdcc8ae	2.426277845073023
61	0xbfeab20c3b812610	-0.8342343485066426
62	0xc00f8056f1143a1e	-3.9376658281610295
63	0x3fcee5689376dc32	0.24137599182515285
64	0x3fdfb87f768ae065	0.4956358583108396
65	0x3feaa0d6880e8974	0.8321335465773658
66	0xc0198d4a440c1a0f	-6.387978614081034
67	0x3fe61a672c4cfb2b	0.6907230248687929
68	0xc0182e9bac1ced1f	-6.045515717759627
69	0x3ff3ff4fdcf0eb8d	1.249832022715711
70	0x3fef7668b6810a4b	0.9832042278797614
71	0x3ff0ca271c84bba3	1.049353705787987
72	0xc015330f113ed1a6	-5.299862164935268
73	0x40054804edbd2d7b	2.660165650687927
74	0xc01028117f66bcd3	-4.039129248281102
75	0xc00236971409ae38	-2.2766553464369075
76	0x4006eec45658bf26	2.8665854211648307
77	0x3ffc31d93e4050f0	1.762170069855582
78	0xbfccc828e39f61f1	-0.22485838999160948
79	0x3fe0dac0f89d8396	0.5267033439414373
80	0xbfc0c3d047d31509	-0.1309757567125092
81	0xbfe175e39aeba632	-0.5456407571593387
82	0xbfc45b67a7ff475e	-0.1590394563959831
83	0xc00da95474e30e9c	-3.707680619410736
84	0xbfc59f94a5b11391	-0.16893251505294107
85	0x3fecca133e321c1a	0.8996673788796017
86	0x3fd3ecbd6f8ef119	0.31132446188327517
87	0xbfece94246a8a147	-0.9034739856770465
88	0x3ff6bc578fe7c67b	1.4209819432548147
89	0x3ff64f85d80b4306	1.3944147528856674
90	0x3ffdafbd3dc38539	1.8554050839087053
91	0x3fbbf4c661f62e2b	0.10920371905938768
92	0x3fe971d2ab7c6e95	0.7951444005334048
93	0x3ff2d32909c89174	1.1765528089682364
94	0xbff0a6278b4ffd3d	-1.0405650560276876
95	0x3fe992760e0fd4d2	0.7991285586018881
96	0xc000afc931de064f	-2.085832967365412
97	0xbfeb48b088acebfd	-0.852623240417756
98	0xbff79775c81b0fc2	-1.4744775597218767
99	0xbff03634ed00df2c	-1.0132340677209397

lstm.bias_ih_l0 f8 [20]
0	0xc00020e2768c75bb	-2.0160569440474467
1	0x3ff15809d83b31d8	1.0839937635929484
2	0xbff846682bcdc8fd	-1.5171891890609566
3	0xbffe54507ce4a43c	-1.8955845717084818
4	0xc000c87749cdf289	-2.0978837743735466
5	0xbffaf7675e8c3faf	-1.685401315047766
6	0xbfe43c7d9bc0522a	-0.6323841135040926
7	0xbff5162c457e2cc5	-1.3179133143010386
8	0xbfed101bc1842962	-0.9082163600553879
9	0xc0015a137971e931	-2.1689824569595193
10	0xbfb8f3ebef824b62	-0.09747194859873567
11	0x3fca9bbb49d718ec	0.20787755113105477
12	0xbfb2150183fb8728	-0.07063302490453494
13	0x3ff45df6f2e9a9a9	1.2729405869273285
14	0xbfa38b51edc36942	-0.038172302507251135
15	0xbffd6b4e03598fe4	-1.8386974459508503
16	0xbff5069fbeb04145	-1.3141171883363125
17	0x3fc06118653efb3a	0.12796311324742665
18	0xbfe9612670f105ac	-0.7931091504944354
19	0xbfd43131dad0f743	-0.31550260895516063

lstm.bias_hh_l0 f8 [20]
0	0xbff82a1808d46f9e	-1.5102768273272669
1	0x3fe4861b95a600fd	0.6413705752202358
2	0xbffad3a5e0d60ec9	-1.6766718657171842
3	0xbff58a45957bbdbe	-1.3462577666467577
4	0xbffc80d7b2592705	-1.781455704377039
5	0xbff5d949252c47b5	-1.365548272330199
6	0xbff430a78b2d9a5f	-1.2618785320898025
7	0xbfee426cb6fb8d75	-0.9456084798697889
8	0xbfe408f3f1082008	-0.6260928828860424
9	0xbffa8234c583a1a9	-1.6567886081121321
10	0x3fdbabe8fd58fd85	0.4323675607774578
11	0x3fd63dcd69f6abd2	0.34752211902622065
12	0x3fc6cfc1636ff9dd	0.17821519236890895
13	0x3ff157ac71871a48	1.083904689281228
14	0x3fd5570ef3f5ff85	0.333438623660179
15	0xbff3d77c197a21df	-1.2401085848997508
16	0xbff5446c8cd4becc	-1.3292050839626652
17	0x3fc5acc6f1376d3a	0.16933523920202181
18	0xbff3dfe0e835da8b	-1.2421578474728985
19	0xbfe6c605c82e6c46	-0.7116726789275922

linear.weight f8 [2, 5]
0	0xbff9d6f829d9f9fb	-1.6149827608893463
1	0x3fe36770e118ef8a	0.6063770672258084
2	0x3ffbf31679c91ad1	1.7468476063965463
3	0x3fe8f44c4477b326	0.7798215234048242
4	0x400523ed0f1b616c	2.6425419979315645
5	0xbfcb21977db7a7e4	-0.21196263922257608
6	0x3fff546b9477c8a7	1.9581104087379033
7	0xbfd976e56c1d069e	-0.39788184698054774
8	0x3ffe9be04d1992ac	1.9130557071413632
9	0xbfe1d4db4fb227ec	-0.5572334820328684

linear.bias f8 [2]
0	0xbf965a464268513e	-0.02182874470061446
1	0xbfafde7853e440e9	-0.062244186630893435
