trained_NNs/mlp_3layers_6neurons.pth (torch, 5294 bytes, 10 tensors)

linear_relu_stack.0.weight f8 [6, 3]
0.0959267587645413 -0.0021169053784564178 -0.011856127400117784 -0.6974175122046206 0.29041860031693323 0.37242144811400574 0.41553057899407264 -0.6375991062303551
0.05650086993189033 0.2610481796425661 -0.005496089517262534 -0.021067387994895225 0.23554242580222934 -0.017215208823058912 0.5246341424597365 0.037128512950783316
0.0212202701417222 -0.0024200816984967224
00000000: fb79 b4f3 a78e b83f d875 d0eb 7857 61bf
00000010: ca95 867b 0648 88bf e772 d287 3e51 e6bf
00000020: 86b9 a0e5 3796 d23f a3a1 fec4 c0d5 d73f
00000030: 801e d191 0d98 da3f 89fb a63d 3667 e4bf
00000040: 4525 1b99 aeed ac3f 9cb0 8f6c 03b5 d03f
00000050: 7072 b84b 1183 76bf f305 cd79 b092 95bf
00000060: f60e d213 4126 ce3f 592e 8e1b dda0 91bf
00000070: aa58 878a cdc9 e03f 0cd6 be29 8202 a33f
00000080: 577c 1539 c4ba 953f fe47 f577 47d3 63bf

linear_relu_stack.0.bias f8 [6]
0.0038030369954110137 -0.029937252214196096 0.001379588258495742 0.010482176782522093 -0.007286045024673556 -0.012001969572973227
00000000: 8122 aaf0 8b27 6f3f 86af c4fc dea7 9ebf
00000010: 8a98 f09c 699a 563f 154b c6f3 ad77 853f
00000020: 7c0c 92d1 f8d7 7dbf 2195 6d16 7d94 88bf

linear_relu_stack.2.weight f8 [6, 6]
0.10786524021597692 -0.12405944192126961 -0.03288701682837106 0.047639036500862396 0.04857175619308208 -0.10237702754042394 -0.0187350885665922 -0.04651183426594328
-0.01633248409287647 -0.3799292230086629 0.04634857063699659 0.15412744591508137 0.1874632490883428 0.11530303985725032 -0.8124949185710797 0.3064396211358055
-0.061394034416934334 0.09257305177335358 -0.21465084654436167 0.085938932144096 -0.28790912260553586 -0.3662943542364375 -0.8091598218494944 -0.09153633115560561
0.09874890924218137 -0.6873658411657769 0.18453921010768265 0.14787704317918904 -0.4288239463970841 0.06404339923312247 -0.008010186892762965 -0.04893405887126707
-0.022197810853858663 0.04709156317762817 0.036798747315610086 -0.06713290705448047
00000000: 6b51 1a6f 0e9d bb3f 58d6 cf0d 5cc2 bfbf
00000010: 6451 7b2b 91d6 a0bf ab7c 91cf 2464 a83f
00000020: e196 b7b0 65de a83f 04d7 2581 6135 babf
00000030: 7886 b982 4a2f 93bf 8e30 192e 66d0 a7bf
00000040: 4256 2a74 76b9 90bf 417b e7a8 c250 d8bf
00000050: 9f59 34f6 ffba a73f 3686 cfb9 72ba c33f
00000060: 99a6 04b6 cbfe c73f 60f7 5001 8084 bd3f
00000070: 20ba ed57 f5ff e9bf c685 beed b49c d33f
00000080: 9cff faf3 096f afbf 0d83 db15 deb2 b73f
00000090: 66be fbce ad79 cbbf 1116 0307 1800 b63f
000000a0: a7e4 7362 1a6d d2bf 82ea 09e0 5d71 d7bf
000000b0: a095 8223 a3e4 e9bf fc8a b5cc ec6e b7bf
000000c0: aff9 b5c7 9b47 b93f b139 06a6 e6fe e5bf
000000d0: 6aff 1e18 fb9e c73f 7453 248c a2ed c23f
000000e0: b618 61fe d971 dbbf 641e 3bf1 2565 b03f
000000f0: a903 ea15 a567 80bf 8977 068d e20d a9bf
00000100: a8f5 a3de 05bb 96bf 8de6 87a7 621c a83f
00000110: 5435 8210 49d7 a23f 86ce 4848 9f2f b1bf

linear_relu_stack.2.bias f8 [6]
0.04243007693266279 -0.03040454075584839 0.01763674167106911 0.01101994249156125 -0.015799895798518825 -0.02297301039629288
00000000: 34c9 9521 65b9 a53f 78fa c830 5e22 9fbf
00000010: 23b0 bdb2 5d0f 923f c527 d7a4 9f91 863f
00000020: 837b f00e d92d 90bf c9f8 5ea1 3c86 97bf

linear_relu_stack.4.weight f8 [6, 6]
-0.0817745847875579 0.09902987471054198 0.03776551127337947 -0.026411069400293655 0.023458313591879245 0.03377174233808767 -0.013952951981715858 -0.07519705403795354
0.004841439384636783 0.01044834268279556 0.003850570937707866 -0.23350372865389515 -0.13645909530098307 -0.006123678155602266 -0.4455751597224615 -0.5667005538214663
-0.18616614469645779 0.0917646432361719 0.2091901862781606 -0.027200663123839796 -0.0062643893319103295 -0.3809959721178255 -0.7049591596820203 -0.12441547704532466
-0.09544467906039959 -0.022798478375302474 0.5924321602371079 0.21838225348790902 -0.6696774005246805 0.07198029456446774 0.0911330939813803 0.023224291117827676
-0.014802475345103868 -0.007745452796636975 -0.011806673145086039 0.11358286070974498
00000000: 6d79 4edf 2def b4bf fc70 3599 055a b93f
00000010: 02f9 ab47 0056 a33f b47c 4edd 800b 9bbf
00000020: e725 c9c6 7405 983f 01f7 bda1 874a a13f
00000030: fb92 8d83 5d93 8cbf ea3a d937 1d40 b3bf
00000040: 0f4b 29fd 9dd4 733f abc6 f5d0 f065 853f
00000050: 9dc1 f287 3b8b 6f3f 3d01 083f 73e3 cdbf
00000060: b39c c7db 7d77 c1bf 367b 8d56 2415 79bf
00000070: abbf baac 4d84 dcbf a339 2933 6922 e2bf
00000080: 09fe 8bcf 4ad4 c7bf 24e3 a03d e37d b73f
00000090: 86bb 5a78 bec6 ca3f d384 2f9a 7dda 9bbf
000000a0: 129f f534 b0a8 79bf abd7 09ee 3c62 d8bf
000000b0: 8932 fb82 068f e6bf eaa1 0655 b1d9 bfbf
000000c0: 0342 24ff 0f6f b8bf a2fa 14fc 7b58 97bf
000000d0: f224 2a4a 34f5 e23f e2f0 601e f3f3 cb3f
000000e0: 23f6 c34c ff6d e5bf b75f 1cf3 4c6d b23f
000000f0: 0bbb 3b9a 7f54 b73f 29a0 4bcb 1bc8 973f
00000100: 5e79 0e9c c250 8ebf 0cae 4427 b2b9 7fbf
00000110: 5dfb 42d8 182e 88bf 276d 2230 c413 bd3f

linear_relu_stack.4.bias f8 [6]
0.0014892044667541592 -0.002265074911564558 0.002615378068293239 0.013561570079224403 0.014182544666649189 -0.00032229331671107075
00000000: 0a42 d51e 2d66 583f ce90 61d5 348e 62bf
00000010: cccc a368 d86c 653f f20c c81f 2bc6 8b3f
00000020: 5a77 23ec bc0b 8d3f ac3f 4741 2f1f 35bf

linear_relu_stack.6.weight f8 [6, 6]
-0.005556180091893125 0.06963844531964918 -0.07614073289339665 0.06863186583560527 -0.05406374452170474 0.045425505792611814 0.03213933901929563 -0.06039883174854353
-0.03256440034275045 0.03962366196974522 -0.023181321512624656 0.04532240001275128 0.16676614143744048 -0.02779300693087442 0.0006602331937275791 0.004520240441523813
0.00046660586751641594 0.026025996074127748 0.009559579243848183 -0.0019115538990975489 -0.48101029133025347 -0.5216778881076019 -0.19318181641423457 -0.009491822308686936
-0.008249574431929458 0.024540852120523565 -0.38429945162239815 0.09114836535581529 0.6586465662529011 -0.0022802046756059615 -0.0512120883062291 -0.035113910245563616
-0.1437589140537003 0.16407291706645688 -0.13014471528847568 0.009932986144861607
00000000: 3fdd 90bc 13c2 76bf 8b32 313d d3d3 b13f
00000010: 1aad ab85 f57d b3bf dc35 3aa3 db91 b13f
00000020: 6573 3d3d 3eae abbf 5c2a 910b 0342 a73f
00000030: 3b80 0144 9174 a03f 3e38 277e 98ec aebf
00000040: 53d0 f8f4 47ac a0bf e299 9d78 8d49 a43f
00000050: 0461 1927 d8bc 97bf 6778 a963 7f34 a73f
00000060: c3e6 c6c9 9758 c53f ea6b 4d1f c575 9cbf
00000070: 4309 c6fc 6fa2 453f b1c7 dccd d083 723f
00000080: 163d ecf0 5894 3e3f eed2 ef07 8fa6 9a3f
00000090: b40e ba01 f993 833f 5c69 cb5e a351 5fbf
000000a0: 3d62 9363 dfc8 debf eefd 8ed3 95b1 e0bf
000000b0: 732b d787 2eba c8bf b97a 29d3 7270 83bf
000000c0: 57e1 2023 27e5 80bf 1830 18b5 3c21 993f
000000d0: 19b1 25ba 5c98 d8bf 797e 49d0 7f55 b73f
000000e0: 9cb9 b5f6 a113 e53f f136 5190 efad 62bf
000000f0: cac7 de88 7838 aabf 2b5c 4750 73fa a1bf
00000100: 3f3f 2f2d b166 c2bf 2cd9 7a62 5700 c53f
00000110: 53a3 f4ff 94a8 c0bf 8481 26d5 be57 843f

linear_relu_stack.6.bias f8 [6]
0.00021715806704508466 0.0015430587596300205 -0.0016623910436608825 -0.02773837013697492 0.021607691082574935 -0.005279442143577906
00000000: b217 9097 9d76 2c3f 2982 23ba 0e48 593f
00000010: cd9c 9aca 923c 5bbf 49a2 5482 7267 9cbf
00000020: 51bb 2a9a 5320 963f 8d8d 9075 e59f 75bf

linear_relu_stack.8.weight f8 [2, 6]
-0.004088133381192928 0.0051948965986229724 -0.001521819201629615 -0.38566310823794014 -0.03135792105964779 0.0043302894051631445 0.011010991035498139 -0.016883093621960565
-0.0011584322512179738 -0.007770821483370358 -0.35349693873853066 -0.0012201582711882004
00000000: 5b55 c8f2 b7be 70bf ad7a f46f 3e47 753f
00000010: 9921 e4ec f8ee 58bf 5af6 4951 b4ae d8bf
00000020: e7ed d73a 250e a0bf 25cb 0936 a3bc 713f
00000030: a5f0 2633 ee8c 863f b3b4 d83b cd49 91bf
00000040: ed1c 8d28 d1fa 52bf 6465 2502 4cd4 7fbf
00000050: 078f c79f b19f d6bf d580 b9f7 b6fd 53bf

linear_relu_stack.8.bias f8 [2]
0.009007857011437359 -0.006375332223922872
00000000: 005a 2b1a b672 823f 2936 7236 051d 7abf
