lstm_derivative_with_input5.pth (torch, 4000 bytes, 6 tensors)

lstm.weight_ih_l0 f8 [20, 3]
0	0xbfc5833ee7de8404	-0.1680678016828382
1	0xbfb588ac545051ca	-0.08411671694222558
2	0x3fdb00df8c68b63f	0.42192829810923976
3	0xbfb960c3f74567e9	-0.09913277422802448
4	0x3fc03775d1ec7b5d	0.12669251203711954
5	0xbfcb7e9ef0939dd7	-0.21480166193872094
6	0xbfd4611ec70585b3	-0.31842774806690527
7	0xbf763aceccaa7e26	-0.005427177248435144
8	0x3fd1f2b357b8e775	0.2804382664359005
9	0xbfdbb864f1dc321d	-0.43312953585771813
10	0x3fae6ced3d21e572	0.059424794876529755
11	0x3fd54aed8f0e610b	0.332698239997186
12	0x3fee6a62cc118b59	0.9504865632737661
13	0xbfc8e83de38f7d89	-0.19458745585778228
14	0x3fd1835e2669f752	0.2736430525909458
15	0xbfd3d04d73069673	-0.3095887778566528
16	0xbfa7a8edf33ff4e1	-0.04621070474966316
17	0xbfe0735d2a7bde0a	-0.5140825109255627
18	0xbfe3227f60b0f55a	-0.597961129045568
19	0xbfb3fe5433bd5f71	-0.07809950125863253
20	0x3fc29f000e170b22	0.14547730148304888
21	0xbfe1989a045ddd90	-0.5498781285559051
22	0xbfcdcbb35f3494bd	-0.23277895115567118
23	0x3f8a31df488cedb0	0.012790436173978431
24	0xbff0cd4c37cb3702	-1.050121515221179
25	0x3fc1b79311477cca	0.13841474860871578
26	0xbfd46b7ada1649ef	-0.31906005189480785
27	0x3feaed717650f4df	0.8414847670425408
28	0x3fb0fde4615e6c31	0.0663740861622706
29	0x3fd79bc9b7f43a38	0.36888354267367474
30	0xbfa1e3c308f6c92f	-0.03494081005500715
31	0x3fa32548832aa7ec	0.037393823634673
32	0xbfd1c89beb46a72a	-0.27786920524759984
33	0xbfec43ed629e8407	-0.8832919050365725
34	0xbf8573fdf237989d	-0.01047514338911198
35	0xbfe319583722be12	-0.5968438221806898
36	0xbfcac27f2d45720b	-0.20906057081710147
37	0x3fe8cd24e1027de7	0.7750419993134842
38	0x3fbc348d860b6fbb	0.11017689249587097
39	0x3fe10d0108b211f2	0.5328374070964499
40	0xbf972d49c66c3e90	-0.02263369821144906
41	0xbfdb2ffd36174efa	-0.42480402262047756
42	0xbfea8ca580f60310	-0.8296687620896552
43	0x3fada1700410a0f1	0.057872295852861806
44	0xbfd5ea18f65cf5cd	-0.3424131780519389
45	0xbfc855d7925cbe30	-0.19011969229312475
46	0x3fc45a7c7972b319	0.15901142053680742
47	0x3fe6f38ed28678c4	0.7172311889478569
48	0xbfe34b8bcf2cc2fd	-0.6029719396957202
49	0x3f8a2f0dd91447ab	0.01278506106112672
50	0xbfda94e849f3512f	-0.41533858510708205
51	0x3fbb5fb26c920720	0.10692896986622857
52	0x3fd896c3d5348594	0.38420196362320636
53	0xbfcec29fd0982506	-0.2403144615675858
54	0x3fbaef2a87590393	0.10521188549411269
55	0x3fb61e17a95d54dd	0.08639667401196811
56	0xbfbc7da23358425d	-0.11129201653990024
57	0x3fca68de744b3710	0.20632534674080505
58	0xbfdfd3cbc6f0c62c	-0.4973020022181085
59	0x3fe8f45680b32524	0.7798264039676366

lstm.weight_hh_l0 f8 [20, 5]
0	0x3fea59e3c711bb50	0.8234728706428118
1	0xbfce49dab9d670eb	-0.23662885736565129
2	0x3fc0179f9182ae0e	0.1257209263325056
3	0x3fa316ffe708eff8	0.03728484816789995
4	0x3fc1c8fb21aeee1c	0.13894595284169575
5	0x3f9dee7bc5d03fde	0.029230054806305243
6	0xbfe23e2b2bba5ff2	-0.5700889448225992
7	0xbfdca2cb6c966b56	-0.44743619541411783
8	0x3fd17aa8fb2f7268	0.2731115773183661
9	0xbfd26749591b6a8b	-0.28755410863747305
10	0x3fdbf15eccef2d80	0.4366070748626143
11	0xbfde3c4c3212a055	-0.4724302758209025
12	0xbf9f52c34292bb2e	-0.030589152277282476
13	0x3fe0721e25032890	0.5139303896805973
14	0x3fa8a65d237dfd33	0.04814425523999901
15	0x3fc29aaf2bf781fb	0.1453455891305707
16	0xbfde049002f31a9b	-0.4690284756474427
17	0xbfc7932e6f9a2775	-0.18417911958050195
18	0x3fe2afd88c02bc51	0.583965562303897
19	0xbfca2ea2bd62c839	-0.20454820868832416
20	0x3fe170b75de6718c	0.5450093111026475
21	0xbfc79f64889eeb9c	-0.18455177946983958
22	0xbfc1b9a009a10cb6	-0.13847732992335232
23	0x3fd72ab844e63a20	0.3619824097485509
24	0xbfd90dc8af5a12ce	-0.3914663040562062
25	0x3fe30fede7ea68fc	0.5956944970705815
26	0xbfa15c9b6136dc18	-0.03390965997407863
27	0x3fa74c54b29b7077	0.04550423317206847
28	0x3fcb062a5fa08605	0.211125656788724
29	0x3fcac60cfe4232a2	0.20916902937860465
30	0x3fdced4c6de41410	0.4519835541871666
31	0xbfdee27cd404684c	-0.4825737066727285
32	0xbfd027acd573e6f2	-0.25242157788271335
33	0x3fe705dda7486342	0.7194660441628928
34	0xbfda577d740da447	-0.4115899689991846
35	0x3fa9cc7bed5a74b0	0.0503882148015945
36	0xbfb6a039b55797a6	-0.0883823459367635
37	0x3fbe59c66deee638	0.11855735954204583
38	0x3fe94cdb9b185744	0.7906320599747478
39	0x3fe420c168551d74	0.6289984739059222
40	0x3fe480768ad5803c	0.6406815253831222
41	0x3fc98dac1e58ef79	0.19963599664503898
42	0xbfd10efddab08bca	-0.26654001575860475
43	0x3fdf83643f0b1ce9	0.49239450604041096
44	0xbfc752bd6cc9a730	-0.18221252262019894
45	0x3fb044ca959c817a	0.0635496726286017
46	0xbfed8c3044eb7963	-0.923362860306764
47	0x3fc5274c6445cfc9	0.16526179214599626
48	0x3fe149d00f004a32	0.5402603428831922
49	0x3fa103445d64bfa7	0.03322805061395622
50	0xbfd420f970b7f79e	-0.3145125962035936
51	0xbf9a4e66d9050ce2	-0.02568970393737125
52	0xbfd6bd8a2012ab6d	-0.35531857616540813
53	0xbfe33bc7e586ef90	-0.6010474665595087
54	0xbfd8cd7a0da9a8d4	-0.38754130682231147
55	0x3fc893c2e6a3cc23	0.19200931798658968
56	0xbfda2473452318f4	-0.4084747481505382
57	0xbfc9cbd29fa07f73	-0.20153267664226923
58	0xbfa8b1acd9f5770a	-0.04823055420523133
59	0xbfd26055f3af7ffc	-0.2871298675290743
60	0x3fd31587d971db2d	0.2981891273006337
61	0x3f9398cb7e9499d4	0.019137553788050557
62	0xbfcdacabaa7c7ff9	-0.231831987614896
63	0xbf33ba27f642dfc6	-0.0003010127604841064
64	0xbfe37519f043a782	-0.6080445950185409
65	0xbfdc08002e8b7d39	-0.437988324598297
66	0x3fc5e21118fb6aec	0.17096151084736932
67	0x3fd9786f8eac77ef	0.3979758160875226
68	0xbfe58b0871669a32	-0.6732217993601977
69	0x3fb0718ea7ca0409	0.06423274609007036
70	0xbfe2b655b2537fc1	-0.5847576601918193
71	0xbfd121245e8e265e	-0.2676478312865579
72	0xbfe0b0457427872a	-0.5215174931183573
73	0x3fa25f5b9050e7b3	0.03588377129240374
74	0xbfd761079d771aab	-0.3652972257372464
75	0x3f7f1cb5a507460c	0.007595738934882867
76	0x3fd523b1125b74d3	0.33030344765377356
77	0x3fcf945cdd9485d1	0.24671517199844442
78	0x3fd1a036b30466a5	0.2754036663260229
79	0x3fbbe9bbd51cd25e	0.10903524353927582
80	0x3f7d190b0a71c371	0.007103961113089295
81	0xbfdd0cf1382900d7	-0.4539149330557967
82	0xbf7b12b58f820902	-0.006609639378554856
83	0x3fcb92a732523e4b	0.2154129977902691
84	0x3fbdd23864cfb4c7	0.11648895703520444
85	0xbfcdafc22000249a	-0.23192621767546912
86	0xbfd896a9acdcd369	-0.38419572716821065
87	0x3fb7a4052ab71e20	0.09234649937490547
88	0xbfa051dff7827fb8	-0.03187465568885223
89	0xbfc8f4951aa8c8ec	-0.1949640636608544
90	0x3fbc75f928dd03f1	0.11117512939109965
91	0xbfd6d321641a841a	-0.35663637901058254
92	0xbfe68ba357c64454	-0.7045456613869967
93	0x3fea5ef4f8630bef	0.8240914202982575
94	0x3fb38c0a457cb363	0.07635559269392682
95	0xbfc6e536e53977ab	-0.17887006943322822
96	0xbfe0cc1b7c3f0cf8	-0.5249154497800239
97	0x3fbca8785719cbf4	0.111945649399601
98	0xbfd584574d48cbb5	-0.3362024550180494
99	0x3fd57a3b697c86c4	0.33558545400056183

lstm.bias_ih_l0 f8 [20]
0	0xbfc997cc95834f25	-0.19994504261432514
1	0xbfde75971b6a2097	-0.47592714001849273
2	0x3fd5de7f11e20e99	0.3417051005019203
3	0xbfdc985ce6351d16	-0.4467994926566957
4	0xbfb0d9e3b6f41b36	-0.06582473007811704
5	0x3f8bea4238519a13	0.013630406707489084
6	0xbfe106a198a66888	-0.5320594769903133
7	0xbfe0a4732fb9e93f	-0.5200744564201968
8	0xbfd3b9d7ff1efa1c	-0.308218001500707
9	0xbfde6e356c030751	-0.47547660396604835
10	0xbfd07201be91b431	-0.2569584237124359
11	0xbfaccb0be2eca50b	-0.0562366213328663
12	0x3fb4940600639646	0.0803836584996925
13	0xbfe01597c165f612	-0.5026358392057679
14	0x3fca481a3d8ec14f	0.20532539373153688
15	0xbf9915ed6d3082e9	-0.024497709073446314
16	0xbfc121684ef2cbae	-0.13383201460746136
17	0x3fd37bd50a37b9df	0.3044331168920546
18	0x3fb79f9cdd88b935	0.09227924736544398
19	0xbfca00b1a96a9918	-0.20314617893490872

lstm.bias_hh_l0 f8 [20]
0	0xbfbebd297aba6f76	-0.12007388349814882
1	0xbfbd727e65ab69e7	-0.11502828581016154
2	0x3fe2779e02338351	0.5771017115585925
3	0x3fd6c37d61dbbd4d	0.3556817489288349
4	0x3fb4129055e9ac65	0.0784082612751021
5	0xbfd93324fcafa65c	-0.39374661136989686
6	0xbfe3df3af7070616	-0.6209997963671323
7	0xbfe5f6799045b9a4	-0.6863372628993614
8	0xbfb8461e1b6f6a45	-0.0948199097614771
9	0xbfd7f04ef773f072	-0.37404226460763035
10	0x3fb7e742ea9bac25	0.09337251880394655
11	0x3fd5333a025b8b66	0.3312516234420201
12	0x3fc114cda3d71be3	0.1334473657609286
13	0x3fd31f7f40defc6c	0.2987974294191591
14	0xbfc48e5f703c7c9d	-0.1605948732403463
15	0x3fc3dc3a93b24853	0.1551583501027972
16	0x3fd0c77583bb92f9	0.2621740137531528
17	0x3faca4f908a47162	0.055946142487502085
18	0x3fd4b7e488c522a2	0.3237239204068293
19	0xbfe631105d4e7be7	-0.6934892485040763

linear.weight f8 [2, 5]
0	0xbfd8d18dcf0d2e09	-0.3877901575076242
1	0xbfdb22449048b30c	-0.42396654215080853
2	0xbfa3c6823ac0e93e	-0.03862387625891238
3	0xbfe01e1997c15271	-0.5036743129699756
4	0xbfba8ed765794949	-0.10374208667170594
5	0x3fbe231512886f96	0.11772281362976708
6	0xbfd0530744b9a5f0	-0.255067650904123
7	0xbfddebf5dab20c1a	-0.46752687794668335
8	0x3fd8942651becc25	0.38404233916225144
9	0xbfbf2974335bf2fe	-0.12172628644834657

linear.bias f8 [2]
0	0xbf925e5ba6860f67	-0.017938072241590854
1	0x3fb49df882c45e95	0.08053544228129746
