lstm_derivative_with_input2.pth (torch, 4432 bytes, 6 tensors)

lstm.weight_ih_l0 f8 [20, 3]
000000 db 47 c8 ea d7 a2 dd bf 2c c3 ec c5 f3 b3 02 40
       -0.4630641739651062 2.3378673041228435
000010 a7 fb 6e f1 df d3 c5 bf 03 21 86 bd d7 51 0b 40
       -0.170528405082192 3.414962273269454
000020 ac b4 7a 5e b6 c5 05 c0 8d ec af de 10 0c 01 c0
       -2.7215392476269553 -2.1308915517270806
000030 f0 56 2f f8 6e d2 d5 3f 0c 54 71 74 bf 67 d2 bf
       0.34096883999642014 -0.28758226748806304
000040 64 6e 73 af b2 df f0 3f 58 96 12 a7 06 8e b1 bf
       1.0546137670088678 -0.06857339457436618
000050 93 4f f2 e2 df 21 d9 3f e2 93 a7 8f 00 da bf 3f
       0.3926925388598132 0.12442019946281804
000060 28 ba cd 48 9b 3b ff bf 10 09 a4 4c 38 3c e8 bf
       -1.9520523876086688 -0.7573510643854053
000070 59 4e ec ca 8e 7d c5 3f 62 87 31 b8 98 d1 00 c0
       0.16789421947815944 -2.1023420705904963
000080 92 99 05 69 5e 9e d2 bf fe 84 77 08 19 86 fe 3f
       -0.29091606384317814 1.9077387171494702
000090 6d 8c 66 d5 08 c5 11 40 65 48 5e be 4e 8d ef bf
       4.44241650999457 -0.9859994619494158
0000a0 7b 51 d8 17 51 56 db 3f 93 2f 0f 1c 2a 53 0c c0
       0.42714335754978777 -3.540607661450801
0000b0 8f c5 6b 54 1a 7e 15 40 87 9d f2 83 4b 42 02 c0
       5.373147315099586 -2.282370596734555
0000c0 05 7b 26 ac ee 1e f0 3f 1d 49 ed 46 ec e7 dd bf
       1.0075518345472017 -0.46728045393423817
0000d0 61 b0 0a 61 3b 84 fa 3f 4c 8f 70 2b a5 32 05 c0
       1.657283190793372 -2.6497290986752997
0000e0 0b 92 43 27 5a 05 d7 3f bb c0 5e 26 25 cc c1 bf
       0.3597016700207695 -0.13904251454869673
0000f0 9e fa ce 74 9c 00 10 40 90 35 e0 e3 87 f0 02 c0
       4.000596833355898 -2.3674466898725726
000100 a2 49 a0 a1 ea 63 00 c0 3e 77 52 8b db 42 10 40
       -2.048787367538538 4.0652906197627185
000110 ca 30 93 2d e2 6a 07 c0 aa b1 cc a8 01 3f 06 c0
       -2.9271892128509522 -2.7807648837535526
000120 b5 1a c5 8d 7d 8a eb 3f 68 9b 95 7f 0e 00 db bf
       0.8606555718368641 -0.4218784566823417
000130 e4 7a 2e 7c 1a 30 04 40 10 e1 0d 52 c0 b2 e7 bf
       2.5234880162891944 -0.7405702211972613
000140 b9 7d e7 b6 67 0a dd 3f d7 ab 4a 3d 80 97 fc bf
       0.45376007901901577 -1.786987533016818
000150 0c b4 31 f6 16 47 de 3f ae e3 5f c3 5f 98 f6 bf
       0.47308897058866317 -1.4122007018870408
000160 97 f1 5c c2 ed 12 b6 bf 28 03 47 93 0d 2b 00 c0
       -0.08622632975761345 -2.021021986584305
000170 d8 65 a4 0a 84 1a e1 bf f6 cc ba 0b a2 54 fd 3f
       -0.5344867904524859 1.833162351435758
000180 b4 f1 bb 94 7b 02 eb 3f 71 20 c2 2f ea cf e1 bf
       0.8440530686344148 -0.5566302235392994
000190 db 7f ae 58 67 10 d9 bf 4e d1 50 5e c3 63 ff 3f
       -0.3916262022048593 1.961856239720038
0001a0 f6 4c a2 4a 7b aa f1 bf e6 d6 88 ce 99 62 0f 40
       -1.104121486224185 3.9231449256429753
0001b0 27 47 93 48 dc da dc bf 03 5c 94 b8 79 e9 98 bf
       -0.45085818374092174 -0.024328138247337715
0001c0 01 4f f3 21 65 33 f0 bf 6a 54 6d fe f8 47 e6 3f
       -1.0125476194561431 0.6962857217100809
0001d0 3a b2 4e 38 9a 09 e4 3f d2 8a e4 c5 33 9f bf bf
       0.6261721706155818 -0.12352298337331583

lstm.weight_hh_l0 f8 [20, 5]
000000 74 33 f4 14 7f 7f f4 3f e0 cd 05 0e b6 31 04 c0
       1.2811270540725817 -2.5242730231782247
000010 f5 e9 d4 0f fb 31 fc bf 26 4d 38 a8 b3 e7 0d c0
       -1.7622023218560774 -3.738135637491399
000020 79 76 68 45 db 10 e5 3f 34 3c f3 5c ca 3b 03 40
       0.6583076816202286 2.404194570706318
000030 05 d5 79 97 16 88 f4 3f c2 04 c5 03 09 3d ed 3f
       1.2832246701266865 0.9137005876183582
000040 43 a8 79 b7 89 b0 dc 3f 34 3b 8f 03 c6 69 d3 bf
       0.44827502171995465 -0.30333090159995213
000050 59 49 a9 bf 9d 67 f5 bf e9 54 48 5b b6 f0 d8 bf
       -1.3377969252365658 -0.3896919146948919
000060 63 d3 9c d7 50 73 e5 bf b5 cb a6 a5 0c be 0f 40
       -0.6703266345199207 3.967797559883787
000070 a4 f8 ab 9e f7 f2 78 3f b7 8e 64 39 30 e0 1a 40
       0.006091086640252073 6.718933960688154
000080 f3 1e 27 37 32 80 f7 3f f5 1a 0a 8c d5 cd e5 bf
       1.4687978891760707 -0.6813762412210439
000090 b9 84 b1 49 3c 25 f0 3f 47 a7 c7 50 d3 ae e4 3f
       1.0090906981134096 0.6463409974796627
0000a0 b3 e8 e0 6e 76 09 eb 3f fb 47 03 4b dc 2f 06 40
       0.8449051061245626 2.7733693943382582
0000b0 a1 6b 62 fc 9a 6f fe 3f 40 cc 22 96 41 46 f6 bf
       1.9022474154250875 -1.3921523918804866
0000c0 1b 1d c7 98 58 30 fe bf 58 96 98 e7 bb 1c 00 40
       -1.8868032424814547 2.014030274719328
0000d0 64 23 cd 2a a1 93 16 c0 ad c4 8b 6e 98 d8 e2 3f
       -5.644169491549153 0.5889398726559613
0000e0 55 1d 1a c5 5e 4a d6 3f af 80 94 93 39 b5 e1 3f
       0.34828919647448703 0.5533721811698536
0000f0 95 94 4f 61 f4 b0 03 c0 ee f0 07 0e 0e 16 1b c0
       -2.4614036180888186 -6.77153798984021
000100 53 f1 ce 38 53 f7 fb 3f de e7 fb 06 17 3c 11 c0
       1.7478821009709307 -4.30868159210692
000110 44 d7 56 f9 21 4b 16 c0 4b 44 89 73 c2 dd e4 bf
       -5.5733717879537075 -0.6520702606741308
000120 1f 70 60 bb ca 24 10 40 da 1c 33 8e b7 61 17 c0
       4.035929610978228 -5.84542677103965
000130 7f 37 ca 66 2b dd 26 40 75 d0 7f 38 4a bd 01 40
       11.431971752342859 2.217426721001227
000140 12 d9 24 61 37 eb 02 40 03 15 ac f6 fd 05 11 c0
       2.3648517217035385 -4.255851606610352
000150 87 fe d1 42 08 0c 11 c0 c8 ff e3 76 5e 41 04 40
       -4.261750263278038 2.5319184578256433
000160 62 bf 85 5b ea b0 15 40 8b 93 ae 51 a2 11 14 40
       5.422769002950959 5.017220760612768
000170 fe fb 63 9d 93 3a e0 bf fc 88 23 be 09 e3 ef bf
       -0.5071504663500261 -0.996464606633054
000180 28 04 8d e4 0a 53 e6 3f 6b 60 7f 42 4e ce 09 40
       0.6976370300182042 3.2257352061388267
000190 9b b3 c0 da ad 15 21 c0 29 9f 80 d8 97 74 ed bf
       -8.542342029593604 -0.9204825619280871
0001a0 73 20 de 13 d3 d3 f1 3f 07 32 36 6d a6 2a f2 bf
       1.114214971168647 -1.1354126230318131
0001b0 a1 4f 71 a5 60 a3 12 c0 44 96 fb a7 e8 3b 01 40
       -4.659548363724668 2.154252350201917
0001c0 99 7d e1 a3 da ab ee bf 43 cf ab 86 49 d3 fe 3f
       -0.9584782791898078 1.9265837917891566
0001d0 cb 7f 83 cd e4 14 91 3f 60 20 18 13 86 7e 1c 40
       0.01668126587253464 7.1235583289600015
0001e0 2f 9a 5e a9 b7 67 07 40 01 00 e9 10 79 e5 fa 3f
       2.9256432754512143 1.6810236607125264
0001f0 be 3e 54 06 43 30 10 c0 e1 eb 40 ac 75 8d 0e 40
       -4.0471306790274735 3.819072099429363
000200 ed 52 ca a4 63 c9 fb bf 6e fd 48 9a 66 cd f6 bf
       -1.7366672932741338 -1.425146677662123
000210 9c 31 e1 9f 90 f5 e5 3f 48 15 d6 9a e2 44 17 40
       0.6862261889123604 5.817270678822133
000220 5f 81 62 b0 db bc 0d c0 d6 24 31 34 10 47 4b bf
       -3.717215898519654 -0.0008324460144503397
000230 36 0f ff c7 76 ff e4 bf d9 00 7f 7a e0 91 c3 3f
       -0.6561845689943542 0.1528893087506791
000240 a4 76 86 ad f4 bc df bf fd 67 8f 2b 4e 17 cf bf
       -0.49590794511628133 -0.24289872290574968
000250 46 42 42 a8 61 1c 22 c0 b4 1f 8a a1 ed d7 f3 3f
       -9.055432565773241 1.2402168569696927
000260 73 49 6b 9a f1 f6 fc bf 13 ed b4 f3 dc b2 f9 bf
       -1.81028900451619 -1.6061677474779728
000270 66 79 e0 c4 49 a8 16 c0 c9 2e 2d 77 fd 14 e1 3f
       -5.6643439065941035 0.533812268034546
000280 0e ef fb b1 e3 70 f1 3f 44 e1 b5 7f 62 1a ef bf
       1.0900608971123265 -0.9719707960457886
000290 30 74 9c 31 ce 28 f1 bf a1 c0 0c 4c 05 a4 e7 3f
       -1.0724622667251076 0.7387720570896087
0002a0 e2 64 ec 2c be 9e ff 3f 2f 25 21 b1 b7 45 00 c0
       1.9762555842228768 -2.034041770767224
0002b0 a0 ee e9 c4 3b 58 f9 bf e7 7d 56 66 7f 57 00 40
       -1.584041375345727 2.042723464502831
0002c0 a2 bc aa cd 65 42 12 40 0b 94 19 25 22 5a 07 c0
       4.564841474100065 -2.919010438769424
0002d0 c7 36 21 a1 80 74 16 40 8a bc 3a 1a 2e ea ee bf
       5.61377193227026 -0.9660864364904154
0002e0 bf 55 f5 36 b6 4b 0b 40 42 7b a1 d1 26 37 c1 bf
       3.4119686406727108 -0.13449559436682007
0002f0 d2 94 a0 23 05 04 a3 bf 02 28 24 e3 e4 ed e8 3f
       -0.03714004573729714 0.7790398060180908
000300 93 20 98 9e 94 46 fa 3f 41 8a 6e ff e0 09 df 3f
       1.642231578358438 0.48497796005736765
000310 89 f2 3d 5f 49 91 f5 bf 0c dd 04 c4 a9 ae f0 3f
       -1.3479703636541294 1.0426423699371439

lstm.bias_ih_l0 f8 [20]
000000 f3 d5 92 45 5f 73 fe bf f8 32 9f 08 2b 3a d6 3f
       -1.9031670301168304 0.3473002990911449
000010 02 76 8b c6 c8 98 00 c0 c9 3d 2b 75 d4 b4 af bf
       -2.074601699000369 -0.061926497748227734
000020 a2 04 c9 04 3d 2f dd 3f 90 b5 e5 59 41 0c f5 bf
       0.45600820033366507 -1.3154920112241122
000030 4b d9 01 38 e4 06 fc bf 0f db ea 86 e8 4a 07 c0
       -1.751682490137301 -2.911576322595813
000040 4f c7 63 43 e6 02 f2 bf f7 9b 29 e6 ad e8 f1 bf
       -1.1257078773891924 -1.119306468079001
000050 51 42 78 d6 28 59 da 3f 82 a2 d8 f2 7e 61 fa 3f
       0.4116918653899449 1.6488027082615706
000060 f0 80 42 c3 03 87 dd 3f 49 9d 79 69 ad 7c 86 bf
       0.46136564319932827 -0.010979990750640172
000070 52 ac 4e 9a 93 a6 d2 bf 08 e2 46 38 a2 d5 f2 bf
       -0.2914170271785156 -1.177156658011997
000080 c8 02 ec dd 03 d1 f7 bf 84 7d 0b fb d8 07 c9 bf
       -1.4885290783715153 -0.1955519891553018
000090 6f fe d2 29 f7 dd f9 bf 74 dd bb 50 1c 67 f9 bf
       -1.6166907914884197 -1.5876734880128796

lstm.bias_hh_l0 f8 [20]
000000 b5 1b e7 d1 55 dc f2 bf cf 5f 2c 83 ce 84 c4 bf
       -1.1787927817656343 -0.1603029385084924
000010 15 54 ee d7 c0 4e fa bf e8 3f b0 72 a9 4e a6 bf
       -1.6442268786242995 -0.04356889271741676
000020 6a 63 87 80 3e 71 88 3f e6 05 27 0e 07 40 f9 bf
       0.011934746072186992 -1.578131728442139
000030 77 ce 16 0a ea 10 01 c0 23 2c af 29 7d b2 07 c0
       -2.1332588947496407 -2.962152791651094
000040 9c cc f7 7c d8 90 dc bf 9f 29 32 34 d0 e8 f0 bf
       -0.44634067729857363 -1.0568391837028697
000050 75 00 94 ca 26 5b ef 3f 00 cd e7 35 08 3f f9 3f
       0.9798768955806866 1.5778886895830624
000060 82 89 5b f4 49 d2 98 bf 49 4c 7c 03 e8 bb d1 bf
       -0.0242396884340308 -0.27709389057526274
000070 66 e5 22 d5 96 cb b1 3f ec 77 13 87 b3 f6 f4 bf
       0.06951277450106871 -1.3102298046501302
000080 a2 07 eb fa 9a d5 f4 bf 95 69 b5 84 35 28 e1 bf
       -1.3021497537124351 -0.5361583320584936
000090 8d 00 e1 11 18 34 f4 bf c1 10 15 1a 5f b9 f4 bf
       -1.262718267287741 -1.295256711849149

linear.weight f8 [2, 5]
000000 2b 70 31 3e 5e 5b e6 bf b0 21 4b 8b 3e e4 e5 bf
       -0.6986533369740803 -0.6841118546081386
000010 41 3f 5f 30 96 0a 00 40 fa 72 d0 ca a0 8e 00 c0
       2.0051692751948456 -2.0696426243651986
000020 bf bb fb b8 7a da d2 3f 94 f7 5b ed 99 7a f5 3f
       0.29458492340830483 1.3424319526525084
000030 c2 e0 df bb 55 d0 fc 3f f9 2e 76 77 41 8c de 3f
       1.8008630122040334 0.477310530339977
000040 5b ff 6d 4a c3 1e da bf ef 24 cb a8 85 94 fd 3f
       -0.40812761562846384 1.8487602799889904

linear.bias f8 [2]
000000 46 d9 e4 fc 7c 10 56 3f 84 ac 3e ff bf 35 a9 bf
       0.0013467045387876727 -0.04923820486814015
