lstm_wsize_4_smaller_net.pth (torch, 3915 bytes, 6 tensors)

lstm.weight_ih_l0 f8 [20, 3]
0	0xbfebc0c9f653f65f	-0.8672838030904123
1	0x3f9d44d98246a016	0.028582953049095826
2	0x3fe259b309f0339f	0.5734496301753217
3	0x3fef0ccb3faeaffe	0.9703117603107783
4	0xbfe67c92bdd1e7a9	-0.7027066905422902
5	0xbfe507f03474d810	-0.6572190308131685
6	0x3ff9af044a228b82	1.605228700246443
7	0x3fe85115fde7224b	0.7598981818237659
8	0xbfd1a44e38612c9f	-0.27565341478175215
9	0x3fff56f41d6598a6	1.9587288997950423
10	0xbff0c77254708db2	-1.0486930178093243
11	0x3ffba4f864f851b0	1.727775949873017
12	0xbff30f07f53ee556	-1.191169698706593
13	0x3f96a75493aaacf1	0.02212268973623294
14	0xbfed0eae811cee81	-0.9080421945322571
15	0xbfe60ea87bd84a67	-0.689289323696653
16	0x3fc7da47e77fac75	0.1863489036908025
17	0x3fcb4eb62fffbbf3	0.2133395895357065
18	0x3ff74b8aef877495	1.4559430462461809
19	0xbfdfdf88ce898b17	-0.49801845712333787
20	0xbfdfcfa529b5de31	-0.497048655255159
21	0x3fde2ce1d8016fd3	0.47148939222620107
22	0xbfc6d2f2fc0fcb6e	-0.178312657429696
23	0x3fb3673ced8f519e	0.07579403686333427
24	0x3fa7975611c6b855	0.04607647864337198
25	0x3fe39a9b68c0cee3	0.6126229330024809
26	0x3fde2d4a605e90c8	0.47151431475709815
27	0x3fd0721d93e709e4	0.2569650596962261
28	0xbfe494ab6b9a2c62	-0.6431481458288426
29	0x3fd1e0d97c738f58	0.2793487277360689
30	0x3ff95bc9d30250e8	1.5849092714825535
31	0xbff14f33e3a58a94	-1.0818365948149777
32	0xbff183bb32e8dc0d	-1.0946609486252357
33	0x3ffb3c9481ded6c9	1.702290065104011
34	0xbff579318fbf6def	-1.3420882811686814
35	0xbff2992aa03f2fba	-1.1623941669122204
36	0xbfea6f47d4854bd1	-0.8260840559763613
37	0x3ff66a370823be74	1.4009313886598678
38	0x3fd510bf46e6fbb4	0.32914716648150066
39	0xbffc2c370137e94d	-1.7607946441263096
40	0x3fe84da0c53eb51f	0.759476075405164
41	0xbffda3914b292cd2	-1.8524334846468276
42	0xbfe95e02e20e17bb	-0.792725984109658
43	0x3fe6afe51349fb37	0.7089715363252712
44	0xbff322d053013e3a	-1.1959994547249964
45	0xbfe1dec9b0ffa6d8	-0.5584457833294563
46	0x3ff058340c273118	1.021534011338252
47	0x3fd89f3ed9578c09	0.38471957421114716
48	0x3fee7c76409029c3	0.9526931057928824
49	0xbfe801d056296c31	-0.7502214129302783
50	0xbfe7c8250fada8cf	-0.7431817346780693
51	0xbffa37e45cf9786f	-1.6386455184761208
52	0xbfd8c1546a426762	-0.3867999112786632
53	0x3fd5bef5eb301619	0.3397803112751219
54	0x3fddc5635be4bb78	0.4651726148030586
55	0xbfd802918d5310b8	-0.3751567726251426
56	0x3fe820e58d7a3253	0.7540157092312917
57	0x3fcb034043eaaf47	0.21103671375510144
58	0x3fe19bc54ee70142	0.5502649823247696
59	0xbfd17b8099910c69	-0.2731629848169122

lstm.weight_hh_l0 f8 [20, 5]
0	0x3fef0819abf883b8	0.9697388037494568
1	0x3ff4c00b2b68a12b	1.2968856521275238
2	0xbfe16143c16fae5a	-0.5431231287052001
3	0x3fd6c20dd1765350	0.35559411483091186
4	0xbfe3b41b9b43c153	-0.6157358200562534
5	0xbfed4d0aca0a0426	-0.9156545587612797
6	0xbffef75a0c2d1dd7	-1.9353886104234925
7	0x3fe0ac39cb82e692	0.5210236525374106
8	0x3fedbd72efbbd96f	0.9293760950375097
9	0xbfce9c0333a82e9a	-0.23913612387001565
10	0xbff129ec311d3939	-1.0727350157281548
11	0xbfa16f98f7ca4e80	-0.03405454659255458
12	0xbfc34242ca5fc3f6	-0.15045962220713677
13	0x3fe700540fa18fc1	0.7187900834364812
14	0x3ff45c3ef48a6bf0	1.2725209762927499
15	0x3fd6f9c069d425ca	0.35899362883409636
16	0xbff357b365447fa2	-1.2089113193287422
17	0x3fde30fefbd73aea	0.4717404803640607
18	0x3fe6cfa369f35797	0.7128464764925749
19	0x3ffcc54c4ae7b25e	1.7981684614161604
20	0x3fe293ed26dace53	0.5805574187165327
21	0xbfdce331f7b9b9ae	-0.45136689369146665
22	0xbfd07e456624a279	-0.25770697569763673
23	0xbfe26ac5a9bf5c39	-0.5755337062245253
24	0xbfd74d73dfd2c9a2	-0.36410233361962174
25	0x40009ccbb27cbe2a	2.0765603966063013
26	0x3fc86461c5a8dc0f	0.19056341315601386
27	0xbff140ed9e285e44	-1.0783516099962904
28	0x3ff062f17cd7ba17	1.0241560818354907
29	0x3fcf610ee41bd086	0.24514948022954658
30	0xbfda0e1073f71a70	-0.40710841488581817
31	0xc002fcd226e14a0a	-2.3734477078917324
32	0x3fe4900fda09325c	0.6425856836809305
33	0x3ff2c8d3d3f8142f	1.174030139927037
34	0xbfe34c73f4be3a70	-0.6030826358927026
35	0x3fc228dc984f983f	0.14187200009399878
36	0xbfe8b36613f53250	-0.7718992605019341
37	0xbff7947430602102	-1.4737436189334976
38	0x3feced6a10ae22d4	0.9039812398705984
39	0x3fe897b92462d5f1	0.7685208998361174
40	0xbf777b963381478c	-0.005733095858959102
41	0xbfe804b933a11554	-0.7505765922912055
42	0x4002d7c1626d939c	2.35534932038213
43	0x4002f434e78e5aac	2.3692415323560763
44	0x3ffe702144c2174d	1.9023754773965778
45	0x3ff7d9d78c1d0705	1.4906840775660737
46	0xbffa84f9f89a6106	-1.6574649535232893
47	0xbfe4b1cd2f346070	-0.6467042848553444
48	0x3fe136d65125b835	0.5379439911755585
49	0xbfbd91d5dd5a919f	-0.11550652174134378
50	0xc0003f1f7222e612	-2.0308216969394914
51	0xbffdec62ef25382d	-1.8702115384690032
52	0x3fe2d46ee9df17b2	0.5884317939569341
53	0xbfd2ce369ad199de	-0.29383626097697213
54	0xbfe436e51b7dc5a0	-0.6317010437907591
55	0xc0032f0b84061cce	-2.3979711832394974
56	0xbff21db484b0adfe	-1.1322522338113
57	0x3feca468bc93b474	0.8950694735664357
58	0xbfd1df75f31a6c45	-0.27926396122501657
59	0x3fd736bab4a0581a	0.36271541251460493
60	0x3fd41ece44229a3f	0.31438023237061324
61	0x3fe7e4a13484cf7c	0.7466588998563419
62	0xc00b46c240fef6e3	-3.4095501973923645
63	0xbfe3e6d087beef37	-0.6219256068502322
64	0xbfd1cc3793144824	-0.2780894218750538
65	0xbfe125badc60f689	-0.5358557037613575
66	0xc000db689d9c3e20	-2.1071331322962266
67	0xbffb09030b83f10a	-1.6897001695461449
68	0xbff304f55d8b7b4a	-1.1887105611892417
69	0xbfeebfcebb64521c	-0.9609140071866622
70	0xbfd881ad3c37f64b	-0.3829148376533779
71	0x3fe77aeba9df08e4	0.7337549512669992
72	0xbfe9f4883517a933	-0.8111001049958645
73	0xbfe57cf00b1980b1	-0.671501180342622
74	0xbff26bd7ccce4b74	-1.1513288498142318
75	0x3feae3d29d34d0ca	0.840310389560295
76	0x3ff1b9164828e65b	1.1076872652760332
77	0xbfc9b4eff4dab97a	-0.20083426910191432
78	0xbfab8724079bb4a3	-0.053765417031038674
79	0xbf853da711b53500	-0.010371499278927221
80	0xbfe870f66296554c	-0.7637893605739605
81	0xbfef3a9338bb7069	-0.9759002788591832
82	0x3fa7e6a251586c54	0.04668147318826557
83	0x3fe66d996fb4ac62	0.7008788282158884
84	0x3fb4b7b83a892dfe	0.08092833928201768
85	0xbfe818f06d904e08	-0.7530443324962457
86	0x3ffa2f3816ec1e7a	1.6365281005290897
87	0xbfefc56e5460cd8f	-0.9928504608164291
88	0xbfb402915d78cafc	-0.0781641820147278
89	0xbfe886970d553ff4	-0.7664294491205497
90	0x3fa7df0616cc94a4	0.046623411448572655
91	0xbfe803bebcf53594	-0.750457161958979
92	0x3fbaca5e986cced6	0.10465041371645198
93	0x3fd97025a1a106cf	0.3974699095161726
94	0x3ff2a3498fcfe0d8	1.1648650758416377
95	0x3f806354d62215f2	0.008001959595513395
96	0xbfe4cbe6b0e202f2	-0.6498902754538831
97	0xbfbd81f542066641	-0.1152642522996752
98	0xbff2ff10ec9834d9	-1.187271999547468
99	0x3fd4c5e064b6005f	0.32457742533734363

lstm.bias_ih_l0 f8 [20]
0	0xbfed4dcae2d4d051	-0.9157461576746845
1	0xbff3b677132bc956	-1.232047152411345
2	0xbfe1493013acc81b	-0.5401840576435036
3	0xbfe27df792d4c0ec	-0.5778768413347541
4	0xbfe5dced0df8f899	-0.6832185051823841
5	0xbfec748d2cc26cae	-0.8892274736603178
6	0xbffd187e7f370d7f	-1.8184800118768576
7	0xbfe28320cb4485a9	-0.5785068483420918
8	0xbff1405ff2a73331	-1.0782165030133906
9	0xbff5e166a84444c2	-1.3675295422474822
10	0xbfc1213bf93ec928	-0.13382672949007568
11	0x3fcfcc501f20f27e	0.24842263717609464
12	0x3f9f6f586ce1e910	0.03069818653646289
13	0xbfd4710f184c98c2	-0.3194005715653355
14	0xbf95baf156b30bd7	-0.02122094241782321
15	0xbfe6ce533796be68	-0.7126861654014194
16	0xbff132168b332f11	-1.0747285306451355
17	0xbfe5c44bfa75b448	-0.6802120105545635
18	0xbff42880c73b949e	-1.2598884375122803
19	0xbfe7e2ed7fd5ef3a	-0.7464511391440063

lstm.bias_hh_l0 f8 [20]
0	0xbfe5985093aa6ad2	-0.674843109521442
1	0xbfe8cf871e708688	-0.7753329844019428
2	0xbfe6e8a6ac1a874b	-0.7158997880362475
3	0xbfdc510c424a5613	-0.44244677041692276
4	0xbfe286b0b38edfa2	-0.5789416796678675
5	0xbff55e233bfd24d5	-1.33548282082693
6	0xbff14295125b0e2c	-1.0787554471033998
7	0xbff1031602019f47	-1.0632534101841473
8	0xbff65b8bcb774fef	-1.3973501155751327
9	0xbfe2c0a85400eb9b	-0.586017765111467
10	0xbfc8465a717b7aa7	-0.18964701214914223
11	0xbfc3d44ad10afa17	-0.1549161453931027
12	0x3fc39d99ad84f88e	0.15324707958820166
13	0xbfaf00aff22122a4	-0.060552118593993925
14	0xbfbb9483c0112033	-0.10773490370877496
15	0xbfe3d93bae2d8b46	-0.6202677156364664
16	0xbff00eefa7a4b787	-1.0036465214320474
17	0xbfe53cfc6e04068a	-0.6636945866341233
18	0xbff5de2d0501123a	-1.3667421527362777
19	0xbfb4eaedf71d3687	-0.08170974047717482

linear.weight f8 [2, 5]
0	0xbfeaab480fb145e2	-0.8334083849423986
1	0xbfeb018a14041382	-0.8439379111228933
2	0xbfbef6fe3f1fe79a	-0.12095631638649565
3	0xbff4fb76b569a312	-1.3113925062591005
4	0xbfe849a224a48719	-0.758988448684451
5	0x3fea40b0d7e51807	0.820396825475428
6	0x3fef20506053b540	0.9726945763956465
7	0xbff47b97077ed627	-1.280173329619524
8	0xbfdd177e08118d4f	-0.45455885684915115
9	0xbfd0b7eda52ac9cb	-0.26122609262088464

linear.bias f8 [2]
0	0xbf97b6b2cc8c19e1	-0.02315787671525438
1	0x3f89da463777085c	0.01262335640683803
