mixed_input_experiment/Trained_lstms_exp/lstm_noisefactor6_ws8.pth (torch, 3802 bytes, 6 tensors)

lstm.weight_ih_l0 f8 [20, 3]
0.13243928559365917 0.19867832645133318 -1.1158409998109349 -0.14839111004114452 0.37943727886516954 -0.0071966717700499725 0.5576120642526978 0.4662638550291232
-0.5565043758615422 -0.002007623193790301 -0.25670893141148604 -0.016612708342640007 1.5823431441578468 -0.7407694222562626 0.6635901439674033 -1.0629148374469626
0.33293988071639863 0.02219751791707573 -1.2643482171723932 0.75195564856629 1.3470629854653295 -0.10593549290428066 0.13170487927528138 0.4125944773180128
0.467405956876299 -1.0161166469863625 -1.4945123848083872 0.2522095053349097 0.7705288029810601 -0.734282995321858 -0.6909618100406688 0.6874603127985708
0.5839461359999668 -0.3306885924911504 0.9208844278120601 -0.5796480782350542 -0.10988001820907133 -0.5693671754040831 0.8117906137079354 0.07317205728132062
0.568578502266212 -0.4681469944855596 -0.5443483156760035 0.5040635515376218 -0.4085935062548013 0.21430876934918613 -1.2006443174406707 -0.8259670697351386
-1.114769817971366 -0.29947702773112694 0.717425659769001 -0.5925799611513547 0.47724800199125705 0.19797410289244122 0.6229337817783817 0.2752418903627355
-0.49124824881952595 0.48979914418330905 1.2819183945617287 -1.021230316897034
00000000: 9149 2a40 c5f3 c03f 8f28 4499 4a6e c93f
00000010: 2095 9b17 7cda f1bf c669 52da 7afe c2bf
00000020: 12fc e64b b348 d83f d350 47de 417a 7dbf
00000030: 9e40 7a41 f5d7 e13f c90b 2a5a 44d7 dd3f
00000040: b8ff cc43 e2ce e1bf bb7c b87e 4a72 60bf
00000050: 5b38 404c eb6d d0bf 1156 1efc eb02 91bf
00000060: 0253 730b 4751 f93f 74f5 4e13 62b4 e7bf
00000070: b736 c965 213c e53f 2849 14fd b201 f1bf
00000080: 3982 cd12 e34e d53f 0b5d 0636 f2ba 963f
00000090: 6d2e 3832 c53a f4bf 574f d44a 0510 e83f
000000a0: 869c c3ea 918d f53f 4370 82a5 961e bbbf
000000b0: cb00 9b9a b4db c03f 3cd4 a5aa f267 da3f
000000c0: 8950 afac fae9 dd3f 44a4 7b87 0342 f0bf
000000d0: fc80 83d1 85e9 f7bf 72d7 4956 3324 d03f
000000e0: f1bf 2d05 2ca8 e83f 5752 5d0d 3f7f e7bf
000000f0: bf1b 1df1 5b1c e6bf c091 18c5 acff e53f
00000100: 87da 97ce afaf e23f 8b39 7a7c 002a d5bf
00000110: ad26 9b9e e277 ed3f 8cae 6620 7a8c e2bf
00000120: cf1c b1cc 1821 bcbf 89d8 b882 4138 e2bf
00000130: 4869 224f 30fa e93f 821a 0169 67bb b23f
00000140: 3625 0e8b cb31 e23f 9f50 c2cf 1ef6 ddbf
00000150: 7dc1 ae28 4d6b e1bf d5b5 9ee2 4921 e03f
00000160: de3a ae60 6526 dabf c2e5 cc41 786e cb3f
00000170: 2493 d8d0 d635 f3bf 5dbb 027e 526e eabf
00000180: 0814 6ce0 18d6 f1bf dc8a 00b2 a12a d3bf
00000190: 529c 40a8 26f5 e63f e01e 2d40 6af6 e2bf
000001a0: 0c90 2834 3b8b de3f 7461 b024 3757 c93f
000001b0: dbf9 89d3 12ef e33f fa37 6629 909d d13f
000001c0: a76a b97e 9c70 dfbf 0a12 7882 de58 df3f
000001d0: 0289 ccdc bc82 f43f 881a cc99 f556 f0bf

lstm.weight_hh_l0 f8 [20, 5]
0.09064786765621861 -0.4611427612924314 0.007606344882174486 0.07147160851715184 -0.4097090219493629 1.3739159410849286 0.028220857633484673 -2.6714275183484095
2.2920098772011017 1.2517445155121845 -2.78959186041521 1.7667836221614723 0.8844964646553846 -2.364492378652591 -3.2746536309627556 1.224138798331917
-1.4302138142250882 0.01843001694957754 -0.20984316581801107 1.4033389913444032 -0.23548885465122263 0.4219453588006428 0.2574602821946438 -0.8528844559665447
-1.0413203277736836 0.591726476501594 -1.304487774834752 -0.07602846028701228 -0.11424055268313495 1.013283201871119 -0.8744019640017517 0.5010530467773608
-0.8425563022864505 -0.02776826476183485 -1.0098644138392927 -0.9284965811242384 1.977942764427651 0.1829155509203451 0.17268920289604886 -1.2365956255929196
-0.6866927879026077 -0.3202109767177621 0.1990266767554572 -0.24672182567314122 -0.11190562965532955 0.5258912378284809 -0.4283235671556921 -1.60436566049248
-0.5550707970558764 0.16881003314710671 -0.2595854812819515 -1.2420238071199976 -1.8976798545809395 1.3850381406132792 0.32028860121414476 -0.5815666801797027
-0.2695499660261519 -0.2799239295132441 -0.31251731432943136 -1.6483218440517948 -0.5824961412274298 1.5907467296446187 -0.9873751481478189 1.4013810016221946
0.024135505315846652 1.1495732232243716 -1.0385488874854234 -2.263207972069147 0.12212623255358472 1.0642321688406786 0.7939535055163376 -1.9771708511026342
1.0043421812928015 -0.8097338939267889 1.9393855158438946 -0.4933004014441307 -0.7645613893508434 -0.016462053295924723 -0.34252298303488365 -0.1483183753657887
-0.8159801078510206 1.6727321999038938 0.14761963242088683 0.7513706876243399 -0.2209904402048497 -0.09967197833834608 0.5737563153455885 0.10995539052569377
-1.4863279911634835 -0.8624689770790671 0.7079720597737553 -2.1815619667176898 0.020394505451941776 -0.6810315316425889 1.4251250671408255 0.25595262792057627
-0.695237247989225 -0.22837829393818265 -0.48445092716639215 -0.5294998044687557
00000000: c31c 09db b234 b73f af70 a2ed 5c83 ddbf
00000010: 7f34 2da8 d427 7f3f 7076 2c9d f64b b23f
00000020: a483 8930 ac38 dabf f59a 2648 8ffb f53f
00000030: 594f 67b2 ede5 9c3f e186 0764 155f 05c0
00000040: 6d80 4546 0956 0240 b827 d141 2507 f43f
00000050: 765e 8d89 1551 06c0 ceab 44e7 be44 fc3f
00000060: 7eeb a387 cb4d ec3f 0da2 effa 7aea 02c0
00000070: 96b3 559a 7d32 0ac0 ec9a 8990 1296 f33f
00000080: 9325 66e1 27e2 f6bf 55ad 4080 51df 923f
00000090: 7f1d 3d0f 24dc cabf d669 1096 1374 f63f
000000a0: f955 a6b0 7f24 cebf 15db 2f1b 2701 db3f
000000b0: 12e0 02b1 3a7a d03f f693 b457 d44a ebbf
000000c0: e42a 0781 3fa9 f0bf 970d 185d 6cef e23f
000000d0: 3527 af92 2edf f4bf d179 7fe6 9976 b3bf
000000e0: e1a9 a66d de3e bdbf 43f6 5972 6836 f03f
000000f0: 1e43 ded3 19fb ebbf 9c09 2f66 a008 e03f
00000100: e37c 6ba2 38f6 eabf 2d33 13b4 486f 9cbf
00000110: f357 6d96 6728 f0bf 970b 4c76 3eb6 edbf
00000120: ba39 e94f a7a5 ff3f 79fc 90da c669 c73f
00000130: 8dc9 6707 ae1a c63f a2c5 a47e 18c9 f3bf
00000140: be1a 4e27 63f9 e5bf 20ac 342e 567e d4bf
00000150: ca1e d9c5 b479 c93f fade 3cae 9494 cfbf
00000160: 2ea1 9beb d8a5 bcbf b73d 77dc 19d4 e03f
00000170: 628b 4240 a769 dbbf 1140 aa53 7bab f9bf
00000180: 823a 0ad5 23c3 e1bf 773f cd31 919b c53f
00000190: 6fd5 276c 0c9d d0bf daf0 065b 54df f3bf
000001a0: 3040 1b8d e55c febf d158 dac0 1d29 f63f
000001b0: ffc3 dfc2 9b7f d43f 6b15 fab9 319c e2bf
000001c0: 4e18 2e80 4e40 d1bf ec23 a80e 46ea d1bf
000001d0: 5da2 1e9f 4800 d4bf 08c2 d7b9 865f fabf
000001e0: b9c6 93f2 cea3 e2bf 74ae c0d7 b273 f93f
000001f0: 7bb2 45c4 9398 efbf b03f 337c 0e6c f63f
00000200: 6717 0458 fab6 983f 1cb2 61e4 a664 f23f
00000210: d4c0 3070 e59d f0bf f1aa 00c8 0c1b 02c0
00000220: 6b24 cd2e aa43 bf3f 8f59 884f 1807 f13f
00000230: 5a97 972e 1168 e93f de71 01e7 7da2 ffbf
00000240: 8c55 6a1b c911 f03f f61a 1c0e 57e9 e9bf
00000250: 7d2b 4e1b b907 ff3f fc98 d3d8 3b92 dfbf
00000260: 6e7a 6172 4977 e8bf f5bf 1fb2 6ddb 90bf
00000270: 13d8 9084 e5eb d5bf dbc3 cbb5 18fc c2bf
00000280: 9303 ad50 821c eabf 8eda d8d6 82c3 fa3f
00000290: 5c64 bf3a 33e5 c23f 55a0 508a 3a0b e83f
000002a0: d848 b42c 6a49 ccbf f972 4a4f 1a84 b9bf
000002b0: 6a0c 4934 365c e23f bda6 5356 0926 bc3f
000002c0: 1ad3 12dc ffc7 f7bf 37d0 4b8a 5899 ebbf
000002d0: 9eb8 6605 b5a7 e63f d5ff a9c2 d673 01c0
000002e0: a29a bc17 4ce2 943f 0364 7ea3 02cb e5bf
000002f0: 3f46 41f1 4fcd f63f da9f 8f21 8761 d03f
00000300: 7664 622f 623f e6bf a856 cafb 7f3b cdbf
00000310: fc93 2c76 3e01 dfbf 7dd0 ed92 a9f1 e0bf

lstm.bias_ih_l0 f8 [20]
0.27449595046037684 -0.8088690300197846 -0.7948733046529587 0.35685619791495504 0.6766713798207242 -0.8576262667718076 0.3774138557114892 -0.5438603403566925
0.48712465663082566 0.45960618772533407 -0.4999265629281891 0.39233016000105053 0.20568781531294147 -0.26302778853433123 -0.6722086291278746 -0.04964423212390573
0.748822025593533 0.3100877830789952 0.17663930916065745 0.7028868044815278
00000000: fd26 8776 5791 d13f b9d4 d54d 41e2 e9bf
00000010: 3755 fe23 9a6f e9bf 4edb da60 bbd6 d63f
00000020: ba03 cfbc 4aa7 e53f 2d37 ffa3 ac71 ebbf
00000030: 94a3 d571 8c27 d83f af8c edcc 4d67 e1bf
00000040: fd7e 53e5 0c2d df3f 7373 5412 306a dd3f
00000050: 9568 8bfb cbfe dfbf e917 9cf5 ef1b d93f
00000060: f535 fa73 fa53 ca3f 0f6d 6c81 72d5 d0bf
00000070: d02e c6ab bb82 e5bf 887d d002 f86a a9bf
00000080: be5b ce9b 59f6 e73f c8a8 cd6d 7ad8 d33f
00000090: 363b 04ec 1d9c c63f 2f38 c177 0c7e e63f

lstm.bias_hh_l0 f8 [20]
0.25706138298420733 -0.37788066688725946 -0.15602122704095728 -0.09192982251469609 0.8142951258954045 -0.7966167596237337 0.6926903223660362 -0.850092855361616
0.47758809753884945 0.16893468434521994 -0.8961513406319017 0.3229225812229093 -0.5050250996499617 0.3604741288261166 -1.0722654681137087 0.14007494550370975
1.1316089063373957 0.8262496821254761 0.5056537003040346 0.668016335596186
00000000: 32d4 3e96 b173 d03f a192 8464 322f d8bf
00000010: b6b4 cfe9 80f8 c3bf d24a 3a7d b688 b7bf
00000020: 366a e0a6 b40e ea3f 16f1 406e e27d e9bf
00000030: 9b2b 1ae5 842a e63f beec 8aee f533 ebbf
00000040: 8ad8 f8aa cd90 de3f 671e 36d8 a69f c53f
00000050: 76fa 8893 45ad ecbf d481 5f79 c3aa d43f
00000060: b6fb d465 2a29 e0bf 4c2f 9714 0212 d73f
00000070: 2ddb e2d5 ff27 f1bf 8eb5 f6ce f9ed c13f
00000080: 964d c9f0 111b f23f eae5 612c a370 ea3f
00000090: e507 3dab 502e e03f 478a 52cb 6360 e53f

linear.weight f8 [2, 5]
0.4399565555624827 -0.33621377742909153 0.0025081975304598898 -0.2747421539407895 -0.14826127284391896 -0.42376624666318774 -0.4310282462835679 -1.0516910504776626
-0.8441770498033039 -0.3968332869638412
00000000: 904e 738a 3f28 dc3f ce71 a1ca 8684 d5bf
00000010: 84fd af4b 128c 643f cc87 801d 6095 d1bf
00000020: 2761 10b3 39fa c2bf b84a a476 fc1e dbbf
00000030: 8b2b 5c7f f795 dbbf 57c2 b4fe b9d3 f0bf
00000040: e80b 9e96 7f03 ebbf 1154 5e71 b765 d9bf

linear.bias f8 [2]
0.08862386892039877 -0.2949368104564515
00000000: 7979 a8ca 0db0 b63f 3602 d3a4 3ee0 d2bf
