mixed_input_experiment/Trained_lstms_exp/lstm_ws4_Ansatz3.pth (torch, 4066 bytes, 6 tensors)

lstm.weight_ih_l0 f8 [20, 2]
0	0xbfe57f72b2f28f27	-0.6718076224392221
1	0xbfc0cc3ec1d557d7	-0.13123306717414948
2	0x3fe13b09dfb0e0ef	0.5384568566287536
3	0xbfe6ff61c9f159c2	-0.7186745590395776
4	0x3fdbc84fa76a1193	0.4341010222344945
5	0x3fd080dce071d034	0.2578651611177094
6	0xbfc9c83ad60a617f	-0.20142302943419207
7	0x3fe266a4fd4c7e8d	0.5750298449747376
8	0x3fd2aba581c433be	0.29172647163869303
9	0x3ff83e24425d13bd	1.5151712982490004
10	0x3fc04f1387cfa48f	0.12741321689035032
11	0x3fe705b2e59f6387	0.7194456562821053
12	0xbfd1b32db5fb116a	-0.2765611912875757
13	0x3fa1bf98e11d5d78	0.0346648955152728
14	0xbfce774390543938	-0.23801464602770195
15	0x400057952280af4e	2.0427649207612495
16	0xbff3fa1ffea0b26e	-1.2485656687159934
17	0xbff103dc2c149e0a	-1.0634423944374043
18	0x3fe3468b189e1a9a	0.6023612480938312
19	0xbfe7ea632c1e7c4f	-0.7473617421818605
20	0x3fb54598639f5e08	0.0830931895464958
21	0x3fea409109afa233	0.8203816594296484
22	0x3faaaa0178b21c34	0.052078290923468634
23	0xbfe49f0782de72bc	-0.6444127613100004
24	0x3fd7fd9259f7b91f	0.37485178743271946
25	0x3fef7ac1ae9a4415	0.9837349329192216
26	0xbf96a7ea71fce6f0	-0.0221249229500477
27	0x3fe65ad7669e79bb	0.69858903925688
28	0x3fb61c6e95c7ffdb	0.08637133747833962
29	0xbfe6d1aa76ac8b0b	-0.7130939786769387
30	0xbfd03562c95619fd	-0.25325841581107494
31	0x3fe23616a0d2ab85	0.5691025868485303
32	0xbfdec07b9a263dc8	-0.48049821904802714
33	0xbfed5c82af078774	-0.917542783598249
34	0x3fde88f88b27ef72	0.47711003865673896
35	0x3fdbb33f08623b5a	0.43281532114717935
36	0xbfb0f8f00e69cd64	-0.06629848815810174
37	0xbfdb8760a32f7f24	-0.4301377862557152
38	0xbfc6a5c7d06da949	-0.17693422009626605
39	0x3ff29bb7a854ad1c	1.1630169463558735

lstm.weight_hh_l0 f8 [20, 5]
0	0x3ff39ae480684ed2	1.2253155723491784
1	0x3ff30d38f57db217	1.1907281484119545
2	0x3ff887dfefe26918	1.5331725473866467
3	0xbff4e6f090ba65ff	-1.3063817647401945
4	0xbffb98358d447288	-1.7246604460007422
5	0xbfc6118e65a5cb27	-0.17241077388060796
6	0x3fd6bcf2bf1cbc81	0.35528248465829654
7	0x3f90d4ad70dc9f79	0.016436300290620907
8	0x3fc1c74e9df7057b	0.1388948699296114
9	0xbff33925032012b6	-1.2014513132173028
10	0x3fce9ba9a3ea3f77	0.23912544730819338
11	0x400375590cdf4f4e	2.4322987561844576
12	0x3ff56ad28513cc64	1.3385796736081597
13	0xc000d01c570c30ff	-2.101616554317047
14	0xbfd2501ba023bc26	-0.2861393989432507
15	0x3ff86ab70a269140	1.5260534664640346
16	0xbfec6357177a6554	-0.8871264895016489
17	0x3ff4c7b9119e89cb	1.2987604797605055
18	0xbfe6dc39b2e74279	-0.7143829817014896
19	0xbff338a60f8d2a7d	-1.2013302428701131
20	0x3ff44674b050d82b	1.2672011267982366
21	0xbfe9b9e2141b4dba	-0.8039408104618169
22	0x3ff5f1fc9c5de7af	1.3715787990645187
23	0xbfefa8414d899550	-0.9892889513400096
24	0x3fc8dde5b3a92395	0.1942717673539646
25	0xbfeaddfc38f18c77	-0.8395978080919936
26	0x3ffda688ed71c3f0	1.8531579280063362
27	0x3fcce397057eedfd	0.22569549339628728
28	0xbfe70dd8950d17dc	-0.7204401885180647
29	0xbff22e8d9ce683a8	-1.1363655213283241
30	0xbfe3cad6a6073dea	-0.6185105555286416
31	0xbfe4c3dd112552f6	-0.6489091238859988
32	0x3fdce36da7a20d14	0.45138112421428045
33	0x3fcd7946cf798e21	0.23026356821638763
34	0xbffa23b4d888237a	-1.6337173898957347
35	0x3fe0f3b1af5a0b33	0.5297478127325576
36	0x4002f1fbcaeab13f	2.3681560376045634
37	0x3fc5ad6e86a472c6	0.16935521673521786
38	0x3f9b6da5c66ba969	0.02678545974314642
39	0x3fe09b7101eaa30a	0.51897478460623
40	0x3fe4acc36b5477e3	0.6460892769134684
41	0xbff07f70fa22488e	-1.0311136027199015
42	0x3fd822ca5963c10a	0.3771234391160908
43	0x3ff520e78b3f18ea	1.3205333175006282
44	0xbff32576363b6f5c	-1.196645938724905
45	0x3fe14533d1fb8cf3	0.5396975613806759
46	0xbfff6ef3e0f59308	-1.9645880496474906
47	0x3fb7aca1ca4bac4c	0.09247790516717308
48	0xbfcc4bb463060f3c	-0.22106032214298377
49	0xc0028118a7ec33e6	-2.3130353087385513
50	0x3fd0ff7d2c450525	0.2655938083954246
51	0xc002212d23fb2c63	-2.266199380018905
52	0x3fcbeaaf97bfc0d5	0.2180995455705729
53	0x3fdf8d569eb77688	0.4930016088454541
54	0xbfffc60381268b39	-1.9858431858962844
55	0x3ff45778adc5f09d	1.271355322648595
56	0x3f9aa4912e939005	0.026018398731039855
57	0x3ff24f49cdc68584	1.1443574941734775
58	0x3feac5dac94c0e3d	0.8366521770080407
59	0x3ff3d968527095bb	1.2405780048660364
60	0x3ff3876b378ae724	1.220561234439125
61	0xbffe1dfa9926f384	-1.8823190672403323
62	0x3fee64fbe758968e	0.9498271482923017
63	0xbfae24406bab2e62	-0.05887032808604144
64	0xbff536db028e8374	-1.3258924579497178
65	0xbff04f5076c35321	-1.0193638457469165
66	0xbfff33cb104bab87	-1.950144828467019
67	0xbff326d2450aa91e	-1.1969778725566083
68	0x3ffe63c1c585413a	1.8993547168393676
69	0x3fef330f08b11775	0.9749827546845454
70	0x3ff2c4b5f5228f78	1.173025090750313
71	0xbfebf861a98081aa	-0.8740700064263838
72	0x3ff322dcec15a53f	1.1960114690831032
73	0xbfb3e3fbc2a9a1b8	-0.07769750120645014
74	0xbfe7c66bd6627a5b	-0.7429713427735111
75	0x3fc1620b2bda1020	0.13580455437852468
76	0x3fed744ccbdf5355	0.9204467756158957
77	0xbf8192b2f8f23622	-0.008580587599023085
78	0xbfc76f708094ed61	-0.18308836248784657
79	0xbff7c10e1fa6ea4c	-1.484632609978365
80	0xbfd409e3894f8b52	-0.31310356530427896
81	0xbfe5d955b6c9849a	-0.6827801294386007
82	0x3fd31939c453be10	0.2984146516091366
83	0x3fcca3c591f3cfc9	0.223747917428794
84	0xbffe67a6ecdacc8a	-1.900305676663978
85	0x3fb0ddb600167433	0.06588304044858333
86	0x400297cb12f5788f	2.324117801777056
87	0x3fe3eefb69ea5e4c	0.6229226177847038
88	0xbffead57465e73d0	-1.9173195599353114
89	0xbff22cff5f0968f9	-1.1359857284901962
90	0x3ff591ef3fb41c1d	1.3481285561008527
91	0xbfe2121b935ba30e	-0.5647104147038549
92	0x3fee070cd84c1cfa	0.938360617118547
93	0x3fd1d1ffebca2bc1	0.27844236399021943
94	0x3fe323e497c64b14	0.5981314625117613
95	0x3ff07fe866e168a0	1.0312274950761449
96	0xbfe92388c4733777	-0.7855876767077764
97	0x3ff93c8d9b1f0b9b	1.5772834834503786
98	0xbff5563f3ed3c9e5	-1.3335564092818626
99	0xbff444083c1327f9	-1.2666094156907077

lstm.bias_ih_l0 f8 [20]
0	0xbfc691cd781474df	-0.1763245426490476
1	0x3ff6bc9f7e5d66bf	1.4210505424620548
2	0xbfc8ab0f50a358b1	-0.1927203315487467
3	0xbfe2c30ecf74219d	-0.5863107730702272
4	0xbf71d78d8e530864	-0.004355957940051256
5	0x3f83a3c98d3707e0	0.009589743253744787
6	0xbff1a8aa09723555	-1.1036777848233517
7	0x3fa883f41cf7a96f	0.04788172582250893
8	0x3fefb7c199ab4523	0.9911811829898948
9	0xbfd19e25c83ac1a6	-0.27527756265319636
10	0xbfd048654febb840	-0.254418685958516
11	0xbfcc53a530149855	-0.22130265090635484
12	0xbfe36d8b4ee823b2	-0.6071220914028486
13	0x3fe5b1ea3a0086d7	0.6779681332447706
14	0x3fcd5c61ef0d4927	0.22938179180580073
15	0x3fdfe39b9e18418c	0.4982670825857205
16	0x3ff41cfe72f4864a	1.257078599017762
17	0xbfc0054cad931b0b	-0.12516172862361716
18	0x3fbc2bab3fe486ee	0.1100413352001188
19	0x3fdc7d102a9b78aa	0.4451332489096652

lstm.bias_hh_l0 f8 [20]
0	0xbfd0ed71ea53d251	-0.26449249156511195
1	0x3fe50e70be20a7b9	0.6580127442768947
2	0x3fd2fc4978b8e360	0.29664837636260266
3	0xbfc1e5e4c3a5dcde	-0.1398282962142962
4	0xbfd111ad009a3923	-0.26670384463149527
5	0xbfb0efc2c9b5001b	-0.06615846085060222
6	0xbfe9f5894f526f2c	-0.8112227010019288
7	0x3f7a330b7e090b66	0.006396336452385442
8	0x3fe28d6137afa7ce	0.5797582709903908
9	0xbfdc38df75454daf	-0.44097124531000537
10	0xbfdf610dfbc4188f	-0.4902987440731374
11	0xbf973326d9cef48b	-0.022656065982790834
12	0xbfd8f89497f1f415	-0.3901721462096373
13	0x3fdce90c0cea4beb	0.451724064457436
14	0x3fc20b5fad4798cd	0.140972098931519
15	0x3ff04ee2f782f175	1.0192594211976858
16	0x3ffa244a8392a804	1.6338601245465734
17	0xbfa26fcb0f0a2bc1	-0.036009164415268476
18	0x3fd09dcf5e523817	0.2596319600205574
19	0x3fe39ca7ed636b7a	0.6128730427256948

linear.weight f8 [1, 5]
0	0x3fe0d33ebe45eb05	0.5257867542526077
1	0xbfd8813a470ad570	-0.3828874295971536
2	0x3fde567b0ead0c4d	0.4740283625907907
3	0xbfd5d8c8e86550c5	-0.3413564939012413
4	0x3fc7267dd679b1cf	0.18086216900282046

linear.bias f8 [1]
0	0x3fc5586faf35ca6d	0.16676136069471018
