mixed_input_experiment/Trained_lstms_exp/lstm_noisefactor4.pth (torch, 3802 bytes, 6 tensors)

lstm.weight_ih_l0 f8 [20, 3]
0.22560815311532295 -0.027311247190977866 0.2532162006308209 1.1669841402591166 -1.047819994517144 -0.8780968117232967 -0.8835491461849797 0.9943668385503251
0.05288273587508867 -0.37999849552801057 -0.2980520542201812 -0.17220444305752494 -0.5954343327102939 0.1371736758376322 -0.6256416023891549 -0.19506920216502083
0.10034897896382944 -1.8286144657763848 1.2472005112135012 -2.040284720928093 -0.5393741351757594 0.0161502679686647 -0.6398973207407087 0.7314723903084854
0.17774736164504454 0.05603978138629348 0.1926671246464682 0.44871937288047953 -1.4143184799293311 0.9944566835739115 0.19528662509037326 0.028549888992187196
-0.9765584413810439 0.2701516228296192 0.10963317442582712 -0.49895952221028533 -0.29994853794758164 -0.03189643663291381 1.2256031198951072 -0.13216238073290107
0.24185129736285274 -0.7432059351067538 0.7832867073434494 -0.2924159600819826 0.5682302679396807 0.036098387561661935 -0.11015673291120404 0.2994561993433031
1.0241805510127995 -0.4203738562868025 -0.9319497263589157 0.24265561668691452 -0.22480273896476383 0.15031806284597282 -0.36000816805203023 0.9589974494109035
0.08154065052867845 0.47216596764724084 -0.18222127561587578 1.1868260557617851
00000000: d2ae ab5b bae0 cc3f db2d fec5 7af7 9bbf
00000010: 47b6 21b9 b134 d03f 3cd1 d58f f7ab f23f
00000020: 8dbc 08e6 dec3 f0bf 8759 227c 5e19 ecbf
00000030: 25be e8db 0846 ecbf 2d9e 7967 dad1 ef3f
00000040: b688 362a 7213 ab3f c69b b435 e551 d8bf
00000050: 2c67 58ec 4813 d3bf 2938 9491 cb0a c6bf
00000060: 5f00 3d4d cc0d e3bf 4d20 cc31 e88e c13f
00000070: 1ce9 a889 4105 e4bf beb6 e011 07f8 c8bf
00000080: 002e d67e 78b0 b93f 8908 f83d 0142 fdbf
00000090: a876 f385 88f4 f33f 3251 b7cb 8052 00c0
000000a0: e36b dc8b 8d42 e1bf 00fb fc22 b289 903f
000000b0: c523 2cf2 097a e4bf 1aa9 49c9 3868 e73f
000000c0: bb9d 9bf0 6cc0 c63f 6c82 a808 3fb1 ac3f
000000d0: d97a affb 50a9 c83f 499c e675 d1b7 dc3f
000000e0: 6ecc 166a 0ca1 f6bf 5ea2 a7d2 96d2 ef3f
000000f0: b6ff 0df2 26ff c83f d27e 1a9e 2e3c 9d3f
00000100: 7ba8 0b7d f73f efbf 3fee 4008 2a4a d13f
00000110: fa30 b772 eb10 bc3f 07f1 7aeb f3ee dfbf
00000120: b7f1 3d5a 5b32 d3bf a904 65d0 ba54 a0bf
00000130: 6a33 5d04 129c f33f 1731 8167 b2ea c0bf
00000140: 7595 55ba fbf4 ce3f 5b40 2fd0 57c8 e7bf
00000150: fbcf ed48 af10 e93f 0b5b 586e f1b6 d2bf
00000160: 6ebe 2c3e f12e e23f 0e06 08e4 7c7b a23f
00000170: 1caf 494d 3b33 bcbf 73e4 b055 4a2a d33f
00000180: a9c9 3c25 0b63 f03f 1918 36bf 67e7 dabf
00000190: 4149 873b 88d2 edbf 9135 eed8 560f cf3f
000001a0: 4ad3 f30d 56c6 ccbf 90f4 f54d 9f3d c33f
000001b0: c9e2 04b3 5f0a d7bf 125a 456b 1bb0 ee3f
000001c0: 82b3 501b d9df b43f de0f 559b f737 de3f
000001d0: 55ea b3d9 0653 c7bf c399 7851 3dfd f23f

lstm.weight_hh_l0 f8 [20, 5]
0.8570203845444333 -0.09038640350839446 2.150606693929985 0.5235697819732229 -2.108106939702313 -1.2705743003619632 -0.22743998540500662 0.17313646550555012
-0.547022950792614 -0.9805608233140314 0.4832592468084331 -0.3472996729862753 0.08794623556931261 0.3825488472734288 -0.6924051226328203 -0.45154917179105253
-0.8971349033050952 -1.554031858199701 0.053528334520308286 2.303277485325547 1.1491040295526245 -0.5069623508856925 -0.20107994980180352 0.4257491951983151
0.38295287752378393 0.14101143783815112 0.46961697743321246 0.18318749262660652 -0.1813112120741181 0.777813799064329 0.7464216567083896 1.2938058494870281
0.6974299140956087 -0.5189029314602951 -0.14327266286249082 -1.3907284486223987 0.1327123677833551 -0.4834022521350138 0.5064890572736451 0.5580361051848013
0.1664421539814895 0.15549656165708822 0.9115912223091435 0.2378794023612762 -0.866913445689974 0.11576355980464298 -0.5649457420836824 0.6607388925824728
0.057895558376090984 -0.8977975543753896 -0.378041080151136 0.4250514341719273 0.23730161126200902 -1.4051444353758409 0.06613192713883013 -1.2344143855655973
-0.55849989606866 1.0445408918138765 -0.48876074529796976 -0.4030127121836943 0.4791917949987421 -0.5821645646581476 -0.211692666658614 0.6283678554466866
-0.5144004502899915 1.9150364036867522 0.31778316760016323 -0.23456149290722217 -1.0917173255357036 -0.2126805298989657 -0.05806106347698438 0.9860067619214132
-1.1222154156274826 0.8110506981238798 0.7075889465794855 0.9153252773268515 0.21047001496590723 1.3000653471007546 1.1058936209789294 -2.4810134850404686
0.2623590523232713 0.3541713388088196 0.24356280441293296 -0.7039429752486688 -0.41607878894714595 -0.48356890511326106 -0.32430019297103824 -0.3055425589549028
0.21399082852906076 -0.5947485118410095 -0.32682097753035705 0.4045844874748396 0.01709042412290821 -0.6525767288216996 0.7441947087073449 -0.14540710533027204
-0.2347903241632351 0.20922387032120127 0.40919864082428364 -0.42041721700051643
00000000: 3af5 7303 b66c eb3f 4955 1237 9023 b7bf
00000010: 5be7 4748 7134 0140 85f6 576a 15c1 e03f
00000020: c7ef d32b 67dd 00c0 5a15 b3b7 4554 f4bf
00000030: 1701 8fe1 c01c cdbf 02b2 8bf0 5529 c63f
00000040: 2b1a 7a46 3681 e1bf 55ec 7b17 c160 efbf
00000050: 3709 2231 b8ed de3f 92cd 5868 283a d6bf
00000060: 2296 93fd a483 b63f 2b5c 0a29 ae7b d83f
00000070: 804e a9c9 2e28 e6bf a138 587f 2ee6 dcbf
00000080: c974 b941 54b5 ecbf a58e 7e82 50dd f8bf
00000090: f51f 59dc 1068 ab3f d5b0 08bf 1c6d 0240
000000a0: df15 2ae8 ba62 f23f 376f ab1b 0939 e0bf
000000b0: 43d9 23e0 fcbc c9bf 9234 6b8d 793f db3f
000000c0: 72eb 37c9 4c82 d83f da3a f0ac a90c c23f
000000d0: 8935 ee5d 340e de3f c50a ef10 b072 c73f
000000e0: 9ad3 20af 3435 c7bf 5c7b abc3 d9e3 e83f
000000f0: 67d6 92ab afe2 e73f 7cb9 2ec3 6db3 f43f
00000100: 095e 098a 5851 e63f b674 0d52 da9a e0bf
00000110: a3de b334 c256 c2bf 4733 4779 6c40 f6bf
00000120: f2bd b307 b8fc c03f 6be3 eeff 0ff0 debf
00000130: acb5 188a 2835 e03f a430 b888 6edb e13f
00000140: 975d 03fc f94d c53f ff93 7ab3 4fe7 c33f
00000150: 136e e45a c12b ed3f 7e50 c40e d572 ce3f
00000160: 7f6f 3644 c1bd ebbf 84f2 6d3f aea2 bd3f
00000170: 9971 c817 0914 e2bf 85c8 dae3 c524 e53f
00000180: 4531 9e93 7ca4 ad3f 1613 cfef c1ba ecbf
00000190: 10cb f236 d331 d8bf 8bb9 38ee 0a34 db3f
000001a0: 9147 d431 e65f ce3f ab87 41bb 787b f6bf
000001b0: 0361 48a0 05ee b03f 7475 7b4c 29c0 f3bf
000001c0: bce5 8d2c 3bdf e1bf eccd 9a82 70b6 f03f
000001d0: 3ae5 2726 db47 dfbf eae0 acd4 f5ca d9bf
000001e0: 18fe 0110 14ab de3f 2919 c394 17a1 e2bf
000001f0: 0507 0dcc be18 cbbf 9f09 a0e7 961b e43f
00000200: ca61 e1ee f775 e0bf b0be 4736 fda3 fe3f
00000210: 9cf7 0336 8f56 d43f 88fe 776a 1c06 cebf
00000220: 5d70 1a96 ac77 f1bf acbc 3498 1d39 cbbf
00000230: 32f8 9b01 2eba adbf 64cb 820d 5e8d ef3f
00000240: 4dfe d226 98f4 f1bf 8be1 fa97 20f4 e93f
00000250: 493d 1293 91a4 e63f 4945 6a3c 584a ed3f
00000260: 149a 8873 aef0 ca3f bd5e 4752 11cd f43f
00000270: 335a 6f82 bdb1 f13f 6b78 1999 1dd9 03c0
00000280: a46e 629f 7dca d03f 9752 5743 beaa d63f
00000290: 2fe0 bce3 102d cf3f 9e24 1e6b b386 e6bf
000002a0: f795 c5ed 08a1 dabf 25bc 34fe caf2 debf
000002b0: 0f6a b998 55c1 d4bf 60d6 8f60 028e d3bf
000002c0: ae8f 162d 0d64 cb3f 2f75 f607 2e08 e3bf
000002d0: c5ef 8888 a2ea d4bf 4b18 8b55 b6e4 d93f
000002e0: 4a0b bbf2 2680 913f 7f6f 8d97 e8e1 e4bf
000002f0: 2b23 f86b 71d0 e73f 1df1 ff34 b39c c2bf
00000300: fc62 d9fd 9b0d cebf b83a 4908 d9c7 ca3f
00000310: d51b fa7e 4f30 da3f cb52 6c9d 1de8 dabf

lstm.bias_ih_l0 f8 [20]
0.160651615039326 -0.47467560726655156 -0.04379690122880521 0.29986049102629797 0.8770330023026024 -1.2174347400787933 -0.2617108583984228 0.12095460465339619
0.7029227603342356 0.685436584689544 -0.18790527367636797 0.058876229312312706 0.5332877946153031 -0.14564590107901296 -0.6764415460236507 0.22645363353180414
-0.3080664767699864 0.5773866854184813 0.6925627619542059 0.38967147108883826
00000000: c85d 526c 3b90 c43f 46cd 5acc 1561 debf
00000010: b241 e324 8c6c a6bf 4682 940e ea30 d33f
00000020: 37e0 cc83 a710 ec3f 5e71 9ad9 9c7a f3bf
00000030: 7613 75e6 debf d0bf 4c75 4987 e1f6 be3f
00000040: a0fc 67df 577e e63f 2027 57b4 18ef e53f
00000050: 8fcc 97ae 470d c8bf ecfc d06e 0625 ae3f
00000060: 7151 a790 b110 e13f d724 f75e 86a4 c2bf
00000070: e778 babd 68a5 e5bf 002c 0ac3 6efc cc3f
00000080: 7125 ae74 5cb7 d3bf 3c95 60a4 f379 e23f
00000090: f6a9 a061 7929 e63f 74b0 209c 60f0 d83f

lstm.bias_hh_l0 f8 [20]
-0.37586161059958967 -0.7897229224775278 0.3851026933617599 -0.13124525330599465 0.0861519427482635 -1.4214201525164936 0.5062237211483843 -0.25591712791286575
0.5570118866589365 0.1667785882392344 0.3593904543118299 -0.05038871913919899 0.45534646310481314 0.08747295386468541 -0.7306538127553849 -0.004407172567629172
-0.30174635386618365 0.6231525619455291 0.9456441023771901 1.0091308627427737
00000000: 4a37 56db 1d0e d8bf 2b29 9e01 6945 e9bf
00000010: 11c7 65c4 85a5 d83f 7f2c 5afb a4cc c0bf
00000020: 3d35 97c0 0d0e b63f 52f0 ce0e 23be f6bf
00000030: e355 d916 fc32 e03f f7ce b73b f260 d0bf
00000040: 57de 9597 0ad3 e13f 4b8d 1433 0059 c53f
00000050: 9ae3 f0d1 4000 d73f a593 94d9 8ccc a9bf
00000060: b79a d87d 6524 dd3f 9d22 22a4 a064 b63f
00000070: 3f6d cf1a 8461 e7bf 3694 bb60 410d 72bf
00000080: 5ab8 62f0 cf4f d3bf 6e30 3fa4 ddf0 e33f
00000090: 99b0 ab6b b742 ee3f e7d4 4d67 6625 f03f

linear.weight f8 [2, 5]
-0.00285708869145118 0.05939361134295703 0.10652315944752033 -0.15643991769698673 0.07048942116545254 0.7689393884534799 0.39641256954238435 -0.2784832486102799
-0.66730943658817 0.22408631803088988
00000000: fccf bacf bf67 67bf 2b61 9ee4 d668 ae3f
00000010: 48fc 170e 1a45 bb3f 2414 2625 3906 c4bf
00000020: 609d 9e3e 980b b23f 2a72 c0c6 269b e83f
00000030: 7c1a 7ad3 d25e d93f 97f5 5067 abd2 d1bf
00000040: 04ab ce51 995a e5bf b13c b647 dcae cc3f

linear.bias f8 [2]
0.007243612895177199 0.1436584505630942
00000000: 27b0 d587 7aab 7d3f ef33 7b6d 6663 c23f
