mixed_input_experiment/Trained_lstms_exp/lstm_noisefactor6.pth (torch, 4268 bytes, 6 tensors)

lstm.weight_ih_l0 f8 [20, 3]
00000000: 191a c98a 658b e6bf 4656 0314 b4c0 bc3f
00000010: e1cc 5970 1748 d83f c562 c9b5 9755 e3bf
00000020: f2b5 33b5 5dac d8bf 653b 14d3 dd1d dc3f
00000030: bd8f 5f9b c3bd dabf fc9c 8c79 9b94 bcbf
00000040: 312a 89b4 9502 c13f 8709 eecd ecce d0bf
00000050: d8e8 0a20 eeda f43f 4fa1 9ee1 dbf5 d0bf
00000060: 4199 af07 8b78 d9bf 84fb a718 11c8 e33f
00000070: 0ba3 3861 3928 ecbf 569f c5e5 29be f53f
00000080: 2149 d6e8 1695 f43f 1d14 26ac 9c56 fcbf
00000090: fd40 c3ba 40c4 e83f 60a7 de85 5c1c f73f
000000a0: 0546 6373 88e3 f7bf db00 1023 4bc8 c43f
000000b0: 2dc2 0a37 0cf3 ca3f 1116 7310 d13b cdbf
000000c0: 9d1a 4fa0 9d10 e7bf f9d0 06cb 80f9 f5bf
000000d0: ccc9 2e1e 6754 fe3f 3d4d 0dc8 9a00 d9bf
000000e0: afc5 7ae4 7bde efbf 5e04 4c6f cc50 f93f
000000f0: 665b b89a b407 6a3f 0896 9777 526d e6bf
00000100: 37cf 4602 8f86 e33f cfb1 3ab2 dcd2 c7bf
00000110: fe66 277f 2260 f03f 71cb 5a39 3750 d8bf
00000120: baff e350 9c30 d13f 3f6a f374 e0ae d83f
00000130: dc3f 2958 4842 eebf a8bc 1de5 95ad d6bf
00000140: b291 f6f3 9c7b f33f 77f4 8534 0854 c1bf
00000150: 5a29 b4c8 6626 dd3f 4b46 cda3 0903 e4bf
00000160: 97d5 c6eb 99ca eb3f e30b 962f 4567 fa3f
00000170: 8260 249a 2d15 e5bf 0feb c89c 3cb5 d8bf
00000180: ba29 7899 3fd3 d63f 17e3 d85f 49e3 e13f
00000190: bac2 f86c e345 f8bf 27a1 bfa4 9be7 bd3f
000001a0: 7629 2e6f d26e dc3f 6878 85b5 2d13 d23f
000001b0: f18c 4ccf 028c d9bf 93e1 c9b8 0037 e1bf
000001c0: e430 326e 0f60 f43f fd30 732f 6cbe ecbf
000001d0: b6b9 3a42 1a7b f2bf 9eea a10d e777 f03f
-0.7045161924987183 0.11231542099570743 0.3794001195121393 -0.6041983175774354 -0.38552038856036497 0.4393229066198983 -0.4178322808568245 -0.11164256780158505
0.13289138140892612 -0.2626297007592701 1.303449750105349 -0.2650060370747455 -0.3979823660905773 0.6181722146574065 -0.8799101733066846 1.3589266753642355
1.286398801345577 -1.7711455082474068 0.7739566467007816 1.4444241742407584 -1.4930500514350353 0.16236247264897127 0.21054222762679 -0.22838795951081228
-0.7207782870326188 -1.3734138422706208 1.8956061533941577 -0.3906619027740879 -0.9959086859218383 1.5822262141739638 0.003177502386971498 -0.7008449874671792
0.6101756138291198 -0.1861225004444251 1.0234703986120048 -0.3798959789375465 0.2685919561336011 0.3856736318681761 -0.945591137113293 -0.35434481978058807
1.2176789789019549 -0.13537695469486596 0.4554688415525071 -0.6253708075766523 0.8684815983785253 1.650212465174939 -0.6588352213466495 -0.3860618144132539
0.35664358126873774 0.5589949485793991 -1.5170625931461204 0.11681530735188926 0.44426403863385333 0.28242056585975783 -0.39917059177442044 -0.5379642113830861
1.2734522156270538 -0.8982449461705354 -1.1550543391309538 1.0292730839270585

lstm.weight_hh_l0 f8 [20, 5]
00000000: 69f5 2fa6 94a9 ad3f 8e9c eccc 1d68 e5bf
00000010: 71be 5303 bc67 f3bf 76b0 96fe cff0 f03f
00000020: 2296 11d6 9b1b 03c0 8cdf 2b57 b351 0540
00000030: 0476 b161 bc49 ec3f 7d80 e702 ba2a d83f
00000040: b86b 327f 326a 02c0 3695 ceb6 64e8 f33f
00000050: c3fd a162 b857 f23f 3d5e 7697 373d e93f
00000060: c9b1 631b 8ea7 d83f ade6 6f9e ca3b f8bf
00000070: 9762 e349 f9e9 fa3f 3b87 589b e766 f2bf
00000080: 308b d541 5762 0240 5e64 c3fd ea1f f53f
00000090: 80f3 cd05 70e7 eabf e252 2b7b 0e4a 0540
000000a0: c8cb c13d 1500 febf e6d7 817d df48 dd3f
000000b0: 86f0 1af0 31bc f23f 5120 fc08 ab68 dd3f
000000c0: 3228 0b40 2459 ea3f 7658 188b 84f6 e83f
000000d0: 76ba 8e78 b968 ecbf 4d51 064f e159 f5bf
000000e0: 8438 b20b 4ffd ce3f 81d5 0885 61d2 f5bf
000000f0: 4bb5 4ebb eae0 f33f 4b92 a3ca 7dc8 dbbf
00000100: 7c87 df6e 66df e8bf ac5c c059 497a eabf
00000110: cd66 711b 2e2b e0bf 64b8 0bf4 28d2 f83f
00000120: 3e25 d01d b903 ecbf 038b 7ca1 4eba f5bf
00000130: 1045 6b9f 9ebe eabf a52c 14df 9ef8 d3bf
00000140: 1199 76b1 454d fdbf 51c3 98b4 5216 cbbf
00000150: 188c 96cc e0dc f4bf fad3 1527 c6f9 f73f
00000160: f1e5 8fb4 3393 e2bf 69a8 7856 5740 f4bf
00000170: a09c 04e1 09f8 da3f a6ea 12a1 f67a f73f
00000180: 28e6 3244 82aa f83f c2cd a74e d21e c4bf
00000190: 259b 6b6f e1e7 e9bf a29c 7a51 9904 e23f
000001a0: 0b93 0c34 c404 eb3f d27f 39e5 17e3 d73f
000001b0: 6a24 1604 fb76 dcbf 22d6 e906 861e ebbf
000001c0: bac7 cb73 e13b 0040 e94b 80f7 a338 d63f
000001d0: 058b a022 3554 f5bf 8208 d749 0c90 0640
000001e0: 9b33 4efe 8b84 f5bf 1645 35be 47d0 f33f
000001f0: 0753 b9c6 e6fc e83f a268 5d45 1b3c 893f
00000200: 5605 ead6 1880 f23f cb49 a860 590c 02c0
00000210: 253c 7e98 1ca6 e4bf 7b89 62cc 476b c0bf
00000220: bc30 0182 b2dc f53f 21fc 6d30 4c9b e6bf
00000230: 34ab eaf0 0d20 d5bf 004f e26c bc7f 0140
00000240: 8825 9f2e 351f f93f 43c5 b897 2402 15c0
00000250: c148 2bfd 7e16 fc3f 783b 0197 7e0f ebbf
00000260: c977 71b6 ad77 f1bf c973 6b28 5c22 efbf
00000270: de26 93d5 8e81 b8bf 3480 380d ea77 f5bf
00000280: 81e5 7a5b 8909 dd3f 7643 44b9 f2dc b73f
00000290: 70a5 21c7 665b d1bf d8f4 3a60 c2e3 f3bf
000002a0: f7cd 7862 dc35 e03f 15c4 b1ec f794 d13f
000002b0: 49c7 5b94 aa25 d33f a346 7549 f01a e0bf
000002c0: 8a2a 0228 4f33 e8bf eac8 cc10 5e6f d13f
000002d0: c5b1 b36f f4cd fabf 7bab ed0d 19d4 e53f
000002e0: a1f7 9b0f 50ca cc3f 42c1 d5e0 d7e7 d83f
000002f0: 3e97 804a 5964 d43f f43e 5b00 59b6 d5bf
00000300: 6605 6fba 52ca f13f fbb7 d904 5255 fd3f
00000310: 2d97 b055 6914 c73f af5a 9472 b80a e83f
0.057934422766247114 -0.6689595224787739 -1.2128257875409896 1.0587921090000498 -2.388480827724167 2.6648928461326644 0.8840009601660204 0.3776078251230571
-2.301854127622814 1.2442366734406511 1.146416077884951 0.7887227972268601 0.3852267520403783 -1.5145975293111562 1.6821225057848659 -1.1501232212253416
2.298017992333733 1.3202924645068133 -0.8407516587609365 2.66116043306316 -1.875020257223456 0.45757281548082884 1.1709460620031975 0.45951343419483687
0.8233815432406628 0.7800924984646957 -0.887783751930171 -1.334443386736058 0.24210537024595535 -1.3638625332508527 1.2424113575646796 -0.43411202229461726
-0.7772705235949924 -0.8274275544125849 -0.5052710090633014 1.5513085873640415 -0.8754544813429346 -1.3579851444307571 -0.8357689965870652 -0.3120495966438262
-1.8313652927550417 -0.21161874597739908 -1.3039253226968466 1.4984799887436098 -0.5804689909556925 -1.2657082917962958 0.4213890740815689 1.4675203601788467
1.5416281379715517 -0.1571905979213693 -0.8095557380846442 0.5630613891015808 0.8443318382820463 0.37323567757812015 -0.4447619953066978 -0.8474760184314543
2.0292386099399353 0.3472070614818095 -1.3330584862348485 2.820335938334268 -1.344860070591699 1.2383496694568001 0.7808717614485382 0.01232167535242851
1.156273688801169 -2.2560298491818904 -0.6452773073559724 -0.12827393989307354 1.3663811758333813 -0.7064572282687359 -0.3300814488126662 2.18737111154212
1.5701190777930112 -5.2520927149319645 1.7554921998421806 -0.8456414174378173 -1.091718399685748 -0.9729443349311789 -0.09572689737538151 -1.3417759434160077
0.45370706494903607 0.09321515105354003 -0.271203703369415 -1.2431052931781803 0.5065748141554981 0.27471731295287444 0.2991739701093264 -0.5032884058693593
-0.756263330594565 0.2724223293363496 -1.675281940780324 0.6821408531226177 0.22492409479303624 0.3891505904821494 0.31862480426422113 -0.33925461802299073
1.1118953020635103 1.8333301724883302 0.18031040844032856 0.7513086545830755

lstm.bias_ih_l0 f8 [20]
00000000: 36f6 eef4 385e e2bf da3b 4574 8fb5 d23f
00000010: ba6d fff6 63b4 b4bf 0feb f8d3 bfd4 c0bf
00000020: a8a8 eeac 9fe0 c5bf 8807 8a7e ce81 f1bf
00000030: c1c4 cf99 b506 e63f 3286 b483 0352 c63f
00000040: 3653 1676 df05 e53f f90e eacb 275f bc3f
00000050: 7688 2ca8 9f82 d93f c48d c19d dc12 e5bf
00000060: ab29 4984 2d3b e3bf 68ac 5cac 33c7 e83f
00000070: 53af e51d 2d1c e2bf 960f c4d5 b7a9 f33f
00000080: b6e2 a421 e7a9 e83f 274a e157 6bae c73f
00000090: af3d 01ba 8a40 e93f 7e89 1173 ac79 e93f
-0.5740017684799514 0.29233156542335126 -0.08087754039973208 -0.13149259424411538 -0.17091747230489784 -1.0941910689293497 0.6883190158970579 0.1743778603641189
0.656966906203343 0.11082695701957936 0.39859763549078 -0.6585524636433822 -0.600973852511108 0.7743166319318222 -0.5659394821100058 1.2289350843647973
0.7707400948630354 0.18501035491006343 0.7891286499888589 0.7961027381355021

lstm.bias_hh_l0 f8 [20]
00000000: 0130 49b4 5546 d0bf 70a1 6dad 5474 dfbf
00000010: d3cb 0794 9ef4 bf3f 6231 6937 f326 c5bf
00000020: c53a 9582 1c0e b9bf 17de 7672 3e0a f2bf
00000030: bcff c415 9931 ed3f ceff f0be adf6 d53f
00000040: 301f 6946 94e6 dd3f 750a 3835 5f84 e23f
00000050: caee 12c4 c32d dabf ca7e 09d7 9d73 a1bf
00000060: b397 0643 5910 b9bf a114 673d 9e85 e53f
00000070: 818d db6f 341f e9bf a485 d1a1 a019 e63f
00000080: 9c35 5120 02c6 d03f 78fe ebca a249 b23f
00000090: 8e40 7e68 b066 e33f 7fef 5d6d e5b5 d33f
-0.2542928944210417 -0.4914752668032838 0.12482634653115036 -0.16525116162882642 -0.09787157238063589 -1.1275009604704616 0.9123044419466093 0.34318107267972386
0.46719843746221823 0.578658679907973 -0.40904325626227644 -0.03408520936932076 -0.09790571104403405 0.6725608062048601 -0.7850591835707946 0.690628353168155
0.2620854678724187 0.07143609480044144 0.6062852898485447 0.30797706299176036

linear.weight f8 [2, 5]
00000000: 249a 861c 1bb1 c83f fee2 e7f4 f068 a2bf
00000010: 3fe9 867e 78cd d5bf e86f d9bb 88df cf3f
00000020: a10b eb15 77be d73f 38ef 3991 6169 efbf
00000030: a718 438f 9447 eebf 6115 2acd 4158 c93f
00000040: bd2c 6ef5 8863 e0bf ab22 fb7a 4aa3 e73f
0.19290484326229873 -0.03595688809941143 -0.3406659350981904 0.24900921985943048 0.37100007191127743 -0.9816139065219209 -0.9462378309333602 0.19800589101593416
-0.5121502679407041 0.7386829759571659

linear.bias f8 [2]
00000000: 82b9 b417 cbf5 a2bf bc8d 7615 a9a8 c93f
-0.037031504291337405 0.20045960948946895
