mixed_input_experiment/Trained_lstms_exp/lstm_noisefactor.pth (torch, 4258 bytes, 6 tensors)

lstm.weight_ih_l0 f8 [20, 3]
-0.08879955816560361 -0.7828234938452219 0.5266569770347242 0.8295527365322751 0.5213361957627839 -0.15838183370145023 0.23839115139587722 0.15822416051286137
-0.21464613972474242 0.4447887307451345 -0.47357697461657783 -0.06585568344022892 -0.02660583216105999 -0.4446979161711505 -0.14033594734874832 0.29873666372991026
-0.1869662038385123 -1.3020463610616695 0.4592719587553726 1.3087349324270863 0.249837585585755 -0.0884202514842168 -0.2517952193214525 0.413000631967831
0.47205656231233445 0.050822070746242495 -1.0937315477474876 -0.6775212803701249 0.3423447268862139 -0.8333772826181666 -0.4394959866047279 0.6075821665458021
-0.3002549977823005 0.16726035011431206 0.690301408288706 -0.5888593573086524 0.2418767572188946 0.44028174894509736 -0.6335356229431469 -0.3483546880654013
0.8419345723857808 -0.7006471611094905 0.16808814381757844 -0.07930718156534733 -0.6498216523101283 0.44520432049496694 -0.03868077364224392 -1.0093439942923
0.28443050264338027 0.7675606503407464 -0.5314396098048618 0.5891726482681071 -0.16558348140351206 -0.16816937311737218 0.5731507430937217 0.018975611397908886
0.951970998338252 0.7945990058989111 -0.2683162583772457 -0.36790049148760573
00000000: d273 385e 91bb b6bf c661 13db e30c e9bf
00000010: 3061 92bb 5fda e03f 63d4 362e b28b ea3f
00000020: f3b5 e03e c9ae e03f 599d 031e db45 c4bf
00000030: 8156 73eb 9983 ce3f 607e 6b75 b040 c43f
00000040: 0b4b 2a53 8679 cbbf 3e80 0b27 6b77 dc3f
00000050: 0b7a 87cc 154f debf c5aa a106 ebdb b0bf
00000060: eff7 0e2c 8f3e 9bbf f67b a33f ee75 dcbf
00000070: 6474 2840 87f6 c1bf e482 3562 801e d33f
00000080: 82ca 7831 82ee c7bf bd2b aa90 2ed5 f4bf
00000090: 77bf b436 b664 dd3f 8183 5e0a 94f0 f43f
000000a0: 7582 b391 adfa cf3f 45c6 6da8 b5a2 b6bf
000000b0: 1796 11b2 691d d0bf dcdd e133 9a6e da3f
000000c0: 2b98 3fba 2c36 de3f d64b 8ab7 5905 aa3f
000000d0: dddc c2a6 ec7f f1bf 5814 b11b 41ae e5bf
000000e0: 3dcc 7bdb f9e8 d53f 4761 c2d5 06ab eabf
000000f0: 2432 4cc6 b320 dcbf 324e de27 5071 e33f
00000100: c7df fbbc 6037 d3bf 1449 d482 c968 c53f
00000110: 9272 9ffa f216 e63f 19b2 3294 efd7 e2bf
00000120: ad76 f54c d1f5 ce3f 0bac 2f80 932d dc3f
00000130: a789 ac7f ec45 e4bf 2b8c 2976 714b d6bf
00000140: f998 b8c5 20f1 ea3f 2304 6098 b36b e6bf
00000150: 255b 458c e983 c53f e83d 29b7 794d b4bf
00000160: 2cf3 1cc7 56cb e4bf 1015 2443 3a7e dc3f
00000170: 8709 8e63 f7cd a3bf 1a64 5ee3 4526 f0bf
00000180: 69a4 b5fe 1b34 d23f b21e 5d5a db8f e83f
00000190: f325 fda3 8d01 e1bf 9f4b 0099 80da e23f
000001a0: 7365 b1ea d631 c5bf fa2c ddf2 9286 c5bf
000001b0: 1080 283a 4057 e23f 73a3 80b9 576e 933f
000001c0: ee4d 13e2 8b76 ee3f 4da3 f8e4 5a6d e93f
000001d0: 66c8 adf4 172c d1bf 2ec8 c780 ae8b d7bf

lstm.weight_hh_l0 f8 [20, 5]
-0.19867911633807023 0.016581017644051073 -0.12480148816107337 -0.4483770762201733 -0.5561322788649179 0.6962209027008698 0.24874381295272416 0.10230524863205559
0.4501962295262533 -0.9793851070420225 -1.7508660933030133 2.00659526567252 0.07939783170177865 -0.7469801865475851 0.6588288964900499 1.4159321384334924
-2.2386437299466078 0.15092701873199516 0.7653011895749873 -2.090730815607725 -0.30313406764823625 0.17205124926275067 0.883433783125079 -0.2857510984447691
-0.3563545072308126 -0.09022397478643097 0.49566301807868596 -0.9136062828162649 -0.4186035683578736 -0.39931639074521713 0.20175537292531365 0.3239013322953008
0.19324610827899003 -0.0021948600579052248 -0.6633554679903363 0.45242024174339057 -0.013462642883709202 -1.2075772153788566 -0.11369263216961106 -0.016633543923465884
0.06147463561117203 0.6694737974330425 -0.7362038395813278 0.08047719189580345 -0.17054965127756463 -0.47052031610512324 0.10039919572516585 0.31785399463291386
0.19450986696151515 0.041243164627335946 0.7915972637645984 -0.28786481004413034 0.9827241597096987 0.4905167000487975 0.3289508277115972 -0.03371358667996874
0.33431828931466234 0.16609752478146048 0.2535057480465196 0.18404630594717813 -0.7323069951681235 -0.3900268274307033 -0.4554359654811388 -0.6012455405272205
-0.5593146477090867 -0.27283036652933096 0.31652309326421485 0.36849127121430975 -0.04205567829057488 0.3812707320869736 -0.26975764144733805 0.08334908820634171
-0.11161378037911408 -0.03551446379917458 -0.669613078466111 -0.27516542597181415 -0.973426051195057 -0.2931324857175441 -0.3106513334807351 -0.6598691879624264
-0.14046525878190186 0.3654074709859079 0.7123001960170412 0.049607007390484056 0.014543731121227138 -1.0225787893724394 1.6925630046392688 -0.16768224147660507
-0.5395381188010562 -0.027795205071939666 0.350163064295166 -0.44931445051345814 -0.8041139006118635 -0.14893654039221135 -0.5389207914733343 -0.6979071723686899
0.1056303449115007 0.5738879558949093 -0.5984548196983301 -0.3749594634673108
00000000: 04fc 8839 516e c9bf 02f9 0f42 9dfa 903f
00000010: 56d9 2486 fdf2 bfbf 5412 a9c3 35b2 dcbf
00000020: 5a31 bfeb d5cb e1bf e789 fc0e 7147 e63f
00000030: e76d db56 d6d6 cf3f b875 1541 ad30 ba3f
00000040: d341 a6d8 03d0 dc3f 14eb 9d6f 1f57 efbf
00000050: 6f96 262a 8c03 fcbf a9f9 92d1 810d 0040
00000060: bb4e 8892 6a53 b43f 606b fffd 42e7 e7bf
00000070: 80b4 8256 2015 e53f cad5 3e75 a8a7 f63f
00000080: 0c21 3c0b bee8 01c0 8ab2 c498 9351 c33f
00000090: 1c10 9aeb 587d e83f 5a32 ee13 d1b9 00c0
000000a0: 6e91 b66e 8c66 d3bf 02e4 687c c605 c63f
000000b0: 4b85 d6ec 1645 ec3f 7072 a7f9 be49 d2bf
000000c0: 91aa 9522 83ce d6bf 79d9 051d eb18 b7bf
000000d0: e603 1f61 f1b8 df3f 25b6 433e 433c edbf
000000e0: 7e80 059f 66ca dabf 4d7a c055 668e d9bf
000000f0: 30d5 40bc 1ed3 c93f 90b4 55a7 ccba d43f
00000100: d09a 91d9 49bc c83f b640 6085 f4fa 61bf
00000110: 4785 143f 353a e5bf 8e85 9507 74f4 dc3f
00000120: 69df 3957 4d92 8bbf a826 777c 3c52 f3bf
00000130: 74f2 f6d8 f51a bdbf efe4 ab3c 6208 91bf
00000140: 6c8d f77a 9a79 af3f 821f 3050 546c e53f
00000150: 3920 c65a fb8e e7bf 4532 443b 279a b43f
00000160: 8169 4a2b 92d4 c5bf 049b 713e 011d debf
00000170: a72d 2ffe c2b3 b93f 1a7c f647 b857 d43f
00000180: a3ac ac06 b3e5 c83f 4612 84f6 d21d a53f
00000190: eb1a efc8 c354 e93f 40c3 3386 606c d2bf
000001a0: ce26 deef 7972 ef3f c77d 3628 a064 df3f
000001b0: 36dc c0c5 870d d53f c451 7140 e842 a1bf
000001c0: bce9 c389 7865 d53f 9903 7106 af42 c53f
000001d0: e24c 4d2c 7039 d03f 1e12 7f50 d48e c73f
000001e0: c121 5c14 0f6f e7bf 1129 1815 33f6 d8bf
000001f0: ab79 4ae4 dc25 ddbf a5c4 ad49 673d e3bf
00000200: 7eb2 02d5 e7e5 e1bf cb58 667f 0d76 d1bf
00000210: 6be8 7f13 ea41 d43f f785 ae69 5c95 d73f
00000220: d0fc bc65 5288 a5bf ea12 4f5b bd66 d83f
00000230: be31 f78d b543 d1bf 7266 ffa7 5d56 b53f
00000240: 69df 8280 b892 bcbf 33d8 1aa9 f32e a2bf
00000250: e88b 1f68 786d e5bf 887c 6272 4f9c d1bf
00000260: 50a1 de63 4e26 efbf 9b54 e3c1 aec2 d2bf
00000270: 098c 7021 b6e1 d3bf 6ff9 bdfc a51d e5bf
00000280: 0ca2 58fe c3fa c1bf 894e 6604 d662 d73f
00000290: 8c7b dac7 29cb e63f ae03 caf4 1666 a93f
000002a0: 9d4b 388c 1ac9 8d3f a301 9f93 7b5c f0bf
000002b0: c285 f5f1 bc14 fb3f 0189 a197 9c76 c5bf
000002c0: ce44 e671 e543 e1bf 8010 14a3 5876 9cbf
000002d0: 738d 5a57 1269 d63f 35d5 a465 91c1 dcbf
000002e0: e161 2c13 4dbb e9bf affb 1441 5a10 c3bf
000002f0: a265 d0d0 d63e e1bf 99f4 1e6c 4155 e6bf
00000300: 382f dc1c 970a bb3f b261 4446 4a5d e23f
00000310: ea9c d7b8 8a26 e3bf 58bd 3afa 55ff d7bf

lstm.bias_ih_l0 f8 [20]
0.1388284012221773 0.9319297462953775 -0.5819631705107378 0.0887488652189654 0.5739072587213097 0.632194129372479 -0.21944045065617798 -0.5518962836758513
0.49357449095443545 -0.4067333873177363 -0.31247467885849634 0.6436829129051919 -0.391722597289468 -0.1360689451257465 0.4509788421553242 0.12602522730958673
0.41840117005068556 0.37699606152477133 0.2579453625393405 0.3654409097531451
00000000: fbaa 8009 21c5 c13f 5e43 d054 5ed2 ed3f
00000010: 2e3e 1a3a 719f e2bf 6f2d ace1 3eb8 b63f
00000020: 22a4 64c1 725d e23f 7f18 cc2e ef3a e43f
00000030: c76f 7eeb 9f16 ccbf bb7e 2565 22a9 e1bf
00000040: 6781 3276 b996 df3f 8324 2e79 eb07 dabf
00000050: 3e9f a1cb 95ff d3bf 837f 7de8 0c99 e43f
00000060: ac98 1da8 fb11 d9bf 837c a80a b56a c1bf
00000070: 1faf 8f5c d6dc dc3f 8700 e23a 9821 c03f
00000080: fc73 7eb3 15c7 da3f 830f be16 b420 d83f
00000090: a5b9 1044 2d82 d03f dda7 0045 6263 d73f

lstm.bias_hh_l0 f8 [20]
0.35747352688241735 1.008824144022082 0.00979641935848559 0.07077056046628145 0.8147681649853514 0.28942314852936474 0.306460133440011 -0.30964421393794656
0.8062350949729965 -1.0267343951781736 -0.62467224841229 0.6391193002411896 0.23859137722442567 -0.10480722698456507 -0.0374358207965645 0.6329172114859413
0.40680135286727226 0.22103297515911075 1.0446095052906315 0.35868116715416054
00000000: 1f54 c9a4 d8e0 d63f 30d7 1fc9 2424 f03f
00000010: 69cc 1926 2510 843f a5e6 b8fa 041e b23f
00000020: 77e3 cdaf 9412 ea3f ebe4 68ab e885 d23f
00000030: e8c4 a9f6 0a9d d33f 3995 10f7 35d1 d3bf
00000040: b77c b98a adcc e93f 5e7f 8f0b 816d f0bf
00000050: 4ec9 b4a7 50fd e3bf f3e7 9851 aa73 e43f
00000060: 47ac 2489 298a ce3f e47c 487c a5d4 babf
00000070: 9252 0ab4 c92a a3bf 550b 8d98 db40 e43f
00000080: b424 a28a 0809 da3f daae d2fb ce4a cc3f
00000090: 2606 e574 b8b6 f03f 1091 a7da a1f4 d63f

linear.weight f8 [2, 5]
-0.14941374827044374 0.09646011710364177 0.10609523157165389 -0.19817435120689542 -0.37966677172442337 -0.3676647066273134 0.13190557975880687 1.1229418571032077
-0.8112071657640615 0.5922658949663316
00000000: 7c79 325d fd1f c3bf b816 5438 9cb1 b83f
00000010: ef9e dc9d 0e29 bb3f 2079 abf2 c65d c9bf
00000020: 81cb fbdb 754c d8bf 4de5 b68c d187 d7bf
00000030: dfab 9c33 48e2 c03f a315 79e1 91f7 f13f
00000040: 8f99 e7ba 68f5 e9bf 8154 2d9b d7f3 e23f

linear.bias f8 [2]
-0.022956657873669423 -0.3226230943474455
00000000: 65e6 2b3b f381 97bf c005 ca55 dba5 d4bf
