mixed_input_experiment/Trained_lstms_exp/lstm_ws4_Ansatz1.pth (torch, 4258 bytes, 6 tensors)

lstm.weight_ih_l0 f8 [20, 3]
00000000: 5db7 af5b e7f3 c63f 9ff2 b627 41ae c8bf
00000010: f2b7 4042 1081 dbbf 1a66 9541 1701 cd3f
00000020: e649 901e f069 b5bf ad43 a495 254c ecbf
00000030: 2c41 b898 0ab6 d2bf 967b 5dd3 afab b33f
00000040: 6d34 73f9 aef2 e33f 0543 93e9 f5ed e3bf
00000050: f8f3 c3f2 37af db3f 0798 1f3e e46a d9bf
00000060: 8c34 bbbf a360 c03f 8acd 56ce 7eb5 913f
00000070: 4421 8964 e8e0 bd3f 5f5e 80ec 69fc c2bf
00000080: 5d9d 5613 7d1d d13f 87ca 3e1c 3b94 f3bf
00000090: 7fdd 096b d608 fabf 674e e285 4b5f e03f
000000a0: aae0 b984 7274 eb3f e809 9d95 cf2f f63f
000000b0: 7fcb 2cff 9515 dfbf eb82 4dd2 2e70 f4bf
000000c0: 5bf3 ddc0 8686 73bf 3f0b beff 180c d6bf
000000d0: ede3 6020 e8b6 f03f 54e7 560d 91f9 e6bf
000000e0: 9d8b e422 9bfb c23f be28 581a 149a e73f
000000f0: 83a7 a203 acc3 c2bf d76e e518 4ff7 d23f
00000100: 925e d7bc 8742 e33f 0468 d6ff ec43 c83f
00000110: a317 9593 c27f dcbf b37e c1ba ef43 dd3f
00000120: 458b 169b 4150 ce3f b17f b566 c439 be3f
00000130: cff3 761f 1b62 eb3f 0927 b34e 439f c43f
00000140: 05cb 2bc6 c4da a4bf 6b66 eff0 4523 e7bf
00000150: 1fb0 34d9 e178 d0bf 817d 4957 1292 adbf
00000160: 22e8 53e5 cd91 ebbf 62a5 06e5 cc31 f03f
00000170: c1bd 85d3 e57b fdbf 6b02 f566 3c01 de3f
00000180: 8125 45a2 8a53 c7bf 92f5 417f b67b f83f
00000190: 42ac a656 f858 d5bf 8f76 a817 5a0e da3f
000001a0: c496 007f 2721 cfbf a695 d2af 5b09 bdbf
000001b0: d59f 8a25 11f1 d03f 3627 4450 3793 81bf
000001c0: 678e eb38 3456 9f3f 802f e82d beec babf
000001d0: b6e2 34c4 8cd7 c5bf 448e 7342 4e1f cc3f
0.1793183515250644 -0.192817825691141 -0.4297524115562502 0.22659578993152324 -0.08364773508245768 -0.8842952654541613 -0.2923609248546366 0.07683848295481108
0.6233744499273947 -0.6227979242340501 0.4325694914585365 -0.39714914385547256 0.12794920789602704 0.01729391226190339 0.11671307043537121 -0.14832805679246783
0.26742483986386906 -1.2236891845065274 -1.6271576100533307 0.5116326918527648 0.8579647629076324 1.3866725773119644 -0.4856925002997556 -1.2773884024574567
-0.004766966228882587 -0.34448838209953075 1.0446549668106357 -0.7179646740471335 0.14830340579746074 0.7375584139383802 -0.14659643342502812 0.2963445418479131
0.6018713653856642 0.18957293026034006 -0.4452978554949089 0.45727151143908457 0.23682422707232767 0.11806895740073632 0.8557258238357636 0.16111031859173178
-0.04073157233314898 -0.7230558114781166 -0.2573780652189743 -0.057755063204917974 -0.8615483740861729 1.0121582933737376 -1.842748476275901 0.4688254361572379
-0.1822369854292383 1.5302033396722874 -0.333555302257711 0.4071259718929036 -0.24319928838047222 -0.11342404406112525 0.2647135607353424 -0.008581573617010823
0.030602279638414134 -0.10517490978980781 -0.17064055996322275 0.21970537419029956

lstm.weight_hh_l0 f8 [20, 5]
00000000: 5f19 7a48 0591 e23f f3cc 3d9f 7fbf e1bf
00000010: 2646 7340 6e49 f53f 51ee f9eb 32c8 e8bf
00000020: 5374 d1e4 0c57 adbf ae23 0d54 34c2 e7bf
00000030: 0948 2614 b0a1 e63f 5093 12a1 a7c8 c53f
00000040: 8ed2 3be7 a2a3 e83f a378 3900 49d7 e8bf
00000050: d5af e2f4 de17 f43f 6202 f9e0 2582 f13f
00000060: 2b52 5667 aedc d9bf 4494 5892 1e44 f4bf
00000070: b7f4 b4cc 3479 d9bf 7f12 54a2 0059 f3bf
00000080: c89c c768 90d8 ffbf a0ec 1e4e bc08 ff3f
00000090: f8ae 8e53 d6c8 efbf ae89 1011 50be c5bf
000000a0: 1d6c d1b1 cf73 f83f cc68 1207 1a6b f73f
000000b0: 707a c284 0a0f 02c0 d6c0 9d1c d294 f83f
000000c0: 8703 5710 2190 cebf 9feb d608 243a d63f
000000d0: 8898 4334 80d0 ee3f 867d 0302 bb21 e13f
000000e0: d85d db7e 4cad efbf 65b5 51bb e5b2 c1bf
000000f0: 6d87 ece0 b186 c53f b42f ca5f 418b aabf
00000100: 655d 4517 84da e3bf 1da7 8566 6021 e63f
00000110: 7f04 59be e8b5 ea3f 4403 8e2c 8374 dfbf
00000120: 903a cf99 0b74 dd3f c40b 25a9 1b0c ea3f
00000130: 8a83 4fe7 0056 febf 3d1d b906 7983 efbf
00000140: ce30 be6a 3d7f f13f 0acc 7e64 b0e3 d6bf
00000150: 0952 0849 42a3 d9bf 99eb 83b7 dbf6 b03f
00000160: d593 b386 2fd6 f63f 3eeb 06bc f89c d1bf
00000170: 0147 cbce 281e ebbf c06a 17c3 cee5 f13f
00000180: 3a7f 7edc d96c bbbf d748 2b25 9a9d dd3f
00000190: a4a4 2fc1 b3b1 e0bf 8448 bf91 66c0 f5bf
000001a0: 7691 60a6 0026 c9bf fd3f 0f4b dbdb cd3f
000001b0: 744d c572 8b65 e73f dcb4 5fdd f04a c63f
000001c0: 1680 aea2 9c4e d83f 0d5c ae40 5910 ccbf
000001d0: 1cfc 8bd8 d214 bc3f 385c f19d 3314 a2bf
000001e0: 1c4c 1b6b 1804 dfbf 75dc 46fa 87df d3bf
000001f0: 30e8 0798 6f28 cc3f cd7f c7e5 21eb f5bf
00000200: f337 1e06 9457 d23f 5c2f c4c8 4bc8 9fbf
00000210: 5af4 53c4 0d9e db3f 20ec e80f cc96 f03f
00000220: 7387 213b 20b2 e0bf 8b31 8e03 08f4 ddbf
00000230: c8fc 7e44 ca45 e5bf 0527 6871 3324 e9bf
00000240: aa06 12ee 55d5 cb3f 9964 1833 11f0 df3f
00000250: 169d 2a73 fc64 e03f a71d 2153 b30f eabf
00000260: 7eee 6874 894e d5bf 10ac 784c fd68 fb3f
00000270: 1800 f07e 1055 d8bf 4972 083b 190c dd3f
00000280: 7cd6 3bcf 6da4 d63f ca1c 71c4 b152 e33f
00000290: 4907 2e37 3d35 d6bf 5fe4 f951 d6ec e53f
000002a0: 1f1f 44c5 97b9 e9bf 2a5c f061 eabc eb3f
000002b0: b875 aaa2 2999 d53f ab34 a909 eeb1 d13f
000002c0: 4adc 5205 1387 e1bf 1840 4deb d522 be3f
000002d0: 31f2 736a 179b e5bf 242f 91a0 a703 fdbf
000002e0: 24e9 c61e 7366 fc3f d67d 2bd2 c03d d73f
000002f0: 3ef8 4e38 ce70 b13f 6239 8bbd d14d df3f
00000300: 3982 c6d0 d9ec e73f 039a 61db 1354 f5bf
00000310: 9daa 4c7a b919 e33f 2349 6d95 6f52 dabf
0.5802027144971297 -0.554626284616829 1.3304274098958415 -0.774438343898007 -0.05730476659002961 -0.7424565927150206 0.7072372811837805 0.17018599858161076
0.7699751392634242 -0.7762799267182071 1.2558278623428027 1.0942744052882962 -0.4040943154480227 -1.2666307179108722 -0.3980228423204823 -1.2092291203454406
-1.9903720944364967 1.9396327067941357 -0.9932662612895617 -0.16987038453323805 1.5282742448823747 1.4636478687521501 -2.2573442813730296 1.5363331907101858
-0.23877347276541291 0.3472986303638041 0.9629517575056221 0.5353674926117697 -0.9899046399759142 -0.13827201506084488 0.1681730602513726 -0.051843684142198226
-0.6204243139754168 0.6915742876419447 0.8347057073334695 -0.491486352453695 0.46020784397561787 0.8139780334098465 -1.8959969554491374 -0.9847989207563966
1.0935644311567105 -0.35764703573221424 -0.40058953411178827 0.06626675825456942 1.4272914182449672 -0.2752057872964321 -0.8474315680452663 1.11860538680655
-0.1071296847644562 0.4627442706088351 -0.5216921590009815 -1.3594728177309046 -0.19647224544418024 0.23327199139612267 0.7311455957046022 0.17416201409597576
0.37979808699492545 -0.21924892099625062 0.1096927431753873 -0.035310376196030224 -0.48462496242172093 -0.31051825944036376 0.21998400615103852 -1.3699053741220155
0.28659535024132693 -0.031037506226354025 0.43152183697367763 1.0368157025793678 -0.5217438845540826 -0.4680194887848976 -0.6647693002522823 -0.7856690611817788
0.21744798779041236 0.4990275382020371 0.5123274087281142 -0.8144165633793151 -0.33291851394799454 1.713132189480124 -0.3801919211982763 0.45386343731823736
0.35378594625158377 0.6038445317034526 -0.34699945820476735 0.6851607895943167 -0.8039053776601327 0.8668109810704483 0.33747330556237953 0.2764849752755462
-0.5477385620096211 0.11771904940292222 -0.6751820639761431 -1.813392283644995 1.7750121309496274 0.3631441166343995 0.0681275260421623 0.48912471304074334
0.7476624562878619 -1.3330267495708774 0.5968902004872977 -0.4112814864394229

lstm.bias_ih_l0 f8 [20]
00000000: 258a 97bc 48fd e43f a99a aeda 1400 c6bf
00000010: 54e3 dbc8 30d0 a93f 035e 1e6f 4747 d03f
00000020: 6ce4 db6b 8575 47bf 4f54 5d40 df82 cfbf
00000030: 8753 b870 a62c da3f 9359 4499 30fe aa3f
00000040: 4eb3 137b f944 ecbf 3c62 36b7 8f58 ed3f
00000050: dcfa 5504 d879 c4bf 46ce 3285 008b e1bf
00000060: 180d 95df 9e00 d13f 2c51 dc5b fc8d d0bf
00000070: d04e d43f 859e cfbf 8540 1ee4 6991 d83f
00000080: 1051 a4de 4345 db3f 4799 5b75 566b c73f
00000090: 5211 7fef a608 d1bf 2197 b68e 6ff7 db3f
0.6559184726177746 -0.17187748601755473 0.05041649295703246 0.25435052730014734 -0.0007159139128979481 -0.24618139879990728 0.4089752293378343 0.052720564565038285
-0.8834197429510853 0.9170607164733791 -0.15996837817870968 -0.5482180215389654 0.2656628783626771 -0.25866612406504674 -0.2470251619021071 0.3838753440586589
0.42610260717744186 0.18296318750726412 -0.26615308178249564 0.4369772809680957

lstm.bias_hh_l0 f8 [20]
00000000: 4630 7078 ac1a c03f 74b7 782a 126d e13f
00000010: 62ad 4c04 5387 c53f ea9f 5c4e 09a8 cb3f
00000020: 0d08 9c6f 213f cabf 97f5 b653 c90a e9bf
00000030: 8a17 58b9 977c b13f f8c3 ab4a 5d70 d83f
00000040: c425 2ae5 262d f0bf 3d69 ec05 5fd8 db3f
00000050: cf69 db89 d240 e5bf 61e7 5164 127f e2bf
00000060: 33d0 0a99 1e12 e73f f6d2 1fcf 9481 a0bf
00000070: e601 7ad5 3cd6 da3f 08b3 6771 4ef8 ca3f
00000080: cc7b 9581 b024 cf3f b8a8 3984 401d e83f
00000090: 8aa5 ecd3 251a b8bf 7df6 90c1 7597 dc3f
0.12581401711247703 0.5445643262407729 0.16819226942002802 0.21606556249866965 -0.20505159330065262 -0.7825667033245506 0.06830738329889932 0.3818581799706062
-1.011023421453829 0.43508124903168605 -0.6641628925820501 -0.5780116996167913 0.7209618558031309 -0.03223862675068816 0.4193260273678149 0.21070271050793843
0.24330717398967605 0.7535708029293096 -0.09414898322997636 0.44674438384013354

linear.weight f8 [2, 5]
00000000: 5d3b f014 d59c b43f dea1 0342 1e8b ce3f
00000010: 531f 56b2 8f9b cc3f c9a2 45fe 5614 acbf
00000020: 37f8 fe8e 0451 cfbf 5b87 bc63 459c e2bf
00000030: dd03 e006 8a37 923f fcb7 d714 7706 d13f
00000040: a19d 6de0 15ee ea3f b94f d0a1 52e6 dbbf
0.08051807175818966 0.2386205503783136 0.22349735458214556 -0.05484268049150882 -0.24465996725297298 -0.5815760562875129 0.017789990110035226 0.2660196021596446
0.8415631659853952 -0.43593278696175336

linear.bias f8 [2]
00000000: 2c84 9214 4f5f a03f 4517 d874 dbbb c3bf
0.03197714925887171 -0.154170448353563
